<?xml version="1.0" ?>
<net name="Model0" version="11">
	<layers>
		<layer id="0" name="image" type="Parameter" version="opset1">
			<data shape="1,3,256,192" element_type="f32"/>
			<rt_info>
				<attribute name="fused_names" version="0" value="image"/>
				<attribute name="old_api_map_element_type" version="0" value="f16"/>
			</rt_info>
			<output>
				<port id="0" precision="FP32" names="image">
					<dim>1</dim>
					<dim>3</dim>
					<dim>256</dim>
					<dim>192</dim>
				</port>
			</output>
		</layer>
		<layer id="1" name="Multiply_50849_compressed" type="Const" version="opset1">
			<data element_type="f16" shape="32, 3, 3, 3" offset="0" size="1728"/>
			<output>
				<port id="0" precision="FP16">
					<dim>32</dim>
					<dim>3</dim>
					<dim>3</dim>
					<dim>3</dim>
				</port>
			</output>
		</layer>
		<layer id="2" name="Multiply_50849" type="Convert" version="opset1">
			<data destination_type="f32"/>
			<rt_info>
				<attribute name="decompression" version="0"/>
			</rt_info>
			<input>
				<port id="0" precision="FP16">
					<dim>32</dim>
					<dim>3</dim>
					<dim>3</dim>
					<dim>3</dim>
				</port>
			</input>
			<output>
				<port id="1" precision="FP32">
					<dim>32</dim>
					<dim>3</dim>
					<dim>3</dim>
					<dim>3</dim>
				</port>
			</output>
		</layer>
		<layer id="3" name="Multiply_48966" type="Convolution" version="opset1">
			<data strides="2, 2" dilations="1, 1" pads_begin="1, 1" pads_end="1, 1" auto_pad="explicit"/>
			<rt_info>
				<attribute name="fused_names" version="0" value="batch_norm2d_0.b_0, batch_norm2d_0.w_0, batch_norm2d_0.w_1, batch_norm2d_0.w_2, conv2d_269.tmp_0"/>
			</rt_info>
			<input>
				<port id="0" precision="FP32">
					<dim>1</dim>
					<dim>3</dim>
					<dim>256</dim>
					<dim>192</dim>
				</port>
				<port id="1" precision="FP32">
					<dim>32</dim>
					<dim>3</dim>
					<dim>3</dim>
					<dim>3</dim>
				</port>
			</input>
			<output>
				<port id="2" precision="FP32">
					<dim>1</dim>
					<dim>32</dim>
					<dim>128</dim>
					<dim>96</dim>
				</port>
			</output>
		</layer>
		<layer id="4" name="Constant_48971_compressed" type="Const" version="opset1">
			<data element_type="f16" shape="1, 32, 1, 1" offset="1728" size="64"/>
			<output>
				<port id="0" precision="FP16">
					<dim>1</dim>
					<dim>32</dim>
					<dim>1</dim>
					<dim>1</dim>
				</port>
			</output>
		</layer>
		<layer id="5" name="Constant_48971" type="Convert" version="opset1">
			<data destination_type="f32"/>
			<rt_info>
				<attribute name="decompression" version="0"/>
			</rt_info>
			<input>
				<port id="0" precision="FP16">
					<dim>1</dim>
					<dim>32</dim>
					<dim>1</dim>
					<dim>1</dim>
				</port>
			</input>
			<output>
				<port id="1" precision="FP32">
					<dim>1</dim>
					<dim>32</dim>
					<dim>1</dim>
					<dim>1</dim>
				</port>
			</output>
		</layer>
		<layer id="6" name="batch_norm2d_0.w_1" type="Add" version="opset1">
			<data auto_broadcast="numpy"/>
			<rt_info>
				<attribute name="fused_names" version="0" value="batch_norm2d_0.b_0, batch_norm2d_0.w_0, batch_norm2d_0.w_1, batch_norm2d_0.w_2"/>
			</rt_info>
			<input>
				<port id="0" precision="FP32">
					<dim>1</dim>
					<dim>32</dim>
					<dim>128</dim>
					<dim>96</dim>
				</port>
				<port id="1" precision="FP32">
					<dim>1</dim>
					<dim>32</dim>
					<dim>1</dim>
					<dim>1</dim>
				</port>
			</input>
			<output>
				<port id="2" precision="FP32" names="batch_norm_0.tmp_2">
					<dim>1</dim>
					<dim>32</dim>
					<dim>128</dim>
					<dim>96</dim>
				</port>
			</output>
		</layer>
		<layer id="7" name="relu_0.tmp_0" type="ReLU" version="opset1">
			<rt_info>
				<attribute name="fused_names" version="0" value="relu_0.tmp_0"/>
			</rt_info>
			<input>
				<port id="0" precision="FP32">
					<dim>1</dim>
					<dim>32</dim>
					<dim>128</dim>
					<dim>96</dim>
				</port>
			</input>
			<output>
				<port id="1" precision="FP32" names="relu_0.tmp_0">
					<dim>1</dim>
					<dim>32</dim>
					<dim>128</dim>
					<dim>96</dim>
				</port>
			</output>
		</layer>
		<layer id="8" name="Constant_1346" type="Const" version="opset1">
			<data element_type="i32" shape="" offset="1792" size="4"/>
			<rt_info>
				<attribute name="fused_names" version="0" value="Constant_1346"/>
			</rt_info>
			<output>
				<port id="0" precision="I32"/>
			</output>
		</layer>
		<layer id="9" name="split_0.tmp_0" type="Split" version="opset1">
			<data num_splits="2"/>
			<rt_info>
				<attribute name="fused_names" version="0" value="split_0.tmp_0"/>
			</rt_info>
			<input>
				<port id="0" precision="FP32">
					<dim>1</dim>
					<dim>32</dim>
					<dim>128</dim>
					<dim>96</dim>
				</port>
				<port id="1" precision="I32"/>
			</input>
			<output>
				<port id="2" precision="FP32" names="split_0.tmp_0">
					<dim>1</dim>
					<dim>16</dim>
					<dim>128</dim>
					<dim>96</dim>
				</port>
				<port id="3" precision="FP32" names="split_0.tmp_1">
					<dim>1</dim>
					<dim>16</dim>
					<dim>128</dim>
					<dim>96</dim>
				</port>
			</output>
		</layer>
		<layer id="10" name="Multiply_50858_compressed" type="Const" version="opset1">
			<data element_type="f16" shape="16, 1, 1, 3, 3" offset="1796" size="288"/>
			<output>
				<port id="0" precision="FP16">
					<dim>16</dim>
					<dim>1</dim>
					<dim>1</dim>
					<dim>3</dim>
					<dim>3</dim>
				</port>
			</output>
		</layer>
		<layer id="11" name="Multiply_50858" type="Convert" version="opset1">
			<data destination_type="f32"/>
			<rt_info>
				<attribute name="decompression" version="0"/>
			</rt_info>
			<input>
				<port id="0" precision="FP16">
					<dim>16</dim>
					<dim>1</dim>
					<dim>1</dim>
					<dim>3</dim>
					<dim>3</dim>
				</port>
			</input>
			<output>
				<port id="1" precision="FP32">
					<dim>16</dim>
					<dim>1</dim>
					<dim>1</dim>
					<dim>3</dim>
					<dim>3</dim>
				</port>
			</output>
		</layer>
		<layer id="12" name="Multiply_48973" type="GroupConvolution" version="opset1">
			<data strides="2, 2" pads_begin="1, 1" pads_end="1, 1" dilations="1, 1" auto_pad="explicit"/>
			<rt_info>
				<attribute name="fused_names" version="0" value="batch_norm2d_1.b_0, batch_norm2d_1.w_0, batch_norm2d_1.w_1, batch_norm2d_1.w_2"/>
			</rt_info>
			<input>
				<port id="0" precision="FP32">
					<dim>1</dim>
					<dim>16</dim>
					<dim>128</dim>
					<dim>96</dim>
				</port>
				<port id="1" precision="FP32">
					<dim>16</dim>
					<dim>1</dim>
					<dim>1</dim>
					<dim>3</dim>
					<dim>3</dim>
				</port>
			</input>
			<output>
				<port id="2" precision="FP32" names="depthwise_conv2d_0.tmp_0">
					<dim>1</dim>
					<dim>16</dim>
					<dim>64</dim>
					<dim>48</dim>
				</port>
			</output>
		</layer>
		<layer id="13" name="Constant_48978_compressed" type="Const" version="opset1">
			<data element_type="f16" shape="1, 16, 1, 1" offset="2084" size="32"/>
			<output>
				<port id="0" precision="FP16">
					<dim>1</dim>
					<dim>16</dim>
					<dim>1</dim>
					<dim>1</dim>
				</port>
			</output>
		</layer>
		<layer id="14" name="Constant_48978" type="Convert" version="opset1">
			<data destination_type="f32"/>
			<rt_info>
				<attribute name="decompression" version="0"/>
			</rt_info>
			<input>
				<port id="0" precision="FP16">
					<dim>1</dim>
					<dim>16</dim>
					<dim>1</dim>
					<dim>1</dim>
				</port>
			</input>
			<output>
				<port id="1" precision="FP32">
					<dim>1</dim>
					<dim>16</dim>
					<dim>1</dim>
					<dim>1</dim>
				</port>
			</output>
		</layer>
		<layer id="15" name="batch_norm2d_1.w_1" type="Add" version="opset1">
			<data auto_broadcast="numpy"/>
			<rt_info>
				<attribute name="fused_names" version="0" value="batch_norm2d_1.b_0, batch_norm2d_1.w_0, batch_norm2d_1.w_1, batch_norm2d_1.w_2"/>
			</rt_info>
			<input>
				<port id="0" precision="FP32">
					<dim>1</dim>
					<dim>16</dim>
					<dim>64</dim>
					<dim>48</dim>
				</port>
				<port id="1" precision="FP32">
					<dim>1</dim>
					<dim>16</dim>
					<dim>1</dim>
					<dim>1</dim>
				</port>
			</input>
			<output>
				<port id="2" precision="FP32" names="batch_norm_1.tmp_2">
					<dim>1</dim>
					<dim>16</dim>
					<dim>64</dim>
					<dim>48</dim>
				</port>
			</output>
		</layer>
		<layer id="16" name="Multiply_50866_compressed" type="Const" version="opset1">
			<data element_type="f16" shape="16, 16, 1, 1" offset="2116" size="512"/>
			<output>
				<port id="0" precision="FP16">
					<dim>16</dim>
					<dim>16</dim>
					<dim>1</dim>
					<dim>1</dim>
				</port>
			</output>
		</layer>
		<layer id="17" name="Multiply_50866" type="Convert" version="opset1">
			<data destination_type="f32"/>
			<rt_info>
				<attribute name="decompression" version="0"/>
			</rt_info>
			<input>
				<port id="0" precision="FP16">
					<dim>16</dim>
					<dim>16</dim>
					<dim>1</dim>
					<dim>1</dim>
				</port>
			</input>
			<output>
				<port id="1" precision="FP32">
					<dim>16</dim>
					<dim>16</dim>
					<dim>1</dim>
					<dim>1</dim>
				</port>
			</output>
		</layer>
		<layer id="18" name="Multiply_48980" type="Convolution" version="opset1">
			<data strides="1, 1" dilations="1, 1" pads_begin="0, 0" pads_end="0, 0" auto_pad="explicit"/>
			<rt_info>
				<attribute name="fused_names" version="0" value="batch_norm2d_2.b_0, batch_norm2d_2.w_0, batch_norm2d_2.w_1, batch_norm2d_2.w_2, conv2d_270.tmp_0"/>
			</rt_info>
			<input>
				<port id="0" precision="FP32">
					<dim>1</dim>
					<dim>16</dim>
					<dim>64</dim>
					<dim>48</dim>
				</port>
				<port id="1" precision="FP32">
					<dim>16</dim>
					<dim>16</dim>
					<dim>1</dim>
					<dim>1</dim>
				</port>
			</input>
			<output>
				<port id="2" precision="FP32">
					<dim>1</dim>
					<dim>16</dim>
					<dim>64</dim>
					<dim>48</dim>
				</port>
			</output>
		</layer>
		<layer id="19" name="Constant_48985_compressed" type="Const" version="opset1">
			<data element_type="f16" shape="1, 16, 1, 1" offset="2628" size="32"/>
			<output>
				<port id="0" precision="FP16">
					<dim>1</dim>
					<dim>16</dim>
					<dim>1</dim>
					<dim>1</dim>
				</port>
			</output>
		</layer>
		<layer id="20" name="Constant_48985" type="Convert" version="opset1">
			<data destination_type="f32"/>
			<rt_info>
				<attribute name="decompression" version="0"/>
			</rt_info>
			<input>
				<port id="0" precision="FP16">
					<dim>1</dim>
					<dim>16</dim>
					<dim>1</dim>
					<dim>1</dim>
				</port>
			</input>
			<output>
				<port id="1" precision="FP32">
					<dim>1</dim>
					<dim>16</dim>
					<dim>1</dim>
					<dim>1</dim>
				</port>
			</output>
		</layer>
		<layer id="21" name="batch_norm2d_2.w_1" type="Add" version="opset1">
			<data auto_broadcast="numpy"/>
			<rt_info>
				<attribute name="fused_names" version="0" value="batch_norm2d_2.b_0, batch_norm2d_2.w_0, batch_norm2d_2.w_1, batch_norm2d_2.w_2"/>
			</rt_info>
			<input>
				<port id="0" precision="FP32">
					<dim>1</dim>
					<dim>16</dim>
					<dim>64</dim>
					<dim>48</dim>
				</port>
				<port id="1" precision="FP32">
					<dim>1</dim>
					<dim>16</dim>
					<dim>1</dim>
					<dim>1</dim>
				</port>
			</input>
			<output>
				<port id="2" precision="FP32" names="batch_norm_2.tmp_2">
					<dim>1</dim>
					<dim>16</dim>
					<dim>64</dim>
					<dim>48</dim>
				</port>
			</output>
		</layer>
		<layer id="22" name="relu_1.tmp_0" type="ReLU" version="opset1">
			<rt_info>
				<attribute name="fused_names" version="0" value="relu_1.tmp_0"/>
			</rt_info>
			<input>
				<port id="0" precision="FP32">
					<dim>1</dim>
					<dim>16</dim>
					<dim>64</dim>
					<dim>48</dim>
				</port>
			</input>
			<output>
				<port id="1" precision="FP32" names="relu_1.tmp_0">
					<dim>1</dim>
					<dim>16</dim>
					<dim>64</dim>
					<dim>48</dim>
				</port>
			</output>
		</layer>
		<layer id="23" name="Multiply_50875_compressed" type="Const" version="opset1">
			<data element_type="f16" shape="32, 16, 1, 1" offset="2660" size="1024"/>
			<output>
				<port id="0" precision="FP16">
					<dim>32</dim>
					<dim>16</dim>
					<dim>1</dim>
					<dim>1</dim>
				</port>
			</output>
		</layer>
		<layer id="24" name="Multiply_50875" type="Convert" version="opset1">
			<data destination_type="f32"/>
			<rt_info>
				<attribute name="decompression" version="0"/>
			</rt_info>
			<input>
				<port id="0" precision="FP16">
					<dim>32</dim>
					<dim>16</dim>
					<dim>1</dim>
					<dim>1</dim>
				</port>
			</input>
			<output>
				<port id="1" precision="FP32">
					<dim>32</dim>
					<dim>16</dim>
					<dim>1</dim>
					<dim>1</dim>
				</port>
			</output>
		</layer>
		<layer id="25" name="Multiply_48987" type="Convolution" version="opset1">
			<data strides="1, 1" dilations="1, 1" pads_begin="0, 0" pads_end="0, 0" auto_pad="explicit"/>
			<rt_info>
				<attribute name="fused_names" version="0" value="batch_norm2d_3.b_0, batch_norm2d_3.w_0, batch_norm2d_3.w_1, batch_norm2d_3.w_2, conv2d_271.tmp_0"/>
			</rt_info>
			<input>
				<port id="0" precision="FP32">
					<dim>1</dim>
					<dim>16</dim>
					<dim>128</dim>
					<dim>96</dim>
				</port>
				<port id="1" precision="FP32">
					<dim>32</dim>
					<dim>16</dim>
					<dim>1</dim>
					<dim>1</dim>
				</port>
			</input>
			<output>
				<port id="2" precision="FP32">
					<dim>1</dim>
					<dim>32</dim>
					<dim>128</dim>
					<dim>96</dim>
				</port>
			</output>
		</layer>
		<layer id="26" name="Constant_48992_compressed" type="Const" version="opset1">
			<data element_type="f16" shape="1, 32, 1, 1" offset="3684" size="64"/>
			<output>
				<port id="0" precision="FP16">
					<dim>1</dim>
					<dim>32</dim>
					<dim>1</dim>
					<dim>1</dim>
				</port>
			</output>
		</layer>
		<layer id="27" name="Constant_48992" type="Convert" version="opset1">
			<data destination_type="f32"/>
			<rt_info>
				<attribute name="decompression" version="0"/>
			</rt_info>
			<input>
				<port id="0" precision="FP16">
					<dim>1</dim>
					<dim>32</dim>
					<dim>1</dim>
					<dim>1</dim>
				</port>
			</input>
			<output>
				<port id="1" precision="FP32">
					<dim>1</dim>
					<dim>32</dim>
					<dim>1</dim>
					<dim>1</dim>
				</port>
			</output>
		</layer>
		<layer id="28" name="batch_norm2d_3.w_1" type="Add" version="opset1">
			<data auto_broadcast="numpy"/>
			<rt_info>
				<attribute name="fused_names" version="0" value="batch_norm2d_3.b_0, batch_norm2d_3.w_0, batch_norm2d_3.w_1, batch_norm2d_3.w_2"/>
			</rt_info>
			<input>
				<port id="0" precision="FP32">
					<dim>1</dim>
					<dim>32</dim>
					<dim>128</dim>
					<dim>96</dim>
				</port>
				<port id="1" precision="FP32">
					<dim>1</dim>
					<dim>32</dim>
					<dim>1</dim>
					<dim>1</dim>
				</port>
			</input>
			<output>
				<port id="2" precision="FP32" names="batch_norm_3.tmp_2">
					<dim>1</dim>
					<dim>32</dim>
					<dim>128</dim>
					<dim>96</dim>
				</port>
			</output>
		</layer>
		<layer id="29" name="relu_2.tmp_0" type="ReLU" version="opset1">
			<rt_info>
				<attribute name="fused_names" version="0" value="relu_2.tmp_0"/>
			</rt_info>
			<input>
				<port id="0" precision="FP32">
					<dim>1</dim>
					<dim>32</dim>
					<dim>128</dim>
					<dim>96</dim>
				</port>
			</input>
			<output>
				<port id="1" precision="FP32" names="relu_2.tmp_0">
					<dim>1</dim>
					<dim>32</dim>
					<dim>128</dim>
					<dim>96</dim>
				</port>
			</output>
		</layer>
		<layer id="30" name="Multiply_50884_compressed" type="Const" version="opset1">
			<data element_type="f16" shape="32, 1, 1, 3, 3" offset="3748" size="576"/>
			<output>
				<port id="0" precision="FP16">
					<dim>32</dim>
					<dim>1</dim>
					<dim>1</dim>
					<dim>3</dim>
					<dim>3</dim>
				</port>
			</output>
		</layer>
		<layer id="31" name="Multiply_50884" type="Convert" version="opset1">
			<data destination_type="f32"/>
			<rt_info>
				<attribute name="decompression" version="0"/>
			</rt_info>
			<input>
				<port id="0" precision="FP16">
					<dim>32</dim>
					<dim>1</dim>
					<dim>1</dim>
					<dim>3</dim>
					<dim>3</dim>
				</port>
			</input>
			<output>
				<port id="1" precision="FP32">
					<dim>32</dim>
					<dim>1</dim>
					<dim>1</dim>
					<dim>3</dim>
					<dim>3</dim>
				</port>
			</output>
		</layer>
		<layer id="32" name="Multiply_48994" type="GroupConvolution" version="opset1">
			<data strides="2, 2" pads_begin="1, 1" pads_end="1, 1" dilations="1, 1" auto_pad="explicit"/>
			<rt_info>
				<attribute name="fused_names" version="0" value="batch_norm2d_4.b_0, batch_norm2d_4.w_0, batch_norm2d_4.w_1, batch_norm2d_4.w_2"/>
			</rt_info>
			<input>
				<port id="0" precision="FP32">
					<dim>1</dim>
					<dim>32</dim>
					<dim>128</dim>
					<dim>96</dim>
				</port>
				<port id="1" precision="FP32">
					<dim>32</dim>
					<dim>1</dim>
					<dim>1</dim>
					<dim>3</dim>
					<dim>3</dim>
				</port>
			</input>
			<output>
				<port id="2" precision="FP32" names="depthwise_conv2d_1.tmp_0">
					<dim>1</dim>
					<dim>32</dim>
					<dim>64</dim>
					<dim>48</dim>
				</port>
			</output>
		</layer>
		<layer id="33" name="Constant_48999_compressed" type="Const" version="opset1">
			<data element_type="f16" shape="1, 32, 1, 1" offset="4324" size="64"/>
			<output>
				<port id="0" precision="FP16">
					<dim>1</dim>
					<dim>32</dim>
					<dim>1</dim>
					<dim>1</dim>
				</port>
			</output>
		</layer>
		<layer id="34" name="Constant_48999" type="Convert" version="opset1">
			<data destination_type="f32"/>
			<rt_info>
				<attribute name="decompression" version="0"/>
			</rt_info>
			<input>
				<port id="0" precision="FP16">
					<dim>1</dim>
					<dim>32</dim>
					<dim>1</dim>
					<dim>1</dim>
				</port>
			</input>
			<output>
				<port id="1" precision="FP32">
					<dim>1</dim>
					<dim>32</dim>
					<dim>1</dim>
					<dim>1</dim>
				</port>
			</output>
		</layer>
		<layer id="35" name="batch_norm2d_4.w_1" type="Add" version="opset1">
			<data auto_broadcast="numpy"/>
			<rt_info>
				<attribute name="fused_names" version="0" value="batch_norm2d_4.b_0, batch_norm2d_4.w_0, batch_norm2d_4.w_1, batch_norm2d_4.w_2"/>
			</rt_info>
			<input>
				<port id="0" precision="FP32">
					<dim>1</dim>
					<dim>32</dim>
					<dim>64</dim>
					<dim>48</dim>
				</port>
				<port id="1" precision="FP32">
					<dim>1</dim>
					<dim>32</dim>
					<dim>1</dim>
					<dim>1</dim>
				</port>
			</input>
			<output>
				<port id="2" precision="FP32" names="batch_norm_4.tmp_2">
					<dim>1</dim>
					<dim>32</dim>
					<dim>64</dim>
					<dim>48</dim>
				</port>
			</output>
		</layer>
		<layer id="36" name="Multiply_50892_compressed" type="Const" version="opset1">
			<data element_type="f16" shape="16, 32, 1, 1" offset="4388" size="1024"/>
			<output>
				<port id="0" precision="FP16">
					<dim>16</dim>
					<dim>32</dim>
					<dim>1</dim>
					<dim>1</dim>
				</port>
			</output>
		</layer>
		<layer id="37" name="Multiply_50892" type="Convert" version="opset1">
			<data destination_type="f32"/>
			<rt_info>
				<attribute name="decompression" version="0"/>
			</rt_info>
			<input>
				<port id="0" precision="FP16">
					<dim>16</dim>
					<dim>32</dim>
					<dim>1</dim>
					<dim>1</dim>
				</port>
			</input>
			<output>
				<port id="1" precision="FP32">
					<dim>16</dim>
					<dim>32</dim>
					<dim>1</dim>
					<dim>1</dim>
				</port>
			</output>
		</layer>
		<layer id="38" name="Multiply_49001" type="Convolution" version="opset1">
			<data strides="1, 1" dilations="1, 1" pads_begin="0, 0" pads_end="0, 0" auto_pad="explicit"/>
			<rt_info>
				<attribute name="fused_names" version="0" value="batch_norm2d_5.b_0, batch_norm2d_5.w_0, batch_norm2d_5.w_1, batch_norm2d_5.w_2, conv2d_272.tmp_0"/>
			</rt_info>
			<input>
				<port id="0" precision="FP32">
					<dim>1</dim>
					<dim>32</dim>
					<dim>64</dim>
					<dim>48</dim>
				</port>
				<port id="1" precision="FP32">
					<dim>16</dim>
					<dim>32</dim>
					<dim>1</dim>
					<dim>1</dim>
				</port>
			</input>
			<output>
				<port id="2" precision="FP32">
					<dim>1</dim>
					<dim>16</dim>
					<dim>64</dim>
					<dim>48</dim>
				</port>
			</output>
		</layer>
		<layer id="39" name="Constant_49006_compressed" type="Const" version="opset1">
			<data element_type="f16" shape="1, 16, 1, 1" offset="5412" size="32"/>
			<output>
				<port id="0" precision="FP16">
					<dim>1</dim>
					<dim>16</dim>
					<dim>1</dim>
					<dim>1</dim>
				</port>
			</output>
		</layer>
		<layer id="40" name="Constant_49006" type="Convert" version="opset1">
			<data destination_type="f32"/>
			<rt_info>
				<attribute name="decompression" version="0"/>
			</rt_info>
			<input>
				<port id="0" precision="FP16">
					<dim>1</dim>
					<dim>16</dim>
					<dim>1</dim>
					<dim>1</dim>
				</port>
			</input>
			<output>
				<port id="1" precision="FP32">
					<dim>1</dim>
					<dim>16</dim>
					<dim>1</dim>
					<dim>1</dim>
				</port>
			</output>
		</layer>
		<layer id="41" name="batch_norm2d_5.w_1" type="Add" version="opset1">
			<data auto_broadcast="numpy"/>
			<rt_info>
				<attribute name="fused_names" version="0" value="batch_norm2d_5.b_0, batch_norm2d_5.w_0, batch_norm2d_5.w_1, batch_norm2d_5.w_2"/>
			</rt_info>
			<input>
				<port id="0" precision="FP32">
					<dim>1</dim>
					<dim>16</dim>
					<dim>64</dim>
					<dim>48</dim>
				</port>
				<port id="1" precision="FP32">
					<dim>1</dim>
					<dim>16</dim>
					<dim>1</dim>
					<dim>1</dim>
				</port>
			</input>
			<output>
				<port id="2" precision="FP32" names="batch_norm_5.tmp_2">
					<dim>1</dim>
					<dim>16</dim>
					<dim>64</dim>
					<dim>48</dim>
				</port>
			</output>
		</layer>
		<layer id="42" name="relu_3.tmp_0" type="ReLU" version="opset1">
			<rt_info>
				<attribute name="fused_names" version="0" value="relu_3.tmp_0"/>
			</rt_info>
			<input>
				<port id="0" precision="FP32">
					<dim>1</dim>
					<dim>16</dim>
					<dim>64</dim>
					<dim>48</dim>
				</port>
			</input>
			<output>
				<port id="1" precision="FP32" names="relu_3.tmp_0">
					<dim>1</dim>
					<dim>16</dim>
					<dim>64</dim>
					<dim>48</dim>
				</port>
			</output>
		</layer>
		<layer id="43" name="concat_0.tmp_0" type="Concat" version="opset1">
			<data axis="1"/>
			<rt_info>
				<attribute name="fused_names" version="0" value="concat_0.tmp_0"/>
			</rt_info>
			<input>
				<port id="0" precision="FP32">
					<dim>1</dim>
					<dim>16</dim>
					<dim>64</dim>
					<dim>48</dim>
				</port>
				<port id="1" precision="FP32">
					<dim>1</dim>
					<dim>16</dim>
					<dim>64</dim>
					<dim>48</dim>
				</port>
			</input>
			<output>
				<port id="2" precision="FP32" names="concat_0.tmp_0">
					<dim>1</dim>
					<dim>32</dim>
					<dim>64</dim>
					<dim>48</dim>
				</port>
			</output>
		</layer>
		<layer id="44" name="Constant_1468" type="Const" version="opset1">
			<data element_type="i32" shape="5" offset="5444" size="20"/>
			<rt_info>
				<attribute name="fused_names" version="0" value="Constant_1468"/>
			</rt_info>
			<output>
				<port id="0" precision="I32">
					<dim>5</dim>
				</port>
			</output>
		</layer>
		<layer id="45" name="reshape2_0.tmp_0" type="Reshape" version="opset1">
			<data special_zero="true"/>
			<rt_info>
				<attribute name="fused_names" version="0" value="reshape2_0.tmp_0"/>
			</rt_info>
			<input>
				<port id="0" precision="FP32">
					<dim>1</dim>
					<dim>32</dim>
					<dim>64</dim>
					<dim>48</dim>
				</port>
				<port id="1" precision="I32">
					<dim>5</dim>
				</port>
			</input>
			<output>
				<port id="2" precision="FP32" names="reshape2_0.tmp_0">
					<dim>1</dim>
					<dim>2</dim>
					<dim>16</dim>
					<dim>64</dim>
					<dim>48</dim>
				</port>
			</output>
		</layer>
		<layer id="46" name="Constant_1475" type="Const" version="opset1">
			<data element_type="i64" shape="5" offset="5464" size="40"/>
			<rt_info>
				<attribute name="fused_names" version="0" value="Constant_1475"/>
			</rt_info>
			<output>
				<port id="0" precision="I64">
					<dim>5</dim>
				</port>
			</output>
		</layer>
		<layer id="47" name="transpose_0.tmp_0" type="Transpose" version="opset1">
			<rt_info>
				<attribute name="fused_names" version="0" value="transpose_0.tmp_0"/>
			</rt_info>
			<input>
				<port id="0" precision="FP32">
					<dim>1</dim>
					<dim>2</dim>
					<dim>16</dim>
					<dim>64</dim>
					<dim>48</dim>
				</port>
				<port id="1" precision="I64">
					<dim>5</dim>
				</port>
			</input>
			<output>
				<port id="2" precision="FP32" names="transpose_0.tmp_0">
					<dim>1</dim>
					<dim>16</dim>
					<dim>2</dim>
					<dim>64</dim>
					<dim>48</dim>
				</port>
			</output>
		</layer>
		<layer id="48" name="Constant_1477" type="Const" version="opset1">
			<data element_type="i32" shape="4" offset="5504" size="16"/>
			<rt_info>
				<attribute name="fused_names" version="0" value="Constant_1477"/>
			</rt_info>
			<output>
				<port id="0" precision="I32">
					<dim>4</dim>
				</port>
			</output>
		</layer>
		<layer id="49" name="reshape2_1.tmp_0" type="Reshape" version="opset1">
			<data special_zero="true"/>
			<rt_info>
				<attribute name="fused_names" version="0" value="reshape2_1.tmp_0"/>
			</rt_info>
			<input>
				<port id="0" precision="FP32">
					<dim>1</dim>
					<dim>16</dim>
					<dim>2</dim>
					<dim>64</dim>
					<dim>48</dim>
				</port>
				<port id="1" precision="I32">
					<dim>4</dim>
				</port>
			</input>
			<output>
				<port id="2" precision="FP32" names="reshape2_1.tmp_0">
					<dim>1</dim>
					<dim>32</dim>
					<dim>64</dim>
					<dim>48</dim>
				</port>
			</output>
		</layer>
		<layer id="50" name="Multiply_50901_compressed" type="Const" version="opset1">
			<data element_type="f16" shape="32, 1, 1, 3, 3" offset="5520" size="576"/>
			<output>
				<port id="0" precision="FP16">
					<dim>32</dim>
					<dim>1</dim>
					<dim>1</dim>
					<dim>3</dim>
					<dim>3</dim>
				</port>
			</output>
		</layer>
		<layer id="51" name="Multiply_50901" type="Convert" version="opset1">
			<data destination_type="f32"/>
			<rt_info>
				<attribute name="decompression" version="0"/>
			</rt_info>
			<input>
				<port id="0" precision="FP16">
					<dim>32</dim>
					<dim>1</dim>
					<dim>1</dim>
					<dim>3</dim>
					<dim>3</dim>
				</port>
			</input>
			<output>
				<port id="1" precision="FP32">
					<dim>32</dim>
					<dim>1</dim>
					<dim>1</dim>
					<dim>3</dim>
					<dim>3</dim>
				</port>
			</output>
		</layer>
		<layer id="52" name="Multiply_49008" type="GroupConvolution" version="opset1">
			<data strides="1, 1" pads_begin="1, 1" pads_end="1, 1" dilations="1, 1" auto_pad="explicit"/>
			<rt_info>
				<attribute name="fused_names" version="0" value="batch_norm2d_6.b_0, batch_norm2d_6.w_0, batch_norm2d_6.w_1, batch_norm2d_6.w_2"/>
			</rt_info>
			<input>
				<port id="0" precision="FP32">
					<dim>1</dim>
					<dim>32</dim>
					<dim>64</dim>
					<dim>48</dim>
				</port>
				<port id="1" precision="FP32">
					<dim>32</dim>
					<dim>1</dim>
					<dim>1</dim>
					<dim>3</dim>
					<dim>3</dim>
				</port>
			</input>
			<output>
				<port id="2" precision="FP32" names="depthwise_conv2d_2.tmp_0">
					<dim>1</dim>
					<dim>32</dim>
					<dim>64</dim>
					<dim>48</dim>
				</port>
			</output>
		</layer>
		<layer id="53" name="Constant_49013_compressed" type="Const" version="opset1">
			<data element_type="f16" shape="1, 32, 1, 1" offset="6096" size="64"/>
			<output>
				<port id="0" precision="FP16">
					<dim>1</dim>
					<dim>32</dim>
					<dim>1</dim>
					<dim>1</dim>
				</port>
			</output>
		</layer>
		<layer id="54" name="Constant_49013" type="Convert" version="opset1">
			<data destination_type="f32"/>
			<rt_info>
				<attribute name="decompression" version="0"/>
			</rt_info>
			<input>
				<port id="0" precision="FP16">
					<dim>1</dim>
					<dim>32</dim>
					<dim>1</dim>
					<dim>1</dim>
				</port>
			</input>
			<output>
				<port id="1" precision="FP32">
					<dim>1</dim>
					<dim>32</dim>
					<dim>1</dim>
					<dim>1</dim>
				</port>
			</output>
		</layer>
		<layer id="55" name="batch_norm2d_6.w_1" type="Add" version="opset1">
			<data auto_broadcast="numpy"/>
			<rt_info>
				<attribute name="fused_names" version="0" value="batch_norm2d_6.b_0, batch_norm2d_6.w_0, batch_norm2d_6.w_1, batch_norm2d_6.w_2"/>
			</rt_info>
			<input>
				<port id="0" precision="FP32">
					<dim>1</dim>
					<dim>32</dim>
					<dim>64</dim>
					<dim>48</dim>
				</port>
				<port id="1" precision="FP32">
					<dim>1</dim>
					<dim>32</dim>
					<dim>1</dim>
					<dim>1</dim>
				</port>
			</input>
			<output>
				<port id="2" precision="FP32" names="batch_norm_6.tmp_2">
					<dim>1</dim>
					<dim>32</dim>
					<dim>64</dim>
					<dim>48</dim>
				</port>
			</output>
		</layer>
		<layer id="56" name="Multiply_50909_compressed" type="Const" version="opset1">
			<data element_type="f16" shape="40, 32, 1, 1" offset="6160" size="2560"/>
			<output>
				<port id="0" precision="FP16">
					<dim>40</dim>
					<dim>32</dim>
					<dim>1</dim>
					<dim>1</dim>
				</port>
			</output>
		</layer>
		<layer id="57" name="Multiply_50909" type="Convert" version="opset1">
			<data destination_type="f32"/>
			<rt_info>
				<attribute name="decompression" version="0"/>
			</rt_info>
			<input>
				<port id="0" precision="FP16">
					<dim>40</dim>
					<dim>32</dim>
					<dim>1</dim>
					<dim>1</dim>
				</port>
			</input>
			<output>
				<port id="1" precision="FP32">
					<dim>40</dim>
					<dim>32</dim>
					<dim>1</dim>
					<dim>1</dim>
				</port>
			</output>
		</layer>
		<layer id="58" name="Multiply_49015" type="Convolution" version="opset1">
			<data strides="1, 1" dilations="1, 1" pads_begin="0, 0" pads_end="0, 0" auto_pad="explicit"/>
			<rt_info>
				<attribute name="fused_names" version="0" value="batch_norm2d_7.b_0, batch_norm2d_7.w_0, batch_norm2d_7.w_1, batch_norm2d_7.w_2, conv2d_273.tmp_0"/>
			</rt_info>
			<input>
				<port id="0" precision="FP32">
					<dim>1</dim>
					<dim>32</dim>
					<dim>64</dim>
					<dim>48</dim>
				</port>
				<port id="1" precision="FP32">
					<dim>40</dim>
					<dim>32</dim>
					<dim>1</dim>
					<dim>1</dim>
				</port>
			</input>
			<output>
				<port id="2" precision="FP32">
					<dim>1</dim>
					<dim>40</dim>
					<dim>64</dim>
					<dim>48</dim>
				</port>
			</output>
		</layer>
		<layer id="59" name="Constant_49020_compressed" type="Const" version="opset1">
			<data element_type="f16" shape="1, 40, 1, 1" offset="8720" size="80"/>
			<output>
				<port id="0" precision="FP16">
					<dim>1</dim>
					<dim>40</dim>
					<dim>1</dim>
					<dim>1</dim>
				</port>
			</output>
		</layer>
		<layer id="60" name="Constant_49020" type="Convert" version="opset1">
			<data destination_type="f32"/>
			<rt_info>
				<attribute name="decompression" version="0"/>
			</rt_info>
			<input>
				<port id="0" precision="FP16">
					<dim>1</dim>
					<dim>40</dim>
					<dim>1</dim>
					<dim>1</dim>
				</port>
			</input>
			<output>
				<port id="1" precision="FP32">
					<dim>1</dim>
					<dim>40</dim>
					<dim>1</dim>
					<dim>1</dim>
				</port>
			</output>
		</layer>
		<layer id="61" name="batch_norm2d_7.w_1" type="Add" version="opset1">
			<data auto_broadcast="numpy"/>
			<rt_info>
				<attribute name="fused_names" version="0" value="batch_norm2d_7.b_0, batch_norm2d_7.w_0, batch_norm2d_7.w_1, batch_norm2d_7.w_2"/>
			</rt_info>
			<input>
				<port id="0" precision="FP32">
					<dim>1</dim>
					<dim>40</dim>
					<dim>64</dim>
					<dim>48</dim>
				</port>
				<port id="1" precision="FP32">
					<dim>1</dim>
					<dim>40</dim>
					<dim>1</dim>
					<dim>1</dim>
				</port>
			</input>
			<output>
				<port id="2" precision="FP32" names="batch_norm_7.tmp_2">
					<dim>1</dim>
					<dim>40</dim>
					<dim>64</dim>
					<dim>48</dim>
				</port>
			</output>
		</layer>
		<layer id="62" name="relu_4.tmp_0" type="ReLU" version="opset1">
			<rt_info>
				<attribute name="fused_names" version="0" value="relu_4.tmp_0"/>
			</rt_info>
			<input>
				<port id="0" precision="FP32">
					<dim>1</dim>
					<dim>40</dim>
					<dim>64</dim>
					<dim>48</dim>
				</port>
			</input>
			<output>
				<port id="1" precision="FP32" names="relu_4.tmp_0">
					<dim>1</dim>
					<dim>40</dim>
					<dim>64</dim>
					<dim>48</dim>
				</port>
			</output>
		</layer>
		<layer id="63" name="Constant_1600" type="Const" version="opset1">
			<data element_type="i32" shape="" offset="1792" size="4"/>
			<rt_info>
				<attribute name="fused_names" version="0" value="Constant_1600"/>
			</rt_info>
			<output>
				<port id="0" precision="I32"/>
			</output>
		</layer>
		<layer id="64" name="split_1.tmp_0" type="Split" version="opset1">
			<data num_splits="2"/>
			<rt_info>
				<attribute name="fused_names" version="0" value="split_1.tmp_0"/>
			</rt_info>
			<input>
				<port id="0" precision="FP32">
					<dim>1</dim>
					<dim>40</dim>
					<dim>64</dim>
					<dim>48</dim>
				</port>
				<port id="1" precision="I32"/>
			</input>
			<output>
				<port id="2" precision="FP32" names="split_1.tmp_0">
					<dim>1</dim>
					<dim>20</dim>
					<dim>64</dim>
					<dim>48</dim>
				</port>
				<port id="3" precision="FP32" names="split_1.tmp_1">
					<dim>1</dim>
					<dim>20</dim>
					<dim>64</dim>
					<dim>48</dim>
				</port>
			</output>
		</layer>
		<layer id="65" name="Multiply_50918_compressed" type="Const" version="opset1">
			<data element_type="f16" shape="20, 20, 1, 1" offset="8800" size="800"/>
			<output>
				<port id="0" precision="FP16">
					<dim>20</dim>
					<dim>20</dim>
					<dim>1</dim>
					<dim>1</dim>
				</port>
			</output>
		</layer>
		<layer id="66" name="Multiply_50918" type="Convert" version="opset1">
			<data destination_type="f32"/>
			<rt_info>
				<attribute name="decompression" version="0"/>
			</rt_info>
			<input>
				<port id="0" precision="FP16">
					<dim>20</dim>
					<dim>20</dim>
					<dim>1</dim>
					<dim>1</dim>
				</port>
			</input>
			<output>
				<port id="1" precision="FP32">
					<dim>20</dim>
					<dim>20</dim>
					<dim>1</dim>
					<dim>1</dim>
				</port>
			</output>
		</layer>
		<layer id="67" name="Multiply_49022" type="Convolution" version="opset1">
			<data strides="1, 1" dilations="1, 1" pads_begin="0, 0" pads_end="0, 0" auto_pad="explicit"/>
			<rt_info>
				<attribute name="fused_names" version="0" value="batch_norm2d_10.b_0, batch_norm2d_10.w_0, batch_norm2d_10.w_1, batch_norm2d_10.w_2, conv2d_275.tmp_0"/>
			</rt_info>
			<input>
				<port id="0" precision="FP32">
					<dim>1</dim>
					<dim>20</dim>
					<dim>64</dim>
					<dim>48</dim>
				</port>
				<port id="1" precision="FP32">
					<dim>20</dim>
					<dim>20</dim>
					<dim>1</dim>
					<dim>1</dim>
				</port>
			</input>
			<output>
				<port id="2" precision="FP32">
					<dim>1</dim>
					<dim>20</dim>
					<dim>64</dim>
					<dim>48</dim>
				</port>
			</output>
		</layer>
		<layer id="68" name="Constant_49027_compressed" type="Const" version="opset1">
			<data element_type="f16" shape="1, 20, 1, 1" offset="9600" size="40"/>
			<output>
				<port id="0" precision="FP16">
					<dim>1</dim>
					<dim>20</dim>
					<dim>1</dim>
					<dim>1</dim>
				</port>
			</output>
		</layer>
		<layer id="69" name="Constant_49027" type="Convert" version="opset1">
			<data destination_type="f32"/>
			<rt_info>
				<attribute name="decompression" version="0"/>
			</rt_info>
			<input>
				<port id="0" precision="FP16">
					<dim>1</dim>
					<dim>20</dim>
					<dim>1</dim>
					<dim>1</dim>
				</port>
			</input>
			<output>
				<port id="1" precision="FP32">
					<dim>1</dim>
					<dim>20</dim>
					<dim>1</dim>
					<dim>1</dim>
				</port>
			</output>
		</layer>
		<layer id="70" name="batch_norm2d_10.w_1" type="Add" version="opset1">
			<data auto_broadcast="numpy"/>
			<rt_info>
				<attribute name="fused_names" version="0" value="batch_norm2d_10.b_0, batch_norm2d_10.w_0, batch_norm2d_10.w_1, batch_norm2d_10.w_2"/>
			</rt_info>
			<input>
				<port id="0" precision="FP32">
					<dim>1</dim>
					<dim>20</dim>
					<dim>64</dim>
					<dim>48</dim>
				</port>
				<port id="1" precision="FP32">
					<dim>1</dim>
					<dim>20</dim>
					<dim>1</dim>
					<dim>1</dim>
				</port>
			</input>
			<output>
				<port id="2" precision="FP32" names="batch_norm_10.tmp_2">
					<dim>1</dim>
					<dim>20</dim>
					<dim>64</dim>
					<dim>48</dim>
				</port>
			</output>
		</layer>
		<layer id="71" name="relu_6.tmp_0" type="ReLU" version="opset1">
			<rt_info>
				<attribute name="fused_names" version="0" value="relu_6.tmp_0"/>
			</rt_info>
			<input>
				<port id="0" precision="FP32">
					<dim>1</dim>
					<dim>20</dim>
					<dim>64</dim>
					<dim>48</dim>
				</port>
			</input>
			<output>
				<port id="1" precision="FP32" names="relu_6.tmp_0">
					<dim>1</dim>
					<dim>20</dim>
					<dim>64</dim>
					<dim>48</dim>
				</port>
			</output>
		</layer>
		<layer id="72" name="Multiply_50927_compressed" type="Const" version="opset1">
			<data element_type="f16" shape="20, 1, 1, 3, 3" offset="9640" size="360"/>
			<output>
				<port id="0" precision="FP16">
					<dim>20</dim>
					<dim>1</dim>
					<dim>1</dim>
					<dim>3</dim>
					<dim>3</dim>
				</port>
			</output>
		</layer>
		<layer id="73" name="Multiply_50927" type="Convert" version="opset1">
			<data destination_type="f32"/>
			<rt_info>
				<attribute name="decompression" version="0"/>
			</rt_info>
			<input>
				<port id="0" precision="FP16">
					<dim>20</dim>
					<dim>1</dim>
					<dim>1</dim>
					<dim>3</dim>
					<dim>3</dim>
				</port>
			</input>
			<output>
				<port id="1" precision="FP32">
					<dim>20</dim>
					<dim>1</dim>
					<dim>1</dim>
					<dim>3</dim>
					<dim>3</dim>
				</port>
			</output>
		</layer>
		<layer id="74" name="Multiply_49029" type="GroupConvolution" version="opset1">
			<data strides="1, 1" pads_begin="1, 1" pads_end="1, 1" dilations="1, 1" auto_pad="explicit"/>
			<rt_info>
				<attribute name="fused_names" version="0" value="batch_norm2d_11.b_0, batch_norm2d_11.w_0, batch_norm2d_11.w_1, batch_norm2d_11.w_2"/>
			</rt_info>
			<input>
				<port id="0" precision="FP32">
					<dim>1</dim>
					<dim>20</dim>
					<dim>64</dim>
					<dim>48</dim>
				</port>
				<port id="1" precision="FP32">
					<dim>20</dim>
					<dim>1</dim>
					<dim>1</dim>
					<dim>3</dim>
					<dim>3</dim>
				</port>
			</input>
			<output>
				<port id="2" precision="FP32" names="depthwise_conv2d_4.tmp_0">
					<dim>1</dim>
					<dim>20</dim>
					<dim>64</dim>
					<dim>48</dim>
				</port>
			</output>
		</layer>
		<layer id="75" name="Constant_49034_compressed" type="Const" version="opset1">
			<data element_type="f16" shape="1, 20, 1, 1" offset="10000" size="40"/>
			<output>
				<port id="0" precision="FP16">
					<dim>1</dim>
					<dim>20</dim>
					<dim>1</dim>
					<dim>1</dim>
				</port>
			</output>
		</layer>
		<layer id="76" name="Constant_49034" type="Convert" version="opset1">
			<data destination_type="f32"/>
			<rt_info>
				<attribute name="decompression" version="0"/>
			</rt_info>
			<input>
				<port id="0" precision="FP16">
					<dim>1</dim>
					<dim>20</dim>
					<dim>1</dim>
					<dim>1</dim>
				</port>
			</input>
			<output>
				<port id="1" precision="FP32">
					<dim>1</dim>
					<dim>20</dim>
					<dim>1</dim>
					<dim>1</dim>
				</port>
			</output>
		</layer>
		<layer id="77" name="batch_norm2d_11.w_1" type="Add" version="opset1">
			<data auto_broadcast="numpy"/>
			<rt_info>
				<attribute name="fused_names" version="0" value="batch_norm2d_11.b_0, batch_norm2d_11.w_0, batch_norm2d_11.w_1, batch_norm2d_11.w_2"/>
			</rt_info>
			<input>
				<port id="0" precision="FP32">
					<dim>1</dim>
					<dim>20</dim>
					<dim>64</dim>
					<dim>48</dim>
				</port>
				<port id="1" precision="FP32">
					<dim>1</dim>
					<dim>20</dim>
					<dim>1</dim>
					<dim>1</dim>
				</port>
			</input>
			<output>
				<port id="2" precision="FP32" names="batch_norm_11.tmp_2">
					<dim>1</dim>
					<dim>20</dim>
					<dim>64</dim>
					<dim>48</dim>
				</port>
			</output>
		</layer>
		<layer id="78" name="Multiply_50935_compressed" type="Const" version="opset1">
			<data element_type="f16" shape="20, 20, 1, 1" offset="10040" size="800"/>
			<output>
				<port id="0" precision="FP16">
					<dim>20</dim>
					<dim>20</dim>
					<dim>1</dim>
					<dim>1</dim>
				</port>
			</output>
		</layer>
		<layer id="79" name="Multiply_50935" type="Convert" version="opset1">
			<data destination_type="f32"/>
			<rt_info>
				<attribute name="decompression" version="0"/>
			</rt_info>
			<input>
				<port id="0" precision="FP16">
					<dim>20</dim>
					<dim>20</dim>
					<dim>1</dim>
					<dim>1</dim>
				</port>
			</input>
			<output>
				<port id="1" precision="FP32">
					<dim>20</dim>
					<dim>20</dim>
					<dim>1</dim>
					<dim>1</dim>
				</port>
			</output>
		</layer>
		<layer id="80" name="Multiply_49036" type="Convolution" version="opset1">
			<data strides="1, 1" dilations="1, 1" pads_begin="0, 0" pads_end="0, 0" auto_pad="explicit"/>
			<rt_info>
				<attribute name="fused_names" version="0" value="batch_norm2d_12.b_0, batch_norm2d_12.w_0, batch_norm2d_12.w_1, batch_norm2d_12.w_2, conv2d_276.tmp_0"/>
			</rt_info>
			<input>
				<port id="0" precision="FP32">
					<dim>1</dim>
					<dim>20</dim>
					<dim>64</dim>
					<dim>48</dim>
				</port>
				<port id="1" precision="FP32">
					<dim>20</dim>
					<dim>20</dim>
					<dim>1</dim>
					<dim>1</dim>
				</port>
			</input>
			<output>
				<port id="2" precision="FP32">
					<dim>1</dim>
					<dim>20</dim>
					<dim>64</dim>
					<dim>48</dim>
				</port>
			</output>
		</layer>
		<layer id="81" name="Constant_49041_compressed" type="Const" version="opset1">
			<data element_type="f16" shape="1, 20, 1, 1" offset="10840" size="40"/>
			<output>
				<port id="0" precision="FP16">
					<dim>1</dim>
					<dim>20</dim>
					<dim>1</dim>
					<dim>1</dim>
				</port>
			</output>
		</layer>
		<layer id="82" name="Constant_49041" type="Convert" version="opset1">
			<data destination_type="f32"/>
			<rt_info>
				<attribute name="decompression" version="0"/>
			</rt_info>
			<input>
				<port id="0" precision="FP16">
					<dim>1</dim>
					<dim>20</dim>
					<dim>1</dim>
					<dim>1</dim>
				</port>
			</input>
			<output>
				<port id="1" precision="FP32">
					<dim>1</dim>
					<dim>20</dim>
					<dim>1</dim>
					<dim>1</dim>
				</port>
			</output>
		</layer>
		<layer id="83" name="batch_norm2d_12.w_1" type="Add" version="opset1">
			<data auto_broadcast="numpy"/>
			<rt_info>
				<attribute name="fused_names" version="0" value="batch_norm2d_12.b_0, batch_norm2d_12.w_0, batch_norm2d_12.w_1, batch_norm2d_12.w_2"/>
			</rt_info>
			<input>
				<port id="0" precision="FP32">
					<dim>1</dim>
					<dim>20</dim>
					<dim>64</dim>
					<dim>48</dim>
				</port>
				<port id="1" precision="FP32">
					<dim>1</dim>
					<dim>20</dim>
					<dim>1</dim>
					<dim>1</dim>
				</port>
			</input>
			<output>
				<port id="2" precision="FP32" names="batch_norm_12.tmp_2">
					<dim>1</dim>
					<dim>20</dim>
					<dim>64</dim>
					<dim>48</dim>
				</port>
			</output>
		</layer>
		<layer id="84" name="relu_7.tmp_0" type="ReLU" version="opset1">
			<rt_info>
				<attribute name="fused_names" version="0" value="relu_7.tmp_0"/>
			</rt_info>
			<input>
				<port id="0" precision="FP32">
					<dim>1</dim>
					<dim>20</dim>
					<dim>64</dim>
					<dim>48</dim>
				</port>
			</input>
			<output>
				<port id="1" precision="FP32" names="relu_7.tmp_0">
					<dim>1</dim>
					<dim>20</dim>
					<dim>64</dim>
					<dim>48</dim>
				</port>
			</output>
		</layer>
		<layer id="85" name="concat_1.tmp_0" type="Concat" version="opset1">
			<data axis="1"/>
			<rt_info>
				<attribute name="fused_names" version="0" value="concat_1.tmp_0"/>
			</rt_info>
			<input>
				<port id="0" precision="FP32">
					<dim>1</dim>
					<dim>20</dim>
					<dim>64</dim>
					<dim>48</dim>
				</port>
				<port id="1" precision="FP32">
					<dim>1</dim>
					<dim>20</dim>
					<dim>64</dim>
					<dim>48</dim>
				</port>
			</input>
			<output>
				<port id="2" precision="FP32" names="concat_1.tmp_0">
					<dim>1</dim>
					<dim>40</dim>
					<dim>64</dim>
					<dim>48</dim>
				</port>
			</output>
		</layer>
		<layer id="86" name="Constant_1664" type="Const" version="opset1">
			<data element_type="i32" shape="5" offset="10880" size="20"/>
			<rt_info>
				<attribute name="fused_names" version="0" value="Constant_1664"/>
			</rt_info>
			<output>
				<port id="0" precision="I32">
					<dim>5</dim>
				</port>
			</output>
		</layer>
		<layer id="87" name="reshape2_2.tmp_0" type="Reshape" version="opset1">
			<data special_zero="true"/>
			<rt_info>
				<attribute name="fused_names" version="0" value="reshape2_2.tmp_0"/>
			</rt_info>
			<input>
				<port id="0" precision="FP32">
					<dim>1</dim>
					<dim>40</dim>
					<dim>64</dim>
					<dim>48</dim>
				</port>
				<port id="1" precision="I32">
					<dim>5</dim>
				</port>
			</input>
			<output>
				<port id="2" precision="FP32" names="reshape2_2.tmp_0">
					<dim>1</dim>
					<dim>2</dim>
					<dim>20</dim>
					<dim>64</dim>
					<dim>48</dim>
				</port>
			</output>
		</layer>
		<layer id="88" name="Constant_1671" type="Const" version="opset1">
			<data element_type="i64" shape="5" offset="5464" size="40"/>
			<rt_info>
				<attribute name="fused_names" version="0" value="Constant_1671"/>
			</rt_info>
			<output>
				<port id="0" precision="I64">
					<dim>5</dim>
				</port>
			</output>
		</layer>
		<layer id="89" name="transpose_1.tmp_0" type="Transpose" version="opset1">
			<rt_info>
				<attribute name="fused_names" version="0" value="transpose_1.tmp_0"/>
			</rt_info>
			<input>
				<port id="0" precision="FP32">
					<dim>1</dim>
					<dim>2</dim>
					<dim>20</dim>
					<dim>64</dim>
					<dim>48</dim>
				</port>
				<port id="1" precision="I64">
					<dim>5</dim>
				</port>
			</input>
			<output>
				<port id="2" precision="FP32" names="transpose_1.tmp_0">
					<dim>1</dim>
					<dim>20</dim>
					<dim>2</dim>
					<dim>64</dim>
					<dim>48</dim>
				</port>
			</output>
		</layer>
		<layer id="90" name="Constant_1673" type="Const" version="opset1">
			<data element_type="i32" shape="4" offset="10900" size="16"/>
			<rt_info>
				<attribute name="fused_names" version="0" value="Constant_1673"/>
			</rt_info>
			<output>
				<port id="0" precision="I32">
					<dim>4</dim>
				</port>
			</output>
		</layer>
		<layer id="91" name="reshape2_3.tmp_0" type="Reshape" version="opset1">
			<data special_zero="true"/>
			<rt_info>
				<attribute name="fused_names" version="0" value="reshape2_3.tmp_0"/>
			</rt_info>
			<input>
				<port id="0" precision="FP32">
					<dim>1</dim>
					<dim>20</dim>
					<dim>2</dim>
					<dim>64</dim>
					<dim>48</dim>
				</port>
				<port id="1" precision="I32">
					<dim>4</dim>
				</port>
			</input>
			<output>
				<port id="2" precision="FP32" names="reshape2_3.tmp_0">
					<dim>1</dim>
					<dim>40</dim>
					<dim>64</dim>
					<dim>48</dim>
				</port>
			</output>
		</layer>
		<layer id="92" name="Constant_1680" type="Const" version="opset1">
			<data element_type="i32" shape="" offset="1792" size="4"/>
			<rt_info>
				<attribute name="fused_names" version="0" value="Constant_1680"/>
			</rt_info>
			<output>
				<port id="0" precision="I32"/>
			</output>
		</layer>
		<layer id="93" name="split_2.tmp_0" type="Split" version="opset1">
			<data num_splits="2"/>
			<rt_info>
				<attribute name="fused_names" version="0" value="split_2.tmp_0"/>
			</rt_info>
			<input>
				<port id="0" precision="FP32">
					<dim>1</dim>
					<dim>40</dim>
					<dim>64</dim>
					<dim>48</dim>
				</port>
				<port id="1" precision="I32"/>
			</input>
			<output>
				<port id="2" precision="FP32" names="split_2.tmp_0">
					<dim>1</dim>
					<dim>20</dim>
					<dim>64</dim>
					<dim>48</dim>
				</port>
				<port id="3" precision="FP32" names="split_2.tmp_1">
					<dim>1</dim>
					<dim>20</dim>
					<dim>64</dim>
					<dim>48</dim>
				</port>
			</output>
		</layer>
		<layer id="94" name="Multiply_50944_compressed" type="Const" version="opset1">
			<data element_type="f16" shape="20, 20, 1, 1" offset="10916" size="800"/>
			<output>
				<port id="0" precision="FP16">
					<dim>20</dim>
					<dim>20</dim>
					<dim>1</dim>
					<dim>1</dim>
				</port>
			</output>
		</layer>
		<layer id="95" name="Multiply_50944" type="Convert" version="opset1">
			<data destination_type="f32"/>
			<rt_info>
				<attribute name="decompression" version="0"/>
			</rt_info>
			<input>
				<port id="0" precision="FP16">
					<dim>20</dim>
					<dim>20</dim>
					<dim>1</dim>
					<dim>1</dim>
				</port>
			</input>
			<output>
				<port id="1" precision="FP32">
					<dim>20</dim>
					<dim>20</dim>
					<dim>1</dim>
					<dim>1</dim>
				</port>
			</output>
		</layer>
		<layer id="96" name="Multiply_49043" type="Convolution" version="opset1">
			<data strides="1, 1" dilations="1, 1" pads_begin="0, 0" pads_end="0, 0" auto_pad="explicit"/>
			<rt_info>
				<attribute name="fused_names" version="0" value="batch_norm2d_13.b_0, batch_norm2d_13.w_0, batch_norm2d_13.w_1, batch_norm2d_13.w_2, conv2d_277.tmp_0"/>
			</rt_info>
			<input>
				<port id="0" precision="FP32">
					<dim>1</dim>
					<dim>20</dim>
					<dim>64</dim>
					<dim>48</dim>
				</port>
				<port id="1" precision="FP32">
					<dim>20</dim>
					<dim>20</dim>
					<dim>1</dim>
					<dim>1</dim>
				</port>
			</input>
			<output>
				<port id="2" precision="FP32">
					<dim>1</dim>
					<dim>20</dim>
					<dim>64</dim>
					<dim>48</dim>
				</port>
			</output>
		</layer>
		<layer id="97" name="Constant_49048_compressed" type="Const" version="opset1">
			<data element_type="f16" shape="1, 20, 1, 1" offset="11716" size="40"/>
			<output>
				<port id="0" precision="FP16">
					<dim>1</dim>
					<dim>20</dim>
					<dim>1</dim>
					<dim>1</dim>
				</port>
			</output>
		</layer>
		<layer id="98" name="Constant_49048" type="Convert" version="opset1">
			<data destination_type="f32"/>
			<rt_info>
				<attribute name="decompression" version="0"/>
			</rt_info>
			<input>
				<port id="0" precision="FP16">
					<dim>1</dim>
					<dim>20</dim>
					<dim>1</dim>
					<dim>1</dim>
				</port>
			</input>
			<output>
				<port id="1" precision="FP32">
					<dim>1</dim>
					<dim>20</dim>
					<dim>1</dim>
					<dim>1</dim>
				</port>
			</output>
		</layer>
		<layer id="99" name="batch_norm2d_13.w_1" type="Add" version="opset1">
			<data auto_broadcast="numpy"/>
			<rt_info>
				<attribute name="fused_names" version="0" value="batch_norm2d_13.b_0, batch_norm2d_13.w_0, batch_norm2d_13.w_1, batch_norm2d_13.w_2"/>
			</rt_info>
			<input>
				<port id="0" precision="FP32">
					<dim>1</dim>
					<dim>20</dim>
					<dim>64</dim>
					<dim>48</dim>
				</port>
				<port id="1" precision="FP32">
					<dim>1</dim>
					<dim>20</dim>
					<dim>1</dim>
					<dim>1</dim>
				</port>
			</input>
			<output>
				<port id="2" precision="FP32" names="batch_norm_13.tmp_2">
					<dim>1</dim>
					<dim>20</dim>
					<dim>64</dim>
					<dim>48</dim>
				</port>
			</output>
		</layer>
		<layer id="100" name="relu_8.tmp_0" type="ReLU" version="opset1">
			<rt_info>
				<attribute name="fused_names" version="0" value="relu_8.tmp_0"/>
			</rt_info>
			<input>
				<port id="0" precision="FP32">
					<dim>1</dim>
					<dim>20</dim>
					<dim>64</dim>
					<dim>48</dim>
				</port>
			</input>
			<output>
				<port id="1" precision="FP32" names="relu_8.tmp_0">
					<dim>1</dim>
					<dim>20</dim>
					<dim>64</dim>
					<dim>48</dim>
				</port>
			</output>
		</layer>
		<layer id="101" name="Multiply_50953_compressed" type="Const" version="opset1">
			<data element_type="f16" shape="20, 1, 1, 3, 3" offset="11756" size="360"/>
			<output>
				<port id="0" precision="FP16">
					<dim>20</dim>
					<dim>1</dim>
					<dim>1</dim>
					<dim>3</dim>
					<dim>3</dim>
				</port>
			</output>
		</layer>
		<layer id="102" name="Multiply_50953" type="Convert" version="opset1">
			<data destination_type="f32"/>
			<rt_info>
				<attribute name="decompression" version="0"/>
			</rt_info>
			<input>
				<port id="0" precision="FP16">
					<dim>20</dim>
					<dim>1</dim>
					<dim>1</dim>
					<dim>3</dim>
					<dim>3</dim>
				</port>
			</input>
			<output>
				<port id="1" precision="FP32">
					<dim>20</dim>
					<dim>1</dim>
					<dim>1</dim>
					<dim>3</dim>
					<dim>3</dim>
				</port>
			</output>
		</layer>
		<layer id="103" name="Multiply_49050" type="GroupConvolution" version="opset1">
			<data strides="1, 1" pads_begin="1, 1" pads_end="1, 1" dilations="1, 1" auto_pad="explicit"/>
			<rt_info>
				<attribute name="fused_names" version="0" value="batch_norm2d_14.b_0, batch_norm2d_14.w_0, batch_norm2d_14.w_1, batch_norm2d_14.w_2"/>
			</rt_info>
			<input>
				<port id="0" precision="FP32">
					<dim>1</dim>
					<dim>20</dim>
					<dim>64</dim>
					<dim>48</dim>
				</port>
				<port id="1" precision="FP32">
					<dim>20</dim>
					<dim>1</dim>
					<dim>1</dim>
					<dim>3</dim>
					<dim>3</dim>
				</port>
			</input>
			<output>
				<port id="2" precision="FP32" names="depthwise_conv2d_5.tmp_0">
					<dim>1</dim>
					<dim>20</dim>
					<dim>64</dim>
					<dim>48</dim>
				</port>
			</output>
		</layer>
		<layer id="104" name="Constant_49055_compressed" type="Const" version="opset1">
			<data element_type="f16" shape="1, 20, 1, 1" offset="12116" size="40"/>
			<output>
				<port id="0" precision="FP16">
					<dim>1</dim>
					<dim>20</dim>
					<dim>1</dim>
					<dim>1</dim>
				</port>
			</output>
		</layer>
		<layer id="105" name="Constant_49055" type="Convert" version="opset1">
			<data destination_type="f32"/>
			<rt_info>
				<attribute name="decompression" version="0"/>
			</rt_info>
			<input>
				<port id="0" precision="FP16">
					<dim>1</dim>
					<dim>20</dim>
					<dim>1</dim>
					<dim>1</dim>
				</port>
			</input>
			<output>
				<port id="1" precision="FP32">
					<dim>1</dim>
					<dim>20</dim>
					<dim>1</dim>
					<dim>1</dim>
				</port>
			</output>
		</layer>
		<layer id="106" name="batch_norm2d_14.w_1" type="Add" version="opset1">
			<data auto_broadcast="numpy"/>
			<rt_info>
				<attribute name="fused_names" version="0" value="batch_norm2d_14.b_0, batch_norm2d_14.w_0, batch_norm2d_14.w_1, batch_norm2d_14.w_2"/>
			</rt_info>
			<input>
				<port id="0" precision="FP32">
					<dim>1</dim>
					<dim>20</dim>
					<dim>64</dim>
					<dim>48</dim>
				</port>
				<port id="1" precision="FP32">
					<dim>1</dim>
					<dim>20</dim>
					<dim>1</dim>
					<dim>1</dim>
				</port>
			</input>
			<output>
				<port id="2" precision="FP32" names="batch_norm_14.tmp_2">
					<dim>1</dim>
					<dim>20</dim>
					<dim>64</dim>
					<dim>48</dim>
				</port>
			</output>
		</layer>
		<layer id="107" name="Multiply_50961_compressed" type="Const" version="opset1">
			<data element_type="f16" shape="20, 20, 1, 1" offset="12156" size="800"/>
			<output>
				<port id="0" precision="FP16">
					<dim>20</dim>
					<dim>20</dim>
					<dim>1</dim>
					<dim>1</dim>
				</port>
			</output>
		</layer>
		<layer id="108" name="Multiply_50961" type="Convert" version="opset1">
			<data destination_type="f32"/>
			<rt_info>
				<attribute name="decompression" version="0"/>
			</rt_info>
			<input>
				<port id="0" precision="FP16">
					<dim>20</dim>
					<dim>20</dim>
					<dim>1</dim>
					<dim>1</dim>
				</port>
			</input>
			<output>
				<port id="1" precision="FP32">
					<dim>20</dim>
					<dim>20</dim>
					<dim>1</dim>
					<dim>1</dim>
				</port>
			</output>
		</layer>
		<layer id="109" name="Multiply_49057" type="Convolution" version="opset1">
			<data strides="1, 1" dilations="1, 1" pads_begin="0, 0" pads_end="0, 0" auto_pad="explicit"/>
			<rt_info>
				<attribute name="fused_names" version="0" value="batch_norm2d_15.b_0, batch_norm2d_15.w_0, batch_norm2d_15.w_1, batch_norm2d_15.w_2, conv2d_278.tmp_0"/>
			</rt_info>
			<input>
				<port id="0" precision="FP32">
					<dim>1</dim>
					<dim>20</dim>
					<dim>64</dim>
					<dim>48</dim>
				</port>
				<port id="1" precision="FP32">
					<dim>20</dim>
					<dim>20</dim>
					<dim>1</dim>
					<dim>1</dim>
				</port>
			</input>
			<output>
				<port id="2" precision="FP32">
					<dim>1</dim>
					<dim>20</dim>
					<dim>64</dim>
					<dim>48</dim>
				</port>
			</output>
		</layer>
		<layer id="110" name="Constant_49062_compressed" type="Const" version="opset1">
			<data element_type="f16" shape="1, 20, 1, 1" offset="12956" size="40"/>
			<output>
				<port id="0" precision="FP16">
					<dim>1</dim>
					<dim>20</dim>
					<dim>1</dim>
					<dim>1</dim>
				</port>
			</output>
		</layer>
		<layer id="111" name="Constant_49062" type="Convert" version="opset1">
			<data destination_type="f32"/>
			<rt_info>
				<attribute name="decompression" version="0"/>
			</rt_info>
			<input>
				<port id="0" precision="FP16">
					<dim>1</dim>
					<dim>20</dim>
					<dim>1</dim>
					<dim>1</dim>
				</port>
			</input>
			<output>
				<port id="1" precision="FP32">
					<dim>1</dim>
					<dim>20</dim>
					<dim>1</dim>
					<dim>1</dim>
				</port>
			</output>
		</layer>
		<layer id="112" name="batch_norm2d_15.w_1" type="Add" version="opset1">
			<data auto_broadcast="numpy"/>
			<rt_info>
				<attribute name="fused_names" version="0" value="batch_norm2d_15.b_0, batch_norm2d_15.w_0, batch_norm2d_15.w_1, batch_norm2d_15.w_2"/>
			</rt_info>
			<input>
				<port id="0" precision="FP32">
					<dim>1</dim>
					<dim>20</dim>
					<dim>64</dim>
					<dim>48</dim>
				</port>
				<port id="1" precision="FP32">
					<dim>1</dim>
					<dim>20</dim>
					<dim>1</dim>
					<dim>1</dim>
				</port>
			</input>
			<output>
				<port id="2" precision="FP32" names="batch_norm_15.tmp_2">
					<dim>1</dim>
					<dim>20</dim>
					<dim>64</dim>
					<dim>48</dim>
				</port>
			</output>
		</layer>
		<layer id="113" name="relu_9.tmp_0" type="ReLU" version="opset1">
			<rt_info>
				<attribute name="fused_names" version="0" value="relu_9.tmp_0"/>
			</rt_info>
			<input>
				<port id="0" precision="FP32">
					<dim>1</dim>
					<dim>20</dim>
					<dim>64</dim>
					<dim>48</dim>
				</port>
			</input>
			<output>
				<port id="1" precision="FP32" names="relu_9.tmp_0">
					<dim>1</dim>
					<dim>20</dim>
					<dim>64</dim>
					<dim>48</dim>
				</port>
			</output>
		</layer>
		<layer id="114" name="concat_2.tmp_0" type="Concat" version="opset1">
			<data axis="1"/>
			<rt_info>
				<attribute name="fused_names" version="0" value="concat_2.tmp_0"/>
			</rt_info>
			<input>
				<port id="0" precision="FP32">
					<dim>1</dim>
					<dim>20</dim>
					<dim>64</dim>
					<dim>48</dim>
				</port>
				<port id="1" precision="FP32">
					<dim>1</dim>
					<dim>20</dim>
					<dim>64</dim>
					<dim>48</dim>
				</port>
			</input>
			<output>
				<port id="2" precision="FP32" names="concat_2.tmp_0">
					<dim>1</dim>
					<dim>40</dim>
					<dim>64</dim>
					<dim>48</dim>
				</port>
			</output>
		</layer>
		<layer id="115" name="Constant_1744" type="Const" version="opset1">
			<data element_type="i32" shape="5" offset="10880" size="20"/>
			<rt_info>
				<attribute name="fused_names" version="0" value="Constant_1744"/>
			</rt_info>
			<output>
				<port id="0" precision="I32">
					<dim>5</dim>
				</port>
			</output>
		</layer>
		<layer id="116" name="reshape2_4.tmp_0" type="Reshape" version="opset1">
			<data special_zero="true"/>
			<rt_info>
				<attribute name="fused_names" version="0" value="reshape2_4.tmp_0"/>
			</rt_info>
			<input>
				<port id="0" precision="FP32">
					<dim>1</dim>
					<dim>40</dim>
					<dim>64</dim>
					<dim>48</dim>
				</port>
				<port id="1" precision="I32">
					<dim>5</dim>
				</port>
			</input>
			<output>
				<port id="2" precision="FP32" names="reshape2_4.tmp_0">
					<dim>1</dim>
					<dim>2</dim>
					<dim>20</dim>
					<dim>64</dim>
					<dim>48</dim>
				</port>
			</output>
		</layer>
		<layer id="117" name="Constant_1751" type="Const" version="opset1">
			<data element_type="i64" shape="5" offset="5464" size="40"/>
			<rt_info>
				<attribute name="fused_names" version="0" value="Constant_1751"/>
			</rt_info>
			<output>
				<port id="0" precision="I64">
					<dim>5</dim>
				</port>
			</output>
		</layer>
		<layer id="118" name="transpose_2.tmp_0" type="Transpose" version="opset1">
			<rt_info>
				<attribute name="fused_names" version="0" value="transpose_2.tmp_0"/>
			</rt_info>
			<input>
				<port id="0" precision="FP32">
					<dim>1</dim>
					<dim>2</dim>
					<dim>20</dim>
					<dim>64</dim>
					<dim>48</dim>
				</port>
				<port id="1" precision="I64">
					<dim>5</dim>
				</port>
			</input>
			<output>
				<port id="2" precision="FP32" names="transpose_2.tmp_0">
					<dim>1</dim>
					<dim>20</dim>
					<dim>2</dim>
					<dim>64</dim>
					<dim>48</dim>
				</port>
			</output>
		</layer>
		<layer id="119" name="Constant_1753" type="Const" version="opset1">
			<data element_type="i32" shape="4" offset="10900" size="16"/>
			<rt_info>
				<attribute name="fused_names" version="0" value="Constant_1753"/>
			</rt_info>
			<output>
				<port id="0" precision="I32">
					<dim>4</dim>
				</port>
			</output>
		</layer>
		<layer id="120" name="reshape2_5.tmp_0" type="Reshape" version="opset1">
			<data special_zero="true"/>
			<rt_info>
				<attribute name="fused_names" version="0" value="reshape2_5.tmp_0"/>
			</rt_info>
			<input>
				<port id="0" precision="FP32">
					<dim>1</dim>
					<dim>20</dim>
					<dim>2</dim>
					<dim>64</dim>
					<dim>48</dim>
				</port>
				<port id="1" precision="I32">
					<dim>4</dim>
				</port>
			</input>
			<output>
				<port id="2" precision="FP32" names="reshape2_5.tmp_0">
					<dim>1</dim>
					<dim>40</dim>
					<dim>64</dim>
					<dim>48</dim>
				</port>
			</output>
		</layer>
		<layer id="121" name="tmp_0" type="Add" version="opset1">
			<data auto_broadcast="numpy"/>
			<rt_info>
				<attribute name="fused_names" version="0" value="tmp_0"/>
			</rt_info>
			<input>
				<port id="0" precision="FP32">
					<dim>1</dim>
					<dim>40</dim>
					<dim>64</dim>
					<dim>48</dim>
				</port>
				<port id="1" precision="FP32">
					<dim>1</dim>
					<dim>40</dim>
					<dim>64</dim>
					<dim>48</dim>
				</port>
			</input>
			<output>
				<port id="2" precision="FP32" names="tmp_0">
					<dim>1</dim>
					<dim>40</dim>
					<dim>64</dim>
					<dim>48</dim>
				</port>
			</output>
		</layer>
		<layer id="122" name="Multiply_50970_compressed" type="Const" version="opset1">
			<data element_type="f16" shape="32, 1, 1, 3, 3" offset="12996" size="576"/>
			<output>
				<port id="0" precision="FP16">
					<dim>32</dim>
					<dim>1</dim>
					<dim>1</dim>
					<dim>3</dim>
					<dim>3</dim>
				</port>
			</output>
		</layer>
		<layer id="123" name="Multiply_50970" type="Convert" version="opset1">
			<data destination_type="f32"/>
			<rt_info>
				<attribute name="decompression" version="0"/>
			</rt_info>
			<input>
				<port id="0" precision="FP16">
					<dim>32</dim>
					<dim>1</dim>
					<dim>1</dim>
					<dim>3</dim>
					<dim>3</dim>
				</port>
			</input>
			<output>
				<port id="1" precision="FP32">
					<dim>32</dim>
					<dim>1</dim>
					<dim>1</dim>
					<dim>3</dim>
					<dim>3</dim>
				</port>
			</output>
		</layer>
		<layer id="124" name="Multiply_49064" type="GroupConvolution" version="opset1">
			<data strides="2, 2" pads_begin="1, 1" pads_end="1, 1" dilations="1, 1" auto_pad="explicit"/>
			<rt_info>
				<attribute name="fused_names" version="0" value="batch_norm2d_8.b_0, batch_norm2d_8.w_0, batch_norm2d_8.w_1, batch_norm2d_8.w_2"/>
			</rt_info>
			<input>
				<port id="0" precision="FP32">
					<dim>1</dim>
					<dim>32</dim>
					<dim>64</dim>
					<dim>48</dim>
				</port>
				<port id="1" precision="FP32">
					<dim>32</dim>
					<dim>1</dim>
					<dim>1</dim>
					<dim>3</dim>
					<dim>3</dim>
				</port>
			</input>
			<output>
				<port id="2" precision="FP32" names="depthwise_conv2d_3.tmp_0">
					<dim>1</dim>
					<dim>32</dim>
					<dim>32</dim>
					<dim>24</dim>
				</port>
			</output>
		</layer>
		<layer id="125" name="Constant_49069_compressed" type="Const" version="opset1">
			<data element_type="f16" shape="1, 32, 1, 1" offset="13572" size="64"/>
			<output>
				<port id="0" precision="FP16">
					<dim>1</dim>
					<dim>32</dim>
					<dim>1</dim>
					<dim>1</dim>
				</port>
			</output>
		</layer>
		<layer id="126" name="Constant_49069" type="Convert" version="opset1">
			<data destination_type="f32"/>
			<rt_info>
				<attribute name="decompression" version="0"/>
			</rt_info>
			<input>
				<port id="0" precision="FP16">
					<dim>1</dim>
					<dim>32</dim>
					<dim>1</dim>
					<dim>1</dim>
				</port>
			</input>
			<output>
				<port id="1" precision="FP32">
					<dim>1</dim>
					<dim>32</dim>
					<dim>1</dim>
					<dim>1</dim>
				</port>
			</output>
		</layer>
		<layer id="127" name="batch_norm2d_8.w_1" type="Add" version="opset1">
			<data auto_broadcast="numpy"/>
			<rt_info>
				<attribute name="fused_names" version="0" value="batch_norm2d_8.b_0, batch_norm2d_8.w_0, batch_norm2d_8.w_1, batch_norm2d_8.w_2"/>
			</rt_info>
			<input>
				<port id="0" precision="FP32">
					<dim>1</dim>
					<dim>32</dim>
					<dim>32</dim>
					<dim>24</dim>
				</port>
				<port id="1" precision="FP32">
					<dim>1</dim>
					<dim>32</dim>
					<dim>1</dim>
					<dim>1</dim>
				</port>
			</input>
			<output>
				<port id="2" precision="FP32" names="batch_norm_8.tmp_2">
					<dim>1</dim>
					<dim>32</dim>
					<dim>32</dim>
					<dim>24</dim>
				</port>
			</output>
		</layer>
		<layer id="128" name="Multiply_50978_compressed" type="Const" version="opset1">
			<data element_type="f16" shape="80, 32, 1, 1" offset="13636" size="5120"/>
			<output>
				<port id="0" precision="FP16">
					<dim>80</dim>
					<dim>32</dim>
					<dim>1</dim>
					<dim>1</dim>
				</port>
			</output>
		</layer>
		<layer id="129" name="Multiply_50978" type="Convert" version="opset1">
			<data destination_type="f32"/>
			<rt_info>
				<attribute name="decompression" version="0"/>
			</rt_info>
			<input>
				<port id="0" precision="FP16">
					<dim>80</dim>
					<dim>32</dim>
					<dim>1</dim>
					<dim>1</dim>
				</port>
			</input>
			<output>
				<port id="1" precision="FP32">
					<dim>80</dim>
					<dim>32</dim>
					<dim>1</dim>
					<dim>1</dim>
				</port>
			</output>
		</layer>
		<layer id="130" name="Multiply_49071" type="Convolution" version="opset1">
			<data strides="1, 1" dilations="1, 1" pads_begin="0, 0" pads_end="0, 0" auto_pad="explicit"/>
			<rt_info>
				<attribute name="fused_names" version="0" value="batch_norm2d_9.b_0, batch_norm2d_9.w_0, batch_norm2d_9.w_1, batch_norm2d_9.w_2, conv2d_274.tmp_0"/>
			</rt_info>
			<input>
				<port id="0" precision="FP32">
					<dim>1</dim>
					<dim>32</dim>
					<dim>32</dim>
					<dim>24</dim>
				</port>
				<port id="1" precision="FP32">
					<dim>80</dim>
					<dim>32</dim>
					<dim>1</dim>
					<dim>1</dim>
				</port>
			</input>
			<output>
				<port id="2" precision="FP32">
					<dim>1</dim>
					<dim>80</dim>
					<dim>32</dim>
					<dim>24</dim>
				</port>
			</output>
		</layer>
		<layer id="131" name="Constant_49076_compressed" type="Const" version="opset1">
			<data element_type="f16" shape="1, 80, 1, 1" offset="18756" size="160"/>
			<output>
				<port id="0" precision="FP16">
					<dim>1</dim>
					<dim>80</dim>
					<dim>1</dim>
					<dim>1</dim>
				</port>
			</output>
		</layer>
		<layer id="132" name="Constant_49076" type="Convert" version="opset1">
			<data destination_type="f32"/>
			<rt_info>
				<attribute name="decompression" version="0"/>
			</rt_info>
			<input>
				<port id="0" precision="FP16">
					<dim>1</dim>
					<dim>80</dim>
					<dim>1</dim>
					<dim>1</dim>
				</port>
			</input>
			<output>
				<port id="1" precision="FP32">
					<dim>1</dim>
					<dim>80</dim>
					<dim>1</dim>
					<dim>1</dim>
				</port>
			</output>
		</layer>
		<layer id="133" name="batch_norm2d_9.w_1" type="Add" version="opset1">
			<data auto_broadcast="numpy"/>
			<rt_info>
				<attribute name="fused_names" version="0" value="batch_norm2d_9.b_0, batch_norm2d_9.w_0, batch_norm2d_9.w_1, batch_norm2d_9.w_2"/>
			</rt_info>
			<input>
				<port id="0" precision="FP32">
					<dim>1</dim>
					<dim>80</dim>
					<dim>32</dim>
					<dim>24</dim>
				</port>
				<port id="1" precision="FP32">
					<dim>1</dim>
					<dim>80</dim>
					<dim>1</dim>
					<dim>1</dim>
				</port>
			</input>
			<output>
				<port id="2" precision="FP32" names="batch_norm_9.tmp_2">
					<dim>1</dim>
					<dim>80</dim>
					<dim>32</dim>
					<dim>24</dim>
				</port>
			</output>
		</layer>
		<layer id="134" name="relu_5.tmp_0" type="ReLU" version="opset1">
			<rt_info>
				<attribute name="fused_names" version="0" value="relu_5.tmp_0"/>
			</rt_info>
			<input>
				<port id="0" precision="FP32">
					<dim>1</dim>
					<dim>80</dim>
					<dim>32</dim>
					<dim>24</dim>
				</port>
			</input>
			<output>
				<port id="1" precision="FP32" names="relu_5.tmp_0">
					<dim>1</dim>
					<dim>80</dim>
					<dim>32</dim>
					<dim>24</dim>
				</port>
			</output>
		</layer>
		<layer id="135" name="Constant_1760" type="Const" version="opset1">
			<data element_type="i32" shape="" offset="1792" size="4"/>
			<rt_info>
				<attribute name="fused_names" version="0" value="Constant_1760"/>
			</rt_info>
			<output>
				<port id="0" precision="I32"/>
			</output>
		</layer>
		<layer id="136" name="split_3.tmp_0" type="Split" version="opset1">
			<data num_splits="2"/>
			<rt_info>
				<attribute name="fused_names" version="0" value="split_3.tmp_0"/>
			</rt_info>
			<input>
				<port id="0" precision="FP32">
					<dim>1</dim>
					<dim>80</dim>
					<dim>32</dim>
					<dim>24</dim>
				</port>
				<port id="1" precision="I32"/>
			</input>
			<output>
				<port id="2" precision="FP32" names="split_3.tmp_0">
					<dim>1</dim>
					<dim>40</dim>
					<dim>32</dim>
					<dim>24</dim>
				</port>
				<port id="3" precision="FP32" names="split_3.tmp_1">
					<dim>1</dim>
					<dim>40</dim>
					<dim>32</dim>
					<dim>24</dim>
				</port>
			</output>
		</layer>
		<layer id="137" name="Multiply_50987_compressed" type="Const" version="opset1">
			<data element_type="f16" shape="40, 40, 1, 1" offset="18916" size="3200"/>
			<output>
				<port id="0" precision="FP16">
					<dim>40</dim>
					<dim>40</dim>
					<dim>1</dim>
					<dim>1</dim>
				</port>
			</output>
		</layer>
		<layer id="138" name="Multiply_50987" type="Convert" version="opset1">
			<data destination_type="f32"/>
			<rt_info>
				<attribute name="decompression" version="0"/>
			</rt_info>
			<input>
				<port id="0" precision="FP16">
					<dim>40</dim>
					<dim>40</dim>
					<dim>1</dim>
					<dim>1</dim>
				</port>
			</input>
			<output>
				<port id="1" precision="FP32">
					<dim>40</dim>
					<dim>40</dim>
					<dim>1</dim>
					<dim>1</dim>
				</port>
			</output>
		</layer>
		<layer id="139" name="Multiply_49078" type="Convolution" version="opset1">
			<data strides="1, 1" dilations="1, 1" pads_begin="0, 0" pads_end="0, 0" auto_pad="explicit"/>
			<rt_info>
				<attribute name="fused_names" version="0" value="batch_norm2d_16.b_0, batch_norm2d_16.w_0, batch_norm2d_16.w_1, batch_norm2d_16.w_2, conv2d_279.tmp_0"/>
			</rt_info>
			<input>
				<port id="0" precision="FP32">
					<dim>1</dim>
					<dim>40</dim>
					<dim>32</dim>
					<dim>24</dim>
				</port>
				<port id="1" precision="FP32">
					<dim>40</dim>
					<dim>40</dim>
					<dim>1</dim>
					<dim>1</dim>
				</port>
			</input>
			<output>
				<port id="2" precision="FP32">
					<dim>1</dim>
					<dim>40</dim>
					<dim>32</dim>
					<dim>24</dim>
				</port>
			</output>
		</layer>
		<layer id="140" name="Constant_49083_compressed" type="Const" version="opset1">
			<data element_type="f16" shape="1, 40, 1, 1" offset="22116" size="80"/>
			<output>
				<port id="0" precision="FP16">
					<dim>1</dim>
					<dim>40</dim>
					<dim>1</dim>
					<dim>1</dim>
				</port>
			</output>
		</layer>
		<layer id="141" name="Constant_49083" type="Convert" version="opset1">
			<data destination_type="f32"/>
			<rt_info>
				<attribute name="decompression" version="0"/>
			</rt_info>
			<input>
				<port id="0" precision="FP16">
					<dim>1</dim>
					<dim>40</dim>
					<dim>1</dim>
					<dim>1</dim>
				</port>
			</input>
			<output>
				<port id="1" precision="FP32">
					<dim>1</dim>
					<dim>40</dim>
					<dim>1</dim>
					<dim>1</dim>
				</port>
			</output>
		</layer>
		<layer id="142" name="batch_norm2d_16.w_1" type="Add" version="opset1">
			<data auto_broadcast="numpy"/>
			<rt_info>
				<attribute name="fused_names" version="0" value="batch_norm2d_16.b_0, batch_norm2d_16.w_0, batch_norm2d_16.w_1, batch_norm2d_16.w_2"/>
			</rt_info>
			<input>
				<port id="0" precision="FP32">
					<dim>1</dim>
					<dim>40</dim>
					<dim>32</dim>
					<dim>24</dim>
				</port>
				<port id="1" precision="FP32">
					<dim>1</dim>
					<dim>40</dim>
					<dim>1</dim>
					<dim>1</dim>
				</port>
			</input>
			<output>
				<port id="2" precision="FP32" names="batch_norm_16.tmp_2">
					<dim>1</dim>
					<dim>40</dim>
					<dim>32</dim>
					<dim>24</dim>
				</port>
			</output>
		</layer>
		<layer id="143" name="relu_10.tmp_0" type="ReLU" version="opset1">
			<rt_info>
				<attribute name="fused_names" version="0" value="relu_10.tmp_0"/>
			</rt_info>
			<input>
				<port id="0" precision="FP32">
					<dim>1</dim>
					<dim>40</dim>
					<dim>32</dim>
					<dim>24</dim>
				</port>
			</input>
			<output>
				<port id="1" precision="FP32" names="relu_10.tmp_0">
					<dim>1</dim>
					<dim>40</dim>
					<dim>32</dim>
					<dim>24</dim>
				</port>
			</output>
		</layer>
		<layer id="144" name="Multiply_50996_compressed" type="Const" version="opset1">
			<data element_type="f16" shape="40, 1, 1, 3, 3" offset="22196" size="720"/>
			<output>
				<port id="0" precision="FP16">
					<dim>40</dim>
					<dim>1</dim>
					<dim>1</dim>
					<dim>3</dim>
					<dim>3</dim>
				</port>
			</output>
		</layer>
		<layer id="145" name="Multiply_50996" type="Convert" version="opset1">
			<data destination_type="f32"/>
			<rt_info>
				<attribute name="decompression" version="0"/>
			</rt_info>
			<input>
				<port id="0" precision="FP16">
					<dim>40</dim>
					<dim>1</dim>
					<dim>1</dim>
					<dim>3</dim>
					<dim>3</dim>
				</port>
			</input>
			<output>
				<port id="1" precision="FP32">
					<dim>40</dim>
					<dim>1</dim>
					<dim>1</dim>
					<dim>3</dim>
					<dim>3</dim>
				</port>
			</output>
		</layer>
		<layer id="146" name="Multiply_49085" type="GroupConvolution" version="opset1">
			<data strides="1, 1" pads_begin="1, 1" pads_end="1, 1" dilations="1, 1" auto_pad="explicit"/>
			<rt_info>
				<attribute name="fused_names" version="0" value="batch_norm2d_17.b_0, batch_norm2d_17.w_0, batch_norm2d_17.w_1, batch_norm2d_17.w_2"/>
			</rt_info>
			<input>
				<port id="0" precision="FP32">
					<dim>1</dim>
					<dim>40</dim>
					<dim>32</dim>
					<dim>24</dim>
				</port>
				<port id="1" precision="FP32">
					<dim>40</dim>
					<dim>1</dim>
					<dim>1</dim>
					<dim>3</dim>
					<dim>3</dim>
				</port>
			</input>
			<output>
				<port id="2" precision="FP32" names="depthwise_conv2d_6.tmp_0">
					<dim>1</dim>
					<dim>40</dim>
					<dim>32</dim>
					<dim>24</dim>
				</port>
			</output>
		</layer>
		<layer id="147" name="Constant_49090_compressed" type="Const" version="opset1">
			<data element_type="f16" shape="1, 40, 1, 1" offset="22916" size="80"/>
			<output>
				<port id="0" precision="FP16">
					<dim>1</dim>
					<dim>40</dim>
					<dim>1</dim>
					<dim>1</dim>
				</port>
			</output>
		</layer>
		<layer id="148" name="Constant_49090" type="Convert" version="opset1">
			<data destination_type="f32"/>
			<rt_info>
				<attribute name="decompression" version="0"/>
			</rt_info>
			<input>
				<port id="0" precision="FP16">
					<dim>1</dim>
					<dim>40</dim>
					<dim>1</dim>
					<dim>1</dim>
				</port>
			</input>
			<output>
				<port id="1" precision="FP32">
					<dim>1</dim>
					<dim>40</dim>
					<dim>1</dim>
					<dim>1</dim>
				</port>
			</output>
		</layer>
		<layer id="149" name="batch_norm2d_17.w_1" type="Add" version="opset1">
			<data auto_broadcast="numpy"/>
			<rt_info>
				<attribute name="fused_names" version="0" value="batch_norm2d_17.b_0, batch_norm2d_17.w_0, batch_norm2d_17.w_1, batch_norm2d_17.w_2"/>
			</rt_info>
			<input>
				<port id="0" precision="FP32">
					<dim>1</dim>
					<dim>40</dim>
					<dim>32</dim>
					<dim>24</dim>
				</port>
				<port id="1" precision="FP32">
					<dim>1</dim>
					<dim>40</dim>
					<dim>1</dim>
					<dim>1</dim>
				</port>
			</input>
			<output>
				<port id="2" precision="FP32" names="batch_norm_17.tmp_2">
					<dim>1</dim>
					<dim>40</dim>
					<dim>32</dim>
					<dim>24</dim>
				</port>
			</output>
		</layer>
		<layer id="150" name="Multiply_51004_compressed" type="Const" version="opset1">
			<data element_type="f16" shape="40, 40, 1, 1" offset="22996" size="3200"/>
			<output>
				<port id="0" precision="FP16">
					<dim>40</dim>
					<dim>40</dim>
					<dim>1</dim>
					<dim>1</dim>
				</port>
			</output>
		</layer>
		<layer id="151" name="Multiply_51004" type="Convert" version="opset1">
			<data destination_type="f32"/>
			<rt_info>
				<attribute name="decompression" version="0"/>
			</rt_info>
			<input>
				<port id="0" precision="FP16">
					<dim>40</dim>
					<dim>40</dim>
					<dim>1</dim>
					<dim>1</dim>
				</port>
			</input>
			<output>
				<port id="1" precision="FP32">
					<dim>40</dim>
					<dim>40</dim>
					<dim>1</dim>
					<dim>1</dim>
				</port>
			</output>
		</layer>
		<layer id="152" name="Multiply_49092" type="Convolution" version="opset1">
			<data strides="1, 1" dilations="1, 1" pads_begin="0, 0" pads_end="0, 0" auto_pad="explicit"/>
			<rt_info>
				<attribute name="fused_names" version="0" value="batch_norm2d_18.b_0, batch_norm2d_18.w_0, batch_norm2d_18.w_1, batch_norm2d_18.w_2, conv2d_280.tmp_0"/>
			</rt_info>
			<input>
				<port id="0" precision="FP32">
					<dim>1</dim>
					<dim>40</dim>
					<dim>32</dim>
					<dim>24</dim>
				</port>
				<port id="1" precision="FP32">
					<dim>40</dim>
					<dim>40</dim>
					<dim>1</dim>
					<dim>1</dim>
				</port>
			</input>
			<output>
				<port id="2" precision="FP32">
					<dim>1</dim>
					<dim>40</dim>
					<dim>32</dim>
					<dim>24</dim>
				</port>
			</output>
		</layer>
		<layer id="153" name="Constant_49097_compressed" type="Const" version="opset1">
			<data element_type="f16" shape="1, 40, 1, 1" offset="26196" size="80"/>
			<output>
				<port id="0" precision="FP16">
					<dim>1</dim>
					<dim>40</dim>
					<dim>1</dim>
					<dim>1</dim>
				</port>
			</output>
		</layer>
		<layer id="154" name="Constant_49097" type="Convert" version="opset1">
			<data destination_type="f32"/>
			<rt_info>
				<attribute name="decompression" version="0"/>
			</rt_info>
			<input>
				<port id="0" precision="FP16">
					<dim>1</dim>
					<dim>40</dim>
					<dim>1</dim>
					<dim>1</dim>
				</port>
			</input>
			<output>
				<port id="1" precision="FP32">
					<dim>1</dim>
					<dim>40</dim>
					<dim>1</dim>
					<dim>1</dim>
				</port>
			</output>
		</layer>
		<layer id="155" name="batch_norm2d_18.w_1" type="Add" version="opset1">
			<data auto_broadcast="numpy"/>
			<rt_info>
				<attribute name="fused_names" version="0" value="batch_norm2d_18.b_0, batch_norm2d_18.w_0, batch_norm2d_18.w_1, batch_norm2d_18.w_2"/>
			</rt_info>
			<input>
				<port id="0" precision="FP32">
					<dim>1</dim>
					<dim>40</dim>
					<dim>32</dim>
					<dim>24</dim>
				</port>
				<port id="1" precision="FP32">
					<dim>1</dim>
					<dim>40</dim>
					<dim>1</dim>
					<dim>1</dim>
				</port>
			</input>
			<output>
				<port id="2" precision="FP32" names="batch_norm_18.tmp_2">
					<dim>1</dim>
					<dim>40</dim>
					<dim>32</dim>
					<dim>24</dim>
				</port>
			</output>
		</layer>
		<layer id="156" name="relu_11.tmp_0" type="ReLU" version="opset1">
			<rt_info>
				<attribute name="fused_names" version="0" value="relu_11.tmp_0"/>
			</rt_info>
			<input>
				<port id="0" precision="FP32">
					<dim>1</dim>
					<dim>40</dim>
					<dim>32</dim>
					<dim>24</dim>
				</port>
			</input>
			<output>
				<port id="1" precision="FP32" names="relu_11.tmp_0">
					<dim>1</dim>
					<dim>40</dim>
					<dim>32</dim>
					<dim>24</dim>
				</port>
			</output>
		</layer>
		<layer id="157" name="concat_3.tmp_0" type="Concat" version="opset1">
			<data axis="1"/>
			<rt_info>
				<attribute name="fused_names" version="0" value="concat_3.tmp_0"/>
			</rt_info>
			<input>
				<port id="0" precision="FP32">
					<dim>1</dim>
					<dim>40</dim>
					<dim>32</dim>
					<dim>24</dim>
				</port>
				<port id="1" precision="FP32">
					<dim>1</dim>
					<dim>40</dim>
					<dim>32</dim>
					<dim>24</dim>
				</port>
			</input>
			<output>
				<port id="2" precision="FP32" names="concat_3.tmp_0">
					<dim>1</dim>
					<dim>80</dim>
					<dim>32</dim>
					<dim>24</dim>
				</port>
			</output>
		</layer>
		<layer id="158" name="Constant_1824" type="Const" version="opset1">
			<data element_type="i32" shape="5" offset="26276" size="20"/>
			<rt_info>
				<attribute name="fused_names" version="0" value="Constant_1824"/>
			</rt_info>
			<output>
				<port id="0" precision="I32">
					<dim>5</dim>
				</port>
			</output>
		</layer>
		<layer id="159" name="reshape2_6.tmp_0" type="Reshape" version="opset1">
			<data special_zero="true"/>
			<rt_info>
				<attribute name="fused_names" version="0" value="reshape2_6.tmp_0"/>
			</rt_info>
			<input>
				<port id="0" precision="FP32">
					<dim>1</dim>
					<dim>80</dim>
					<dim>32</dim>
					<dim>24</dim>
				</port>
				<port id="1" precision="I32">
					<dim>5</dim>
				</port>
			</input>
			<output>
				<port id="2" precision="FP32" names="reshape2_6.tmp_0">
					<dim>1</dim>
					<dim>2</dim>
					<dim>40</dim>
					<dim>32</dim>
					<dim>24</dim>
				</port>
			</output>
		</layer>
		<layer id="160" name="Constant_1831" type="Const" version="opset1">
			<data element_type="i64" shape="5" offset="5464" size="40"/>
			<rt_info>
				<attribute name="fused_names" version="0" value="Constant_1831"/>
			</rt_info>
			<output>
				<port id="0" precision="I64">
					<dim>5</dim>
				</port>
			</output>
		</layer>
		<layer id="161" name="transpose_3.tmp_0" type="Transpose" version="opset1">
			<rt_info>
				<attribute name="fused_names" version="0" value="transpose_3.tmp_0"/>
			</rt_info>
			<input>
				<port id="0" precision="FP32">
					<dim>1</dim>
					<dim>2</dim>
					<dim>40</dim>
					<dim>32</dim>
					<dim>24</dim>
				</port>
				<port id="1" precision="I64">
					<dim>5</dim>
				</port>
			</input>
			<output>
				<port id="2" precision="FP32" names="transpose_3.tmp_0">
					<dim>1</dim>
					<dim>40</dim>
					<dim>2</dim>
					<dim>32</dim>
					<dim>24</dim>
				</port>
			</output>
		</layer>
		<layer id="162" name="Constant_1833" type="Const" version="opset1">
			<data element_type="i32" shape="4" offset="26296" size="16"/>
			<rt_info>
				<attribute name="fused_names" version="0" value="Constant_1833"/>
			</rt_info>
			<output>
				<port id="0" precision="I32">
					<dim>4</dim>
				</port>
			</output>
		</layer>
		<layer id="163" name="reshape2_7.tmp_0" type="Reshape" version="opset1">
			<data special_zero="true"/>
			<rt_info>
				<attribute name="fused_names" version="0" value="reshape2_7.tmp_0"/>
			</rt_info>
			<input>
				<port id="0" precision="FP32">
					<dim>1</dim>
					<dim>40</dim>
					<dim>2</dim>
					<dim>32</dim>
					<dim>24</dim>
				</port>
				<port id="1" precision="I32">
					<dim>4</dim>
				</port>
			</input>
			<output>
				<port id="2" precision="FP32" names="reshape2_7.tmp_0">
					<dim>1</dim>
					<dim>80</dim>
					<dim>32</dim>
					<dim>24</dim>
				</port>
			</output>
		</layer>
		<layer id="164" name="Constant_1840" type="Const" version="opset1">
			<data element_type="i32" shape="" offset="1792" size="4"/>
			<rt_info>
				<attribute name="fused_names" version="0" value="Constant_1840"/>
			</rt_info>
			<output>
				<port id="0" precision="I32"/>
			</output>
		</layer>
		<layer id="165" name="split_4.tmp_0" type="Split" version="opset1">
			<data num_splits="2"/>
			<rt_info>
				<attribute name="fused_names" version="0" value="split_4.tmp_0"/>
			</rt_info>
			<input>
				<port id="0" precision="FP32">
					<dim>1</dim>
					<dim>80</dim>
					<dim>32</dim>
					<dim>24</dim>
				</port>
				<port id="1" precision="I32"/>
			</input>
			<output>
				<port id="2" precision="FP32" names="split_4.tmp_0">
					<dim>1</dim>
					<dim>40</dim>
					<dim>32</dim>
					<dim>24</dim>
				</port>
				<port id="3" precision="FP32" names="split_4.tmp_1">
					<dim>1</dim>
					<dim>40</dim>
					<dim>32</dim>
					<dim>24</dim>
				</port>
			</output>
		</layer>
		<layer id="166" name="Multiply_51013_compressed" type="Const" version="opset1">
			<data element_type="f16" shape="40, 40, 1, 1" offset="26312" size="3200"/>
			<output>
				<port id="0" precision="FP16">
					<dim>40</dim>
					<dim>40</dim>
					<dim>1</dim>
					<dim>1</dim>
				</port>
			</output>
		</layer>
		<layer id="167" name="Multiply_51013" type="Convert" version="opset1">
			<data destination_type="f32"/>
			<rt_info>
				<attribute name="decompression" version="0"/>
			</rt_info>
			<input>
				<port id="0" precision="FP16">
					<dim>40</dim>
					<dim>40</dim>
					<dim>1</dim>
					<dim>1</dim>
				</port>
			</input>
			<output>
				<port id="1" precision="FP32">
					<dim>40</dim>
					<dim>40</dim>
					<dim>1</dim>
					<dim>1</dim>
				</port>
			</output>
		</layer>
		<layer id="168" name="Multiply_49099" type="Convolution" version="opset1">
			<data strides="1, 1" dilations="1, 1" pads_begin="0, 0" pads_end="0, 0" auto_pad="explicit"/>
			<rt_info>
				<attribute name="fused_names" version="0" value="batch_norm2d_19.b_0, batch_norm2d_19.w_0, batch_norm2d_19.w_1, batch_norm2d_19.w_2, conv2d_281.tmp_0"/>
			</rt_info>
			<input>
				<port id="0" precision="FP32">
					<dim>1</dim>
					<dim>40</dim>
					<dim>32</dim>
					<dim>24</dim>
				</port>
				<port id="1" precision="FP32">
					<dim>40</dim>
					<dim>40</dim>
					<dim>1</dim>
					<dim>1</dim>
				</port>
			</input>
			<output>
				<port id="2" precision="FP32">
					<dim>1</dim>
					<dim>40</dim>
					<dim>32</dim>
					<dim>24</dim>
				</port>
			</output>
		</layer>
		<layer id="169" name="Constant_49104_compressed" type="Const" version="opset1">
			<data element_type="f16" shape="1, 40, 1, 1" offset="29512" size="80"/>
			<output>
				<port id="0" precision="FP16">
					<dim>1</dim>
					<dim>40</dim>
					<dim>1</dim>
					<dim>1</dim>
				</port>
			</output>
		</layer>
		<layer id="170" name="Constant_49104" type="Convert" version="opset1">
			<data destination_type="f32"/>
			<rt_info>
				<attribute name="decompression" version="0"/>
			</rt_info>
			<input>
				<port id="0" precision="FP16">
					<dim>1</dim>
					<dim>40</dim>
					<dim>1</dim>
					<dim>1</dim>
				</port>
			</input>
			<output>
				<port id="1" precision="FP32">
					<dim>1</dim>
					<dim>40</dim>
					<dim>1</dim>
					<dim>1</dim>
				</port>
			</output>
		</layer>
		<layer id="171" name="batch_norm2d_19.w_1" type="Add" version="opset1">
			<data auto_broadcast="numpy"/>
			<rt_info>
				<attribute name="fused_names" version="0" value="batch_norm2d_19.b_0, batch_norm2d_19.w_0, batch_norm2d_19.w_1, batch_norm2d_19.w_2"/>
			</rt_info>
			<input>
				<port id="0" precision="FP32">
					<dim>1</dim>
					<dim>40</dim>
					<dim>32</dim>
					<dim>24</dim>
				</port>
				<port id="1" precision="FP32">
					<dim>1</dim>
					<dim>40</dim>
					<dim>1</dim>
					<dim>1</dim>
				</port>
			</input>
			<output>
				<port id="2" precision="FP32" names="batch_norm_19.tmp_2">
					<dim>1</dim>
					<dim>40</dim>
					<dim>32</dim>
					<dim>24</dim>
				</port>
			</output>
		</layer>
		<layer id="172" name="relu_12.tmp_0" type="ReLU" version="opset1">
			<rt_info>
				<attribute name="fused_names" version="0" value="relu_12.tmp_0"/>
			</rt_info>
			<input>
				<port id="0" precision="FP32">
					<dim>1</dim>
					<dim>40</dim>
					<dim>32</dim>
					<dim>24</dim>
				</port>
			</input>
			<output>
				<port id="1" precision="FP32" names="relu_12.tmp_0">
					<dim>1</dim>
					<dim>40</dim>
					<dim>32</dim>
					<dim>24</dim>
				</port>
			</output>
		</layer>
		<layer id="173" name="Multiply_51022_compressed" type="Const" version="opset1">
			<data element_type="f16" shape="40, 1, 1, 3, 3" offset="29592" size="720"/>
			<output>
				<port id="0" precision="FP16">
					<dim>40</dim>
					<dim>1</dim>
					<dim>1</dim>
					<dim>3</dim>
					<dim>3</dim>
				</port>
			</output>
		</layer>
		<layer id="174" name="Multiply_51022" type="Convert" version="opset1">
			<data destination_type="f32"/>
			<rt_info>
				<attribute name="decompression" version="0"/>
			</rt_info>
			<input>
				<port id="0" precision="FP16">
					<dim>40</dim>
					<dim>1</dim>
					<dim>1</dim>
					<dim>3</dim>
					<dim>3</dim>
				</port>
			</input>
			<output>
				<port id="1" precision="FP32">
					<dim>40</dim>
					<dim>1</dim>
					<dim>1</dim>
					<dim>3</dim>
					<dim>3</dim>
				</port>
			</output>
		</layer>
		<layer id="175" name="Multiply_49106" type="GroupConvolution" version="opset1">
			<data strides="1, 1" pads_begin="1, 1" pads_end="1, 1" dilations="1, 1" auto_pad="explicit"/>
			<rt_info>
				<attribute name="fused_names" version="0" value="batch_norm2d_20.b_0, batch_norm2d_20.w_0, batch_norm2d_20.w_1, batch_norm2d_20.w_2"/>
			</rt_info>
			<input>
				<port id="0" precision="FP32">
					<dim>1</dim>
					<dim>40</dim>
					<dim>32</dim>
					<dim>24</dim>
				</port>
				<port id="1" precision="FP32">
					<dim>40</dim>
					<dim>1</dim>
					<dim>1</dim>
					<dim>3</dim>
					<dim>3</dim>
				</port>
			</input>
			<output>
				<port id="2" precision="FP32" names="depthwise_conv2d_7.tmp_0">
					<dim>1</dim>
					<dim>40</dim>
					<dim>32</dim>
					<dim>24</dim>
				</port>
			</output>
		</layer>
		<layer id="176" name="Constant_49111_compressed" type="Const" version="opset1">
			<data element_type="f16" shape="1, 40, 1, 1" offset="30312" size="80"/>
			<output>
				<port id="0" precision="FP16">
					<dim>1</dim>
					<dim>40</dim>
					<dim>1</dim>
					<dim>1</dim>
				</port>
			</output>
		</layer>
		<layer id="177" name="Constant_49111" type="Convert" version="opset1">
			<data destination_type="f32"/>
			<rt_info>
				<attribute name="decompression" version="0"/>
			</rt_info>
			<input>
				<port id="0" precision="FP16">
					<dim>1</dim>
					<dim>40</dim>
					<dim>1</dim>
					<dim>1</dim>
				</port>
			</input>
			<output>
				<port id="1" precision="FP32">
					<dim>1</dim>
					<dim>40</dim>
					<dim>1</dim>
					<dim>1</dim>
				</port>
			</output>
		</layer>
		<layer id="178" name="batch_norm2d_20.w_1" type="Add" version="opset1">
			<data auto_broadcast="numpy"/>
			<rt_info>
				<attribute name="fused_names" version="0" value="batch_norm2d_20.b_0, batch_norm2d_20.w_0, batch_norm2d_20.w_1, batch_norm2d_20.w_2"/>
			</rt_info>
			<input>
				<port id="0" precision="FP32">
					<dim>1</dim>
					<dim>40</dim>
					<dim>32</dim>
					<dim>24</dim>
				</port>
				<port id="1" precision="FP32">
					<dim>1</dim>
					<dim>40</dim>
					<dim>1</dim>
					<dim>1</dim>
				</port>
			</input>
			<output>
				<port id="2" precision="FP32" names="batch_norm_20.tmp_2">
					<dim>1</dim>
					<dim>40</dim>
					<dim>32</dim>
					<dim>24</dim>
				</port>
			</output>
		</layer>
		<layer id="179" name="Multiply_51030_compressed" type="Const" version="opset1">
			<data element_type="f16" shape="40, 40, 1, 1" offset="30392" size="3200"/>
			<output>
				<port id="0" precision="FP16">
					<dim>40</dim>
					<dim>40</dim>
					<dim>1</dim>
					<dim>1</dim>
				</port>
			</output>
		</layer>
		<layer id="180" name="Multiply_51030" type="Convert" version="opset1">
			<data destination_type="f32"/>
			<rt_info>
				<attribute name="decompression" version="0"/>
			</rt_info>
			<input>
				<port id="0" precision="FP16">
					<dim>40</dim>
					<dim>40</dim>
					<dim>1</dim>
					<dim>1</dim>
				</port>
			</input>
			<output>
				<port id="1" precision="FP32">
					<dim>40</dim>
					<dim>40</dim>
					<dim>1</dim>
					<dim>1</dim>
				</port>
			</output>
		</layer>
		<layer id="181" name="Multiply_49113" type="Convolution" version="opset1">
			<data strides="1, 1" dilations="1, 1" pads_begin="0, 0" pads_end="0, 0" auto_pad="explicit"/>
			<rt_info>
				<attribute name="fused_names" version="0" value="batch_norm2d_21.b_0, batch_norm2d_21.w_0, batch_norm2d_21.w_1, batch_norm2d_21.w_2, conv2d_282.tmp_0"/>
			</rt_info>
			<input>
				<port id="0" precision="FP32">
					<dim>1</dim>
					<dim>40</dim>
					<dim>32</dim>
					<dim>24</dim>
				</port>
				<port id="1" precision="FP32">
					<dim>40</dim>
					<dim>40</dim>
					<dim>1</dim>
					<dim>1</dim>
				</port>
			</input>
			<output>
				<port id="2" precision="FP32">
					<dim>1</dim>
					<dim>40</dim>
					<dim>32</dim>
					<dim>24</dim>
				</port>
			</output>
		</layer>
		<layer id="182" name="Constant_49118_compressed" type="Const" version="opset1">
			<data element_type="f16" shape="1, 40, 1, 1" offset="33592" size="80"/>
			<output>
				<port id="0" precision="FP16">
					<dim>1</dim>
					<dim>40</dim>
					<dim>1</dim>
					<dim>1</dim>
				</port>
			</output>
		</layer>
		<layer id="183" name="Constant_49118" type="Convert" version="opset1">
			<data destination_type="f32"/>
			<rt_info>
				<attribute name="decompression" version="0"/>
			</rt_info>
			<input>
				<port id="0" precision="FP16">
					<dim>1</dim>
					<dim>40</dim>
					<dim>1</dim>
					<dim>1</dim>
				</port>
			</input>
			<output>
				<port id="1" precision="FP32">
					<dim>1</dim>
					<dim>40</dim>
					<dim>1</dim>
					<dim>1</dim>
				</port>
			</output>
		</layer>
		<layer id="184" name="batch_norm2d_21.w_1" type="Add" version="opset1">
			<data auto_broadcast="numpy"/>
			<rt_info>
				<attribute name="fused_names" version="0" value="batch_norm2d_21.b_0, batch_norm2d_21.w_0, batch_norm2d_21.w_1, batch_norm2d_21.w_2"/>
			</rt_info>
			<input>
				<port id="0" precision="FP32">
					<dim>1</dim>
					<dim>40</dim>
					<dim>32</dim>
					<dim>24</dim>
				</port>
				<port id="1" precision="FP32">
					<dim>1</dim>
					<dim>40</dim>
					<dim>1</dim>
					<dim>1</dim>
				</port>
			</input>
			<output>
				<port id="2" precision="FP32" names="batch_norm_21.tmp_2">
					<dim>1</dim>
					<dim>40</dim>
					<dim>32</dim>
					<dim>24</dim>
				</port>
			</output>
		</layer>
		<layer id="185" name="relu_13.tmp_0" type="ReLU" version="opset1">
			<rt_info>
				<attribute name="fused_names" version="0" value="relu_13.tmp_0"/>
			</rt_info>
			<input>
				<port id="0" precision="FP32">
					<dim>1</dim>
					<dim>40</dim>
					<dim>32</dim>
					<dim>24</dim>
				</port>
			</input>
			<output>
				<port id="1" precision="FP32" names="relu_13.tmp_0">
					<dim>1</dim>
					<dim>40</dim>
					<dim>32</dim>
					<dim>24</dim>
				</port>
			</output>
		</layer>
		<layer id="186" name="concat_4.tmp_0" type="Concat" version="opset1">
			<data axis="1"/>
			<rt_info>
				<attribute name="fused_names" version="0" value="concat_4.tmp_0"/>
			</rt_info>
			<input>
				<port id="0" precision="FP32">
					<dim>1</dim>
					<dim>40</dim>
					<dim>32</dim>
					<dim>24</dim>
				</port>
				<port id="1" precision="FP32">
					<dim>1</dim>
					<dim>40</dim>
					<dim>32</dim>
					<dim>24</dim>
				</port>
			</input>
			<output>
				<port id="2" precision="FP32" names="concat_4.tmp_0">
					<dim>1</dim>
					<dim>80</dim>
					<dim>32</dim>
					<dim>24</dim>
				</port>
			</output>
		</layer>
		<layer id="187" name="Constant_1904" type="Const" version="opset1">
			<data element_type="i32" shape="5" offset="26276" size="20"/>
			<rt_info>
				<attribute name="fused_names" version="0" value="Constant_1904"/>
			</rt_info>
			<output>
				<port id="0" precision="I32">
					<dim>5</dim>
				</port>
			</output>
		</layer>
		<layer id="188" name="reshape2_8.tmp_0" type="Reshape" version="opset1">
			<data special_zero="true"/>
			<rt_info>
				<attribute name="fused_names" version="0" value="reshape2_8.tmp_0"/>
			</rt_info>
			<input>
				<port id="0" precision="FP32">
					<dim>1</dim>
					<dim>80</dim>
					<dim>32</dim>
					<dim>24</dim>
				</port>
				<port id="1" precision="I32">
					<dim>5</dim>
				</port>
			</input>
			<output>
				<port id="2" precision="FP32" names="reshape2_8.tmp_0">
					<dim>1</dim>
					<dim>2</dim>
					<dim>40</dim>
					<dim>32</dim>
					<dim>24</dim>
				</port>
			</output>
		</layer>
		<layer id="189" name="Constant_1911" type="Const" version="opset1">
			<data element_type="i64" shape="5" offset="5464" size="40"/>
			<rt_info>
				<attribute name="fused_names" version="0" value="Constant_1911"/>
			</rt_info>
			<output>
				<port id="0" precision="I64">
					<dim>5</dim>
				</port>
			</output>
		</layer>
		<layer id="190" name="transpose_4.tmp_0" type="Transpose" version="opset1">
			<rt_info>
				<attribute name="fused_names" version="0" value="transpose_4.tmp_0"/>
			</rt_info>
			<input>
				<port id="0" precision="FP32">
					<dim>1</dim>
					<dim>2</dim>
					<dim>40</dim>
					<dim>32</dim>
					<dim>24</dim>
				</port>
				<port id="1" precision="I64">
					<dim>5</dim>
				</port>
			</input>
			<output>
				<port id="2" precision="FP32" names="transpose_4.tmp_0">
					<dim>1</dim>
					<dim>40</dim>
					<dim>2</dim>
					<dim>32</dim>
					<dim>24</dim>
				</port>
			</output>
		</layer>
		<layer id="191" name="Constant_1913" type="Const" version="opset1">
			<data element_type="i32" shape="4" offset="26296" size="16"/>
			<rt_info>
				<attribute name="fused_names" version="0" value="Constant_1913"/>
			</rt_info>
			<output>
				<port id="0" precision="I32">
					<dim>4</dim>
				</port>
			</output>
		</layer>
		<layer id="192" name="reshape2_9.tmp_0" type="Reshape" version="opset1">
			<data special_zero="true"/>
			<rt_info>
				<attribute name="fused_names" version="0" value="reshape2_9.tmp_0"/>
			</rt_info>
			<input>
				<port id="0" precision="FP32">
					<dim>1</dim>
					<dim>40</dim>
					<dim>2</dim>
					<dim>32</dim>
					<dim>24</dim>
				</port>
				<port id="1" precision="I32">
					<dim>4</dim>
				</port>
			</input>
			<output>
				<port id="2" precision="FP32" names="reshape2_9.tmp_0">
					<dim>1</dim>
					<dim>80</dim>
					<dim>32</dim>
					<dim>24</dim>
				</port>
			</output>
		</layer>
		<layer id="193" name="Multiply_51039_compressed" type="Const" version="opset1">
			<data element_type="f16" shape="40, 80, 1, 1" offset="33672" size="6400"/>
			<output>
				<port id="0" precision="FP16">
					<dim>40</dim>
					<dim>80</dim>
					<dim>1</dim>
					<dim>1</dim>
				</port>
			</output>
		</layer>
		<layer id="194" name="Multiply_51039" type="Convert" version="opset1">
			<data destination_type="f32"/>
			<rt_info>
				<attribute name="decompression" version="0"/>
			</rt_info>
			<input>
				<port id="0" precision="FP16">
					<dim>40</dim>
					<dim>80</dim>
					<dim>1</dim>
					<dim>1</dim>
				</port>
			</input>
			<output>
				<port id="1" precision="FP32">
					<dim>40</dim>
					<dim>80</dim>
					<dim>1</dim>
					<dim>1</dim>
				</port>
			</output>
		</layer>
		<layer id="195" name="Multiply_49120" type="Convolution" version="opset1">
			<data strides="1, 1" dilations="1, 1" pads_begin="0, 0" pads_end="0, 0" auto_pad="explicit"/>
			<rt_info>
				<attribute name="fused_names" version="0" value="batch_norm2d_22.b_0, batch_norm2d_22.w_0, batch_norm2d_22.w_1, batch_norm2d_22.w_2, conv2d_283.tmp_0"/>
			</rt_info>
			<input>
				<port id="0" precision="FP32">
					<dim>1</dim>
					<dim>80</dim>
					<dim>32</dim>
					<dim>24</dim>
				</port>
				<port id="1" precision="FP32">
					<dim>40</dim>
					<dim>80</dim>
					<dim>1</dim>
					<dim>1</dim>
				</port>
			</input>
			<output>
				<port id="2" precision="FP32">
					<dim>1</dim>
					<dim>40</dim>
					<dim>32</dim>
					<dim>24</dim>
				</port>
			</output>
		</layer>
		<layer id="196" name="Constant_49125_compressed" type="Const" version="opset1">
			<data element_type="f16" shape="1, 40, 1, 1" offset="40072" size="80"/>
			<output>
				<port id="0" precision="FP16">
					<dim>1</dim>
					<dim>40</dim>
					<dim>1</dim>
					<dim>1</dim>
				</port>
			</output>
		</layer>
		<layer id="197" name="Constant_49125" type="Convert" version="opset1">
			<data destination_type="f32"/>
			<rt_info>
				<attribute name="decompression" version="0"/>
			</rt_info>
			<input>
				<port id="0" precision="FP16">
					<dim>1</dim>
					<dim>40</dim>
					<dim>1</dim>
					<dim>1</dim>
				</port>
			</input>
			<output>
				<port id="1" precision="FP32">
					<dim>1</dim>
					<dim>40</dim>
					<dim>1</dim>
					<dim>1</dim>
				</port>
			</output>
		</layer>
		<layer id="198" name="batch_norm2d_22.w_1" type="Add" version="opset1">
			<data auto_broadcast="numpy"/>
			<rt_info>
				<attribute name="fused_names" version="0" value="batch_norm2d_22.b_0, batch_norm2d_22.w_0, batch_norm2d_22.w_1, batch_norm2d_22.w_2"/>
			</rt_info>
			<input>
				<port id="0" precision="FP32">
					<dim>1</dim>
					<dim>40</dim>
					<dim>32</dim>
					<dim>24</dim>
				</port>
				<port id="1" precision="FP32">
					<dim>1</dim>
					<dim>40</dim>
					<dim>1</dim>
					<dim>1</dim>
				</port>
			</input>
			<output>
				<port id="2" precision="FP32" names="batch_norm_22.tmp_2">
					<dim>1</dim>
					<dim>40</dim>
					<dim>32</dim>
					<dim>24</dim>
				</port>
			</output>
		</layer>
		<layer id="199" name="ShapeOf_1924" type="ShapeOf" version="opset3">
			<data output_type="i64"/>
			<rt_info>
				<attribute name="fused_names" version="0" value="ShapeOf_1924"/>
			</rt_info>
			<input>
				<port id="0" precision="FP32">
					<dim>1</dim>
					<dim>40</dim>
					<dim>32</dim>
					<dim>24</dim>
				</port>
			</input>
			<output>
				<port id="1" precision="I64">
					<dim>4</dim>
				</port>
			</output>
		</layer>
		<layer id="200" name="Convert_1925" type="Convert" version="opset1">
			<data destination_type="f32"/>
			<rt_info>
				<attribute name="fused_names" version="0" value="Convert_1925"/>
			</rt_info>
			<input>
				<port id="0" precision="I64">
					<dim>4</dim>
				</port>
			</input>
			<output>
				<port id="1" precision="FP32">
					<dim>4</dim>
				</port>
			</output>
		</layer>
		<layer id="201" name="Constant_1923" type="Const" version="opset1">
			<data element_type="f32" shape="4" offset="40152" size="16"/>
			<rt_info>
				<attribute name="fused_names" version="0" value="Constant_1923"/>
			</rt_info>
			<output>
				<port id="0" precision="FP32">
					<dim>4</dim>
				</port>
			</output>
		</layer>
		<layer id="202" name="Multiply_1926" type="Multiply" version="opset1">
			<data auto_broadcast="numpy"/>
			<rt_info>
				<attribute name="fused_names" version="0" value="Multiply_1926"/>
			</rt_info>
			<input>
				<port id="0" precision="FP32">
					<dim>4</dim>
				</port>
				<port id="1" precision="FP32">
					<dim>4</dim>
				</port>
			</input>
			<output>
				<port id="2" precision="FP32">
					<dim>4</dim>
				</port>
			</output>
		</layer>
		<layer id="203" name="Convert_1927" type="Convert" version="opset1">
			<data destination_type="i64"/>
			<rt_info>
				<attribute name="fused_names" version="0" value="Convert_1927"/>
			</rt_info>
			<input>
				<port id="0" precision="FP32">
					<dim>4</dim>
				</port>
			</input>
			<output>
				<port id="1" precision="I64">
					<dim>4</dim>
				</port>
			</output>
		</layer>
		<layer id="204" name="nearest_interp_v2_0.tmp_0" type="Interpolate" version="opset4">
			<data mode="nearest" shape_calculation_mode="scales" coordinate_transformation_mode="asymmetric" nearest_mode="simple" antialias="false" pads_begin="0, 0, 0, 0" pads_end="0, 0, 0, 0" cube_coeff="-0.75"/>
			<rt_info>
				<attribute name="fused_names" version="0" value="nearest_interp_v2_0.tmp_0"/>
			</rt_info>
			<input>
				<port id="0" precision="FP32">
					<dim>1</dim>
					<dim>40</dim>
					<dim>32</dim>
					<dim>24</dim>
				</port>
				<port id="1" precision="I64">
					<dim>4</dim>
				</port>
				<port id="2" precision="FP32">
					<dim>4</dim>
				</port>
			</input>
			<output>
				<port id="3" precision="FP32" names="nearest_interp_v2_0.tmp_0">
					<dim>1</dim>
					<dim>40</dim>
					<dim>64</dim>
					<dim>48</dim>
				</port>
			</output>
		</layer>
		<layer id="205" name="tmp_1" type="Add" version="opset1">
			<data auto_broadcast="numpy"/>
			<rt_info>
				<attribute name="fused_names" version="0" value="tmp_1"/>
			</rt_info>
			<input>
				<port id="0" precision="FP32">
					<dim>1</dim>
					<dim>40</dim>
					<dim>64</dim>
					<dim>48</dim>
				</port>
				<port id="1" precision="FP32">
					<dim>1</dim>
					<dim>40</dim>
					<dim>64</dim>
					<dim>48</dim>
				</port>
			</input>
			<output>
				<port id="2" precision="FP32" names="tmp_1">
					<dim>1</dim>
					<dim>40</dim>
					<dim>64</dim>
					<dim>48</dim>
				</port>
			</output>
		</layer>
		<layer id="206" name="relu_14.tmp_0" type="ReLU" version="opset1">
			<rt_info>
				<attribute name="fused_names" version="0" value="relu_14.tmp_0"/>
			</rt_info>
			<input>
				<port id="0" precision="FP32">
					<dim>1</dim>
					<dim>40</dim>
					<dim>64</dim>
					<dim>48</dim>
				</port>
			</input>
			<output>
				<port id="1" precision="FP32" names="relu_14.tmp_0">
					<dim>1</dim>
					<dim>40</dim>
					<dim>64</dim>
					<dim>48</dim>
				</port>
			</output>
		</layer>
		<layer id="207" name="Constant_1991" type="Const" version="opset1">
			<data element_type="i32" shape="" offset="1792" size="4"/>
			<rt_info>
				<attribute name="fused_names" version="0" value="Constant_1991"/>
			</rt_info>
			<output>
				<port id="0" precision="I32"/>
			</output>
		</layer>
		<layer id="208" name="split_5.tmp_0" type="Split" version="opset1">
			<data num_splits="2"/>
			<rt_info>
				<attribute name="fused_names" version="0" value="split_5.tmp_0"/>
			</rt_info>
			<input>
				<port id="0" precision="FP32">
					<dim>1</dim>
					<dim>40</dim>
					<dim>64</dim>
					<dim>48</dim>
				</port>
				<port id="1" precision="I32"/>
			</input>
			<output>
				<port id="2" precision="FP32" names="split_5.tmp_0">
					<dim>1</dim>
					<dim>20</dim>
					<dim>64</dim>
					<dim>48</dim>
				</port>
				<port id="3" precision="FP32" names="split_5.tmp_1">
					<dim>1</dim>
					<dim>20</dim>
					<dim>64</dim>
					<dim>48</dim>
				</port>
			</output>
		</layer>
		<layer id="209" name="Multiply_51048_compressed" type="Const" version="opset1">
			<data element_type="f16" shape="20, 20, 1, 1" offset="40168" size="800"/>
			<output>
				<port id="0" precision="FP16">
					<dim>20</dim>
					<dim>20</dim>
					<dim>1</dim>
					<dim>1</dim>
				</port>
			</output>
		</layer>
		<layer id="210" name="Multiply_51048" type="Convert" version="opset1">
			<data destination_type="f32"/>
			<rt_info>
				<attribute name="decompression" version="0"/>
			</rt_info>
			<input>
				<port id="0" precision="FP16">
					<dim>20</dim>
					<dim>20</dim>
					<dim>1</dim>
					<dim>1</dim>
				</port>
			</input>
			<output>
				<port id="1" precision="FP32">
					<dim>20</dim>
					<dim>20</dim>
					<dim>1</dim>
					<dim>1</dim>
				</port>
			</output>
		</layer>
		<layer id="211" name="Multiply_49127" type="Convolution" version="opset1">
			<data strides="1, 1" dilations="1, 1" pads_begin="0, 0" pads_end="0, 0" auto_pad="explicit"/>
			<rt_info>
				<attribute name="fused_names" version="0" value="batch_norm2d_25.b_0, batch_norm2d_25.w_0, batch_norm2d_25.w_1, batch_norm2d_25.w_2, conv2d_285.tmp_0"/>
			</rt_info>
			<input>
				<port id="0" precision="FP32">
					<dim>1</dim>
					<dim>20</dim>
					<dim>64</dim>
					<dim>48</dim>
				</port>
				<port id="1" precision="FP32">
					<dim>20</dim>
					<dim>20</dim>
					<dim>1</dim>
					<dim>1</dim>
				</port>
			</input>
			<output>
				<port id="2" precision="FP32">
					<dim>1</dim>
					<dim>20</dim>
					<dim>64</dim>
					<dim>48</dim>
				</port>
			</output>
		</layer>
		<layer id="212" name="Constant_49132_compressed" type="Const" version="opset1">
			<data element_type="f16" shape="1, 20, 1, 1" offset="40968" size="40"/>
			<output>
				<port id="0" precision="FP16">
					<dim>1</dim>
					<dim>20</dim>
					<dim>1</dim>
					<dim>1</dim>
				</port>
			</output>
		</layer>
		<layer id="213" name="Constant_49132" type="Convert" version="opset1">
			<data destination_type="f32"/>
			<rt_info>
				<attribute name="decompression" version="0"/>
			</rt_info>
			<input>
				<port id="0" precision="FP16">
					<dim>1</dim>
					<dim>20</dim>
					<dim>1</dim>
					<dim>1</dim>
				</port>
			</input>
			<output>
				<port id="1" precision="FP32">
					<dim>1</dim>
					<dim>20</dim>
					<dim>1</dim>
					<dim>1</dim>
				</port>
			</output>
		</layer>
		<layer id="214" name="batch_norm2d_25.w_1" type="Add" version="opset1">
			<data auto_broadcast="numpy"/>
			<rt_info>
				<attribute name="fused_names" version="0" value="batch_norm2d_25.b_0, batch_norm2d_25.w_0, batch_norm2d_25.w_1, batch_norm2d_25.w_2"/>
			</rt_info>
			<input>
				<port id="0" precision="FP32">
					<dim>1</dim>
					<dim>20</dim>
					<dim>64</dim>
					<dim>48</dim>
				</port>
				<port id="1" precision="FP32">
					<dim>1</dim>
					<dim>20</dim>
					<dim>1</dim>
					<dim>1</dim>
				</port>
			</input>
			<output>
				<port id="2" precision="FP32" names="batch_norm_25.tmp_2">
					<dim>1</dim>
					<dim>20</dim>
					<dim>64</dim>
					<dim>48</dim>
				</port>
			</output>
		</layer>
		<layer id="215" name="relu_16.tmp_0" type="ReLU" version="opset1">
			<rt_info>
				<attribute name="fused_names" version="0" value="relu_16.tmp_0"/>
			</rt_info>
			<input>
				<port id="0" precision="FP32">
					<dim>1</dim>
					<dim>20</dim>
					<dim>64</dim>
					<dim>48</dim>
				</port>
			</input>
			<output>
				<port id="1" precision="FP32" names="relu_16.tmp_0">
					<dim>1</dim>
					<dim>20</dim>
					<dim>64</dim>
					<dim>48</dim>
				</port>
			</output>
		</layer>
		<layer id="216" name="Multiply_51057_compressed" type="Const" version="opset1">
			<data element_type="f16" shape="20, 1, 1, 3, 3" offset="41008" size="360"/>
			<output>
				<port id="0" precision="FP16">
					<dim>20</dim>
					<dim>1</dim>
					<dim>1</dim>
					<dim>3</dim>
					<dim>3</dim>
				</port>
			</output>
		</layer>
		<layer id="217" name="Multiply_51057" type="Convert" version="opset1">
			<data destination_type="f32"/>
			<rt_info>
				<attribute name="decompression" version="0"/>
			</rt_info>
			<input>
				<port id="0" precision="FP16">
					<dim>20</dim>
					<dim>1</dim>
					<dim>1</dim>
					<dim>3</dim>
					<dim>3</dim>
				</port>
			</input>
			<output>
				<port id="1" precision="FP32">
					<dim>20</dim>
					<dim>1</dim>
					<dim>1</dim>
					<dim>3</dim>
					<dim>3</dim>
				</port>
			</output>
		</layer>
		<layer id="218" name="Multiply_49134" type="GroupConvolution" version="opset1">
			<data strides="1, 1" pads_begin="1, 1" pads_end="1, 1" dilations="1, 1" auto_pad="explicit"/>
			<rt_info>
				<attribute name="fused_names" version="0" value="batch_norm2d_26.b_0, batch_norm2d_26.w_0, batch_norm2d_26.w_1, batch_norm2d_26.w_2"/>
			</rt_info>
			<input>
				<port id="0" precision="FP32">
					<dim>1</dim>
					<dim>20</dim>
					<dim>64</dim>
					<dim>48</dim>
				</port>
				<port id="1" precision="FP32">
					<dim>20</dim>
					<dim>1</dim>
					<dim>1</dim>
					<dim>3</dim>
					<dim>3</dim>
				</port>
			</input>
			<output>
				<port id="2" precision="FP32" names="depthwise_conv2d_9.tmp_0">
					<dim>1</dim>
					<dim>20</dim>
					<dim>64</dim>
					<dim>48</dim>
				</port>
			</output>
		</layer>
		<layer id="219" name="Constant_49139_compressed" type="Const" version="opset1">
			<data element_type="f16" shape="1, 20, 1, 1" offset="41368" size="40"/>
			<output>
				<port id="0" precision="FP16">
					<dim>1</dim>
					<dim>20</dim>
					<dim>1</dim>
					<dim>1</dim>
				</port>
			</output>
		</layer>
		<layer id="220" name="Constant_49139" type="Convert" version="opset1">
			<data destination_type="f32"/>
			<rt_info>
				<attribute name="decompression" version="0"/>
			</rt_info>
			<input>
				<port id="0" precision="FP16">
					<dim>1</dim>
					<dim>20</dim>
					<dim>1</dim>
					<dim>1</dim>
				</port>
			</input>
			<output>
				<port id="1" precision="FP32">
					<dim>1</dim>
					<dim>20</dim>
					<dim>1</dim>
					<dim>1</dim>
				</port>
			</output>
		</layer>
		<layer id="221" name="batch_norm2d_26.w_1" type="Add" version="opset1">
			<data auto_broadcast="numpy"/>
			<rt_info>
				<attribute name="fused_names" version="0" value="batch_norm2d_26.b_0, batch_norm2d_26.w_0, batch_norm2d_26.w_1, batch_norm2d_26.w_2"/>
			</rt_info>
			<input>
				<port id="0" precision="FP32">
					<dim>1</dim>
					<dim>20</dim>
					<dim>64</dim>
					<dim>48</dim>
				</port>
				<port id="1" precision="FP32">
					<dim>1</dim>
					<dim>20</dim>
					<dim>1</dim>
					<dim>1</dim>
				</port>
			</input>
			<output>
				<port id="2" precision="FP32" names="batch_norm_26.tmp_2">
					<dim>1</dim>
					<dim>20</dim>
					<dim>64</dim>
					<dim>48</dim>
				</port>
			</output>
		</layer>
		<layer id="222" name="Multiply_51065_compressed" type="Const" version="opset1">
			<data element_type="f16" shape="20, 20, 1, 1" offset="41408" size="800"/>
			<output>
				<port id="0" precision="FP16">
					<dim>20</dim>
					<dim>20</dim>
					<dim>1</dim>
					<dim>1</dim>
				</port>
			</output>
		</layer>
		<layer id="223" name="Multiply_51065" type="Convert" version="opset1">
			<data destination_type="f32"/>
			<rt_info>
				<attribute name="decompression" version="0"/>
			</rt_info>
			<input>
				<port id="0" precision="FP16">
					<dim>20</dim>
					<dim>20</dim>
					<dim>1</dim>
					<dim>1</dim>
				</port>
			</input>
			<output>
				<port id="1" precision="FP32">
					<dim>20</dim>
					<dim>20</dim>
					<dim>1</dim>
					<dim>1</dim>
				</port>
			</output>
		</layer>
		<layer id="224" name="Multiply_49141" type="Convolution" version="opset1">
			<data strides="1, 1" dilations="1, 1" pads_begin="0, 0" pads_end="0, 0" auto_pad="explicit"/>
			<rt_info>
				<attribute name="fused_names" version="0" value="batch_norm2d_27.b_0, batch_norm2d_27.w_0, batch_norm2d_27.w_1, batch_norm2d_27.w_2, conv2d_286.tmp_0"/>
			</rt_info>
			<input>
				<port id="0" precision="FP32">
					<dim>1</dim>
					<dim>20</dim>
					<dim>64</dim>
					<dim>48</dim>
				</port>
				<port id="1" precision="FP32">
					<dim>20</dim>
					<dim>20</dim>
					<dim>1</dim>
					<dim>1</dim>
				</port>
			</input>
			<output>
				<port id="2" precision="FP32">
					<dim>1</dim>
					<dim>20</dim>
					<dim>64</dim>
					<dim>48</dim>
				</port>
			</output>
		</layer>
		<layer id="225" name="Constant_49146_compressed" type="Const" version="opset1">
			<data element_type="f16" shape="1, 20, 1, 1" offset="42208" size="40"/>
			<output>
				<port id="0" precision="FP16">
					<dim>1</dim>
					<dim>20</dim>
					<dim>1</dim>
					<dim>1</dim>
				</port>
			</output>
		</layer>
		<layer id="226" name="Constant_49146" type="Convert" version="opset1">
			<data destination_type="f32"/>
			<rt_info>
				<attribute name="decompression" version="0"/>
			</rt_info>
			<input>
				<port id="0" precision="FP16">
					<dim>1</dim>
					<dim>20</dim>
					<dim>1</dim>
					<dim>1</dim>
				</port>
			</input>
			<output>
				<port id="1" precision="FP32">
					<dim>1</dim>
					<dim>20</dim>
					<dim>1</dim>
					<dim>1</dim>
				</port>
			</output>
		</layer>
		<layer id="227" name="batch_norm2d_27.w_1" type="Add" version="opset1">
			<data auto_broadcast="numpy"/>
			<rt_info>
				<attribute name="fused_names" version="0" value="batch_norm2d_27.b_0, batch_norm2d_27.w_0, batch_norm2d_27.w_1, batch_norm2d_27.w_2"/>
			</rt_info>
			<input>
				<port id="0" precision="FP32">
					<dim>1</dim>
					<dim>20</dim>
					<dim>64</dim>
					<dim>48</dim>
				</port>
				<port id="1" precision="FP32">
					<dim>1</dim>
					<dim>20</dim>
					<dim>1</dim>
					<dim>1</dim>
				</port>
			</input>
			<output>
				<port id="2" precision="FP32" names="batch_norm_27.tmp_2">
					<dim>1</dim>
					<dim>20</dim>
					<dim>64</dim>
					<dim>48</dim>
				</port>
			</output>
		</layer>
		<layer id="228" name="relu_17.tmp_0" type="ReLU" version="opset1">
			<rt_info>
				<attribute name="fused_names" version="0" value="relu_17.tmp_0"/>
			</rt_info>
			<input>
				<port id="0" precision="FP32">
					<dim>1</dim>
					<dim>20</dim>
					<dim>64</dim>
					<dim>48</dim>
				</port>
			</input>
			<output>
				<port id="1" precision="FP32" names="relu_17.tmp_0">
					<dim>1</dim>
					<dim>20</dim>
					<dim>64</dim>
					<dim>48</dim>
				</port>
			</output>
		</layer>
		<layer id="229" name="concat_5.tmp_0" type="Concat" version="opset1">
			<data axis="1"/>
			<rt_info>
				<attribute name="fused_names" version="0" value="concat_5.tmp_0"/>
			</rt_info>
			<input>
				<port id="0" precision="FP32">
					<dim>1</dim>
					<dim>20</dim>
					<dim>64</dim>
					<dim>48</dim>
				</port>
				<port id="1" precision="FP32">
					<dim>1</dim>
					<dim>20</dim>
					<dim>64</dim>
					<dim>48</dim>
				</port>
			</input>
			<output>
				<port id="2" precision="FP32" names="concat_5.tmp_0">
					<dim>1</dim>
					<dim>40</dim>
					<dim>64</dim>
					<dim>48</dim>
				</port>
			</output>
		</layer>
		<layer id="230" name="Constant_2055" type="Const" version="opset1">
			<data element_type="i32" shape="5" offset="10880" size="20"/>
			<rt_info>
				<attribute name="fused_names" version="0" value="Constant_2055"/>
			</rt_info>
			<output>
				<port id="0" precision="I32">
					<dim>5</dim>
				</port>
			</output>
		</layer>
		<layer id="231" name="reshape2_10.tmp_0" type="Reshape" version="opset1">
			<data special_zero="true"/>
			<rt_info>
				<attribute name="fused_names" version="0" value="reshape2_10.tmp_0"/>
			</rt_info>
			<input>
				<port id="0" precision="FP32">
					<dim>1</dim>
					<dim>40</dim>
					<dim>64</dim>
					<dim>48</dim>
				</port>
				<port id="1" precision="I32">
					<dim>5</dim>
				</port>
			</input>
			<output>
				<port id="2" precision="FP32" names="reshape2_10.tmp_0">
					<dim>1</dim>
					<dim>2</dim>
					<dim>20</dim>
					<dim>64</dim>
					<dim>48</dim>
				</port>
			</output>
		</layer>
		<layer id="232" name="Constant_2062" type="Const" version="opset1">
			<data element_type="i64" shape="5" offset="5464" size="40"/>
			<rt_info>
				<attribute name="fused_names" version="0" value="Constant_2062"/>
			</rt_info>
			<output>
				<port id="0" precision="I64">
					<dim>5</dim>
				</port>
			</output>
		</layer>
		<layer id="233" name="transpose_5.tmp_0" type="Transpose" version="opset1">
			<rt_info>
				<attribute name="fused_names" version="0" value="transpose_5.tmp_0"/>
			</rt_info>
			<input>
				<port id="0" precision="FP32">
					<dim>1</dim>
					<dim>2</dim>
					<dim>20</dim>
					<dim>64</dim>
					<dim>48</dim>
				</port>
				<port id="1" precision="I64">
					<dim>5</dim>
				</port>
			</input>
			<output>
				<port id="2" precision="FP32" names="transpose_5.tmp_0">
					<dim>1</dim>
					<dim>20</dim>
					<dim>2</dim>
					<dim>64</dim>
					<dim>48</dim>
				</port>
			</output>
		</layer>
		<layer id="234" name="Constant_2064" type="Const" version="opset1">
			<data element_type="i32" shape="4" offset="10900" size="16"/>
			<rt_info>
				<attribute name="fused_names" version="0" value="Constant_2064"/>
			</rt_info>
			<output>
				<port id="0" precision="I32">
					<dim>4</dim>
				</port>
			</output>
		</layer>
		<layer id="235" name="reshape2_11.tmp_0" type="Reshape" version="opset1">
			<data special_zero="true"/>
			<rt_info>
				<attribute name="fused_names" version="0" value="reshape2_11.tmp_0"/>
			</rt_info>
			<input>
				<port id="0" precision="FP32">
					<dim>1</dim>
					<dim>20</dim>
					<dim>2</dim>
					<dim>64</dim>
					<dim>48</dim>
				</port>
				<port id="1" precision="I32">
					<dim>4</dim>
				</port>
			</input>
			<output>
				<port id="2" precision="FP32" names="reshape2_11.tmp_0">
					<dim>1</dim>
					<dim>40</dim>
					<dim>64</dim>
					<dim>48</dim>
				</port>
			</output>
		</layer>
		<layer id="236" name="Constant_2071" type="Const" version="opset1">
			<data element_type="i32" shape="" offset="1792" size="4"/>
			<rt_info>
				<attribute name="fused_names" version="0" value="Constant_2071"/>
			</rt_info>
			<output>
				<port id="0" precision="I32"/>
			</output>
		</layer>
		<layer id="237" name="split_6.tmp_0" type="Split" version="opset1">
			<data num_splits="2"/>
			<rt_info>
				<attribute name="fused_names" version="0" value="split_6.tmp_0"/>
			</rt_info>
			<input>
				<port id="0" precision="FP32">
					<dim>1</dim>
					<dim>40</dim>
					<dim>64</dim>
					<dim>48</dim>
				</port>
				<port id="1" precision="I32"/>
			</input>
			<output>
				<port id="2" precision="FP32" names="split_6.tmp_0">
					<dim>1</dim>
					<dim>20</dim>
					<dim>64</dim>
					<dim>48</dim>
				</port>
				<port id="3" precision="FP32" names="split_6.tmp_1">
					<dim>1</dim>
					<dim>20</dim>
					<dim>64</dim>
					<dim>48</dim>
				</port>
			</output>
		</layer>
		<layer id="238" name="Multiply_51074_compressed" type="Const" version="opset1">
			<data element_type="f16" shape="20, 20, 1, 1" offset="42248" size="800"/>
			<output>
				<port id="0" precision="FP16">
					<dim>20</dim>
					<dim>20</dim>
					<dim>1</dim>
					<dim>1</dim>
				</port>
			</output>
		</layer>
		<layer id="239" name="Multiply_51074" type="Convert" version="opset1">
			<data destination_type="f32"/>
			<rt_info>
				<attribute name="decompression" version="0"/>
			</rt_info>
			<input>
				<port id="0" precision="FP16">
					<dim>20</dim>
					<dim>20</dim>
					<dim>1</dim>
					<dim>1</dim>
				</port>
			</input>
			<output>
				<port id="1" precision="FP32">
					<dim>20</dim>
					<dim>20</dim>
					<dim>1</dim>
					<dim>1</dim>
				</port>
			</output>
		</layer>
		<layer id="240" name="Multiply_49148" type="Convolution" version="opset1">
			<data strides="1, 1" dilations="1, 1" pads_begin="0, 0" pads_end="0, 0" auto_pad="explicit"/>
			<rt_info>
				<attribute name="fused_names" version="0" value="batch_norm2d_28.b_0, batch_norm2d_28.w_0, batch_norm2d_28.w_1, batch_norm2d_28.w_2, conv2d_287.tmp_0"/>
			</rt_info>
			<input>
				<port id="0" precision="FP32">
					<dim>1</dim>
					<dim>20</dim>
					<dim>64</dim>
					<dim>48</dim>
				</port>
				<port id="1" precision="FP32">
					<dim>20</dim>
					<dim>20</dim>
					<dim>1</dim>
					<dim>1</dim>
				</port>
			</input>
			<output>
				<port id="2" precision="FP32">
					<dim>1</dim>
					<dim>20</dim>
					<dim>64</dim>
					<dim>48</dim>
				</port>
			</output>
		</layer>
		<layer id="241" name="Constant_49153_compressed" type="Const" version="opset1">
			<data element_type="f16" shape="1, 20, 1, 1" offset="43048" size="40"/>
			<output>
				<port id="0" precision="FP16">
					<dim>1</dim>
					<dim>20</dim>
					<dim>1</dim>
					<dim>1</dim>
				</port>
			</output>
		</layer>
		<layer id="242" name="Constant_49153" type="Convert" version="opset1">
			<data destination_type="f32"/>
			<rt_info>
				<attribute name="decompression" version="0"/>
			</rt_info>
			<input>
				<port id="0" precision="FP16">
					<dim>1</dim>
					<dim>20</dim>
					<dim>1</dim>
					<dim>1</dim>
				</port>
			</input>
			<output>
				<port id="1" precision="FP32">
					<dim>1</dim>
					<dim>20</dim>
					<dim>1</dim>
					<dim>1</dim>
				</port>
			</output>
		</layer>
		<layer id="243" name="batch_norm2d_28.w_1" type="Add" version="opset1">
			<data auto_broadcast="numpy"/>
			<rt_info>
				<attribute name="fused_names" version="0" value="batch_norm2d_28.b_0, batch_norm2d_28.w_0, batch_norm2d_28.w_1, batch_norm2d_28.w_2"/>
			</rt_info>
			<input>
				<port id="0" precision="FP32">
					<dim>1</dim>
					<dim>20</dim>
					<dim>64</dim>
					<dim>48</dim>
				</port>
				<port id="1" precision="FP32">
					<dim>1</dim>
					<dim>20</dim>
					<dim>1</dim>
					<dim>1</dim>
				</port>
			</input>
			<output>
				<port id="2" precision="FP32" names="batch_norm_28.tmp_2">
					<dim>1</dim>
					<dim>20</dim>
					<dim>64</dim>
					<dim>48</dim>
				</port>
			</output>
		</layer>
		<layer id="244" name="relu_18.tmp_0" type="ReLU" version="opset1">
			<rt_info>
				<attribute name="fused_names" version="0" value="relu_18.tmp_0"/>
			</rt_info>
			<input>
				<port id="0" precision="FP32">
					<dim>1</dim>
					<dim>20</dim>
					<dim>64</dim>
					<dim>48</dim>
				</port>
			</input>
			<output>
				<port id="1" precision="FP32" names="relu_18.tmp_0">
					<dim>1</dim>
					<dim>20</dim>
					<dim>64</dim>
					<dim>48</dim>
				</port>
			</output>
		</layer>
		<layer id="245" name="Multiply_51083_compressed" type="Const" version="opset1">
			<data element_type="f16" shape="20, 1, 1, 3, 3" offset="43088" size="360"/>
			<output>
				<port id="0" precision="FP16">
					<dim>20</dim>
					<dim>1</dim>
					<dim>1</dim>
					<dim>3</dim>
					<dim>3</dim>
				</port>
			</output>
		</layer>
		<layer id="246" name="Multiply_51083" type="Convert" version="opset1">
			<data destination_type="f32"/>
			<rt_info>
				<attribute name="decompression" version="0"/>
			</rt_info>
			<input>
				<port id="0" precision="FP16">
					<dim>20</dim>
					<dim>1</dim>
					<dim>1</dim>
					<dim>3</dim>
					<dim>3</dim>
				</port>
			</input>
			<output>
				<port id="1" precision="FP32">
					<dim>20</dim>
					<dim>1</dim>
					<dim>1</dim>
					<dim>3</dim>
					<dim>3</dim>
				</port>
			</output>
		</layer>
		<layer id="247" name="Multiply_49155" type="GroupConvolution" version="opset1">
			<data strides="1, 1" pads_begin="1, 1" pads_end="1, 1" dilations="1, 1" auto_pad="explicit"/>
			<rt_info>
				<attribute name="fused_names" version="0" value="batch_norm2d_29.b_0, batch_norm2d_29.w_0, batch_norm2d_29.w_1, batch_norm2d_29.w_2"/>
			</rt_info>
			<input>
				<port id="0" precision="FP32">
					<dim>1</dim>
					<dim>20</dim>
					<dim>64</dim>
					<dim>48</dim>
				</port>
				<port id="1" precision="FP32">
					<dim>20</dim>
					<dim>1</dim>
					<dim>1</dim>
					<dim>3</dim>
					<dim>3</dim>
				</port>
			</input>
			<output>
				<port id="2" precision="FP32" names="depthwise_conv2d_10.tmp_0">
					<dim>1</dim>
					<dim>20</dim>
					<dim>64</dim>
					<dim>48</dim>
				</port>
			</output>
		</layer>
		<layer id="248" name="Constant_49160_compressed" type="Const" version="opset1">
			<data element_type="f16" shape="1, 20, 1, 1" offset="43448" size="40"/>
			<output>
				<port id="0" precision="FP16">
					<dim>1</dim>
					<dim>20</dim>
					<dim>1</dim>
					<dim>1</dim>
				</port>
			</output>
		</layer>
		<layer id="249" name="Constant_49160" type="Convert" version="opset1">
			<data destination_type="f32"/>
			<rt_info>
				<attribute name="decompression" version="0"/>
			</rt_info>
			<input>
				<port id="0" precision="FP16">
					<dim>1</dim>
					<dim>20</dim>
					<dim>1</dim>
					<dim>1</dim>
				</port>
			</input>
			<output>
				<port id="1" precision="FP32">
					<dim>1</dim>
					<dim>20</dim>
					<dim>1</dim>
					<dim>1</dim>
				</port>
			</output>
		</layer>
		<layer id="250" name="batch_norm2d_29.w_1" type="Add" version="opset1">
			<data auto_broadcast="numpy"/>
			<rt_info>
				<attribute name="fused_names" version="0" value="batch_norm2d_29.b_0, batch_norm2d_29.w_0, batch_norm2d_29.w_1, batch_norm2d_29.w_2"/>
			</rt_info>
			<input>
				<port id="0" precision="FP32">
					<dim>1</dim>
					<dim>20</dim>
					<dim>64</dim>
					<dim>48</dim>
				</port>
				<port id="1" precision="FP32">
					<dim>1</dim>
					<dim>20</dim>
					<dim>1</dim>
					<dim>1</dim>
				</port>
			</input>
			<output>
				<port id="2" precision="FP32" names="batch_norm_29.tmp_2">
					<dim>1</dim>
					<dim>20</dim>
					<dim>64</dim>
					<dim>48</dim>
				</port>
			</output>
		</layer>
		<layer id="251" name="Multiply_51091_compressed" type="Const" version="opset1">
			<data element_type="f16" shape="20, 20, 1, 1" offset="43488" size="800"/>
			<output>
				<port id="0" precision="FP16">
					<dim>20</dim>
					<dim>20</dim>
					<dim>1</dim>
					<dim>1</dim>
				</port>
			</output>
		</layer>
		<layer id="252" name="Multiply_51091" type="Convert" version="opset1">
			<data destination_type="f32"/>
			<rt_info>
				<attribute name="decompression" version="0"/>
			</rt_info>
			<input>
				<port id="0" precision="FP16">
					<dim>20</dim>
					<dim>20</dim>
					<dim>1</dim>
					<dim>1</dim>
				</port>
			</input>
			<output>
				<port id="1" precision="FP32">
					<dim>20</dim>
					<dim>20</dim>
					<dim>1</dim>
					<dim>1</dim>
				</port>
			</output>
		</layer>
		<layer id="253" name="Multiply_49162" type="Convolution" version="opset1">
			<data strides="1, 1" dilations="1, 1" pads_begin="0, 0" pads_end="0, 0" auto_pad="explicit"/>
			<rt_info>
				<attribute name="fused_names" version="0" value="batch_norm2d_30.b_0, batch_norm2d_30.w_0, batch_norm2d_30.w_1, batch_norm2d_30.w_2, conv2d_288.tmp_0"/>
			</rt_info>
			<input>
				<port id="0" precision="FP32">
					<dim>1</dim>
					<dim>20</dim>
					<dim>64</dim>
					<dim>48</dim>
				</port>
				<port id="1" precision="FP32">
					<dim>20</dim>
					<dim>20</dim>
					<dim>1</dim>
					<dim>1</dim>
				</port>
			</input>
			<output>
				<port id="2" precision="FP32">
					<dim>1</dim>
					<dim>20</dim>
					<dim>64</dim>
					<dim>48</dim>
				</port>
			</output>
		</layer>
		<layer id="254" name="Constant_49167_compressed" type="Const" version="opset1">
			<data element_type="f16" shape="1, 20, 1, 1" offset="44288" size="40"/>
			<output>
				<port id="0" precision="FP16">
					<dim>1</dim>
					<dim>20</dim>
					<dim>1</dim>
					<dim>1</dim>
				</port>
			</output>
		</layer>
		<layer id="255" name="Constant_49167" type="Convert" version="opset1">
			<data destination_type="f32"/>
			<rt_info>
				<attribute name="decompression" version="0"/>
			</rt_info>
			<input>
				<port id="0" precision="FP16">
					<dim>1</dim>
					<dim>20</dim>
					<dim>1</dim>
					<dim>1</dim>
				</port>
			</input>
			<output>
				<port id="1" precision="FP32">
					<dim>1</dim>
					<dim>20</dim>
					<dim>1</dim>
					<dim>1</dim>
				</port>
			</output>
		</layer>
		<layer id="256" name="batch_norm2d_30.w_1" type="Add" version="opset1">
			<data auto_broadcast="numpy"/>
			<rt_info>
				<attribute name="fused_names" version="0" value="batch_norm2d_30.b_0, batch_norm2d_30.w_0, batch_norm2d_30.w_1, batch_norm2d_30.w_2"/>
			</rt_info>
			<input>
				<port id="0" precision="FP32">
					<dim>1</dim>
					<dim>20</dim>
					<dim>64</dim>
					<dim>48</dim>
				</port>
				<port id="1" precision="FP32">
					<dim>1</dim>
					<dim>20</dim>
					<dim>1</dim>
					<dim>1</dim>
				</port>
			</input>
			<output>
				<port id="2" precision="FP32" names="batch_norm_30.tmp_2">
					<dim>1</dim>
					<dim>20</dim>
					<dim>64</dim>
					<dim>48</dim>
				</port>
			</output>
		</layer>
		<layer id="257" name="relu_19.tmp_0" type="ReLU" version="opset1">
			<rt_info>
				<attribute name="fused_names" version="0" value="relu_19.tmp_0"/>
			</rt_info>
			<input>
				<port id="0" precision="FP32">
					<dim>1</dim>
					<dim>20</dim>
					<dim>64</dim>
					<dim>48</dim>
				</port>
			</input>
			<output>
				<port id="1" precision="FP32" names="relu_19.tmp_0">
					<dim>1</dim>
					<dim>20</dim>
					<dim>64</dim>
					<dim>48</dim>
				</port>
			</output>
		</layer>
		<layer id="258" name="concat_6.tmp_0" type="Concat" version="opset1">
			<data axis="1"/>
			<rt_info>
				<attribute name="fused_names" version="0" value="concat_6.tmp_0"/>
			</rt_info>
			<input>
				<port id="0" precision="FP32">
					<dim>1</dim>
					<dim>20</dim>
					<dim>64</dim>
					<dim>48</dim>
				</port>
				<port id="1" precision="FP32">
					<dim>1</dim>
					<dim>20</dim>
					<dim>64</dim>
					<dim>48</dim>
				</port>
			</input>
			<output>
				<port id="2" precision="FP32" names="concat_6.tmp_0">
					<dim>1</dim>
					<dim>40</dim>
					<dim>64</dim>
					<dim>48</dim>
				</port>
			</output>
		</layer>
		<layer id="259" name="Constant_2135" type="Const" version="opset1">
			<data element_type="i32" shape="5" offset="10880" size="20"/>
			<rt_info>
				<attribute name="fused_names" version="0" value="Constant_2135"/>
			</rt_info>
			<output>
				<port id="0" precision="I32">
					<dim>5</dim>
				</port>
			</output>
		</layer>
		<layer id="260" name="reshape2_12.tmp_0" type="Reshape" version="opset1">
			<data special_zero="true"/>
			<rt_info>
				<attribute name="fused_names" version="0" value="reshape2_12.tmp_0"/>
			</rt_info>
			<input>
				<port id="0" precision="FP32">
					<dim>1</dim>
					<dim>40</dim>
					<dim>64</dim>
					<dim>48</dim>
				</port>
				<port id="1" precision="I32">
					<dim>5</dim>
				</port>
			</input>
			<output>
				<port id="2" precision="FP32" names="reshape2_12.tmp_0">
					<dim>1</dim>
					<dim>2</dim>
					<dim>20</dim>
					<dim>64</dim>
					<dim>48</dim>
				</port>
			</output>
		</layer>
		<layer id="261" name="Constant_2142" type="Const" version="opset1">
			<data element_type="i64" shape="5" offset="5464" size="40"/>
			<rt_info>
				<attribute name="fused_names" version="0" value="Constant_2142"/>
			</rt_info>
			<output>
				<port id="0" precision="I64">
					<dim>5</dim>
				</port>
			</output>
		</layer>
		<layer id="262" name="transpose_6.tmp_0" type="Transpose" version="opset1">
			<rt_info>
				<attribute name="fused_names" version="0" value="transpose_6.tmp_0"/>
			</rt_info>
			<input>
				<port id="0" precision="FP32">
					<dim>1</dim>
					<dim>2</dim>
					<dim>20</dim>
					<dim>64</dim>
					<dim>48</dim>
				</port>
				<port id="1" precision="I64">
					<dim>5</dim>
				</port>
			</input>
			<output>
				<port id="2" precision="FP32" names="transpose_6.tmp_0">
					<dim>1</dim>
					<dim>20</dim>
					<dim>2</dim>
					<dim>64</dim>
					<dim>48</dim>
				</port>
			</output>
		</layer>
		<layer id="263" name="Constant_2144" type="Const" version="opset1">
			<data element_type="i32" shape="4" offset="10900" size="16"/>
			<rt_info>
				<attribute name="fused_names" version="0" value="Constant_2144"/>
			</rt_info>
			<output>
				<port id="0" precision="I32">
					<dim>4</dim>
				</port>
			</output>
		</layer>
		<layer id="264" name="reshape2_13.tmp_0" type="Reshape" version="opset1">
			<data special_zero="true"/>
			<rt_info>
				<attribute name="fused_names" version="0" value="reshape2_13.tmp_0"/>
			</rt_info>
			<input>
				<port id="0" precision="FP32">
					<dim>1</dim>
					<dim>20</dim>
					<dim>2</dim>
					<dim>64</dim>
					<dim>48</dim>
				</port>
				<port id="1" precision="I32">
					<dim>4</dim>
				</port>
			</input>
			<output>
				<port id="2" precision="FP32" names="reshape2_13.tmp_0">
					<dim>1</dim>
					<dim>40</dim>
					<dim>64</dim>
					<dim>48</dim>
				</port>
			</output>
		</layer>
		<layer id="265" name="tmp_4" type="Add" version="opset1">
			<data auto_broadcast="numpy"/>
			<rt_info>
				<attribute name="fused_names" version="0" value="tmp_4"/>
			</rt_info>
			<input>
				<port id="0" precision="FP32">
					<dim>1</dim>
					<dim>40</dim>
					<dim>64</dim>
					<dim>48</dim>
				</port>
				<port id="1" precision="FP32">
					<dim>1</dim>
					<dim>40</dim>
					<dim>64</dim>
					<dim>48</dim>
				</port>
			</input>
			<output>
				<port id="2" precision="FP32" names="tmp_4">
					<dim>1</dim>
					<dim>40</dim>
					<dim>64</dim>
					<dim>48</dim>
				</port>
			</output>
		</layer>
		<layer id="266" name="Multiply_51100_compressed" type="Const" version="opset1">
			<data element_type="f16" shape="40, 1, 1, 3, 3" offset="44328" size="720"/>
			<output>
				<port id="0" precision="FP16">
					<dim>40</dim>
					<dim>1</dim>
					<dim>1</dim>
					<dim>3</dim>
					<dim>3</dim>
				</port>
			</output>
		</layer>
		<layer id="267" name="Multiply_51100" type="Convert" version="opset1">
			<data destination_type="f32"/>
			<rt_info>
				<attribute name="decompression" version="0"/>
			</rt_info>
			<input>
				<port id="0" precision="FP16">
					<dim>40</dim>
					<dim>1</dim>
					<dim>1</dim>
					<dim>3</dim>
					<dim>3</dim>
				</port>
			</input>
			<output>
				<port id="1" precision="FP32">
					<dim>40</dim>
					<dim>1</dim>
					<dim>1</dim>
					<dim>3</dim>
					<dim>3</dim>
				</port>
			</output>
		</layer>
		<layer id="268" name="Multiply_49169" type="GroupConvolution" version="opset1">
			<data strides="2, 2" pads_begin="1, 1" pads_end="1, 1" dilations="1, 1" auto_pad="explicit"/>
			<rt_info>
				<attribute name="fused_names" version="0" value="batch_norm2d_23.b_0, batch_norm2d_23.w_0, batch_norm2d_23.w_1, batch_norm2d_23.w_2"/>
			</rt_info>
			<input>
				<port id="0" precision="FP32">
					<dim>1</dim>
					<dim>40</dim>
					<dim>64</dim>
					<dim>48</dim>
				</port>
				<port id="1" precision="FP32">
					<dim>40</dim>
					<dim>1</dim>
					<dim>1</dim>
					<dim>3</dim>
					<dim>3</dim>
				</port>
			</input>
			<output>
				<port id="2" precision="FP32" names="depthwise_conv2d_8.tmp_0">
					<dim>1</dim>
					<dim>40</dim>
					<dim>32</dim>
					<dim>24</dim>
				</port>
			</output>
		</layer>
		<layer id="269" name="Constant_49174_compressed" type="Const" version="opset1">
			<data element_type="f16" shape="1, 40, 1, 1" offset="45048" size="80"/>
			<output>
				<port id="0" precision="FP16">
					<dim>1</dim>
					<dim>40</dim>
					<dim>1</dim>
					<dim>1</dim>
				</port>
			</output>
		</layer>
		<layer id="270" name="Constant_49174" type="Convert" version="opset1">
			<data destination_type="f32"/>
			<rt_info>
				<attribute name="decompression" version="0"/>
			</rt_info>
			<input>
				<port id="0" precision="FP16">
					<dim>1</dim>
					<dim>40</dim>
					<dim>1</dim>
					<dim>1</dim>
				</port>
			</input>
			<output>
				<port id="1" precision="FP32">
					<dim>1</dim>
					<dim>40</dim>
					<dim>1</dim>
					<dim>1</dim>
				</port>
			</output>
		</layer>
		<layer id="271" name="batch_norm2d_23.w_1" type="Add" version="opset1">
			<data auto_broadcast="numpy"/>
			<rt_info>
				<attribute name="fused_names" version="0" value="batch_norm2d_23.b_0, batch_norm2d_23.w_0, batch_norm2d_23.w_1, batch_norm2d_23.w_2"/>
			</rt_info>
			<input>
				<port id="0" precision="FP32">
					<dim>1</dim>
					<dim>40</dim>
					<dim>32</dim>
					<dim>24</dim>
				</port>
				<port id="1" precision="FP32">
					<dim>1</dim>
					<dim>40</dim>
					<dim>1</dim>
					<dim>1</dim>
				</port>
			</input>
			<output>
				<port id="2" precision="FP32" names="batch_norm_23.tmp_2">
					<dim>1</dim>
					<dim>40</dim>
					<dim>32</dim>
					<dim>24</dim>
				</port>
			</output>
		</layer>
		<layer id="272" name="Multiply_51108_compressed" type="Const" version="opset1">
			<data element_type="f16" shape="80, 40, 1, 1" offset="45128" size="6400"/>
			<output>
				<port id="0" precision="FP16">
					<dim>80</dim>
					<dim>40</dim>
					<dim>1</dim>
					<dim>1</dim>
				</port>
			</output>
		</layer>
		<layer id="273" name="Multiply_51108" type="Convert" version="opset1">
			<data destination_type="f32"/>
			<rt_info>
				<attribute name="decompression" version="0"/>
			</rt_info>
			<input>
				<port id="0" precision="FP16">
					<dim>80</dim>
					<dim>40</dim>
					<dim>1</dim>
					<dim>1</dim>
				</port>
			</input>
			<output>
				<port id="1" precision="FP32">
					<dim>80</dim>
					<dim>40</dim>
					<dim>1</dim>
					<dim>1</dim>
				</port>
			</output>
		</layer>
		<layer id="274" name="Multiply_49176" type="Convolution" version="opset1">
			<data strides="1, 1" dilations="1, 1" pads_begin="0, 0" pads_end="0, 0" auto_pad="explicit"/>
			<rt_info>
				<attribute name="fused_names" version="0" value="batch_norm2d_24.b_0, batch_norm2d_24.w_0, batch_norm2d_24.w_1, batch_norm2d_24.w_2, conv2d_284.tmp_0"/>
			</rt_info>
			<input>
				<port id="0" precision="FP32">
					<dim>1</dim>
					<dim>40</dim>
					<dim>32</dim>
					<dim>24</dim>
				</port>
				<port id="1" precision="FP32">
					<dim>80</dim>
					<dim>40</dim>
					<dim>1</dim>
					<dim>1</dim>
				</port>
			</input>
			<output>
				<port id="2" precision="FP32">
					<dim>1</dim>
					<dim>80</dim>
					<dim>32</dim>
					<dim>24</dim>
				</port>
			</output>
		</layer>
		<layer id="275" name="Constant_49181_compressed" type="Const" version="opset1">
			<data element_type="f16" shape="1, 80, 1, 1" offset="51528" size="160"/>
			<output>
				<port id="0" precision="FP16">
					<dim>1</dim>
					<dim>80</dim>
					<dim>1</dim>
					<dim>1</dim>
				</port>
			</output>
		</layer>
		<layer id="276" name="Constant_49181" type="Convert" version="opset1">
			<data destination_type="f32"/>
			<rt_info>
				<attribute name="decompression" version="0"/>
			</rt_info>
			<input>
				<port id="0" precision="FP16">
					<dim>1</dim>
					<dim>80</dim>
					<dim>1</dim>
					<dim>1</dim>
				</port>
			</input>
			<output>
				<port id="1" precision="FP32">
					<dim>1</dim>
					<dim>80</dim>
					<dim>1</dim>
					<dim>1</dim>
				</port>
			</output>
		</layer>
		<layer id="277" name="batch_norm2d_24.w_1" type="Add" version="opset1">
			<data auto_broadcast="numpy"/>
			<rt_info>
				<attribute name="fused_names" version="0" value="batch_norm2d_24.b_0, batch_norm2d_24.w_0, batch_norm2d_24.w_1, batch_norm2d_24.w_2"/>
			</rt_info>
			<input>
				<port id="0" precision="FP32">
					<dim>1</dim>
					<dim>80</dim>
					<dim>32</dim>
					<dim>24</dim>
				</port>
				<port id="1" precision="FP32">
					<dim>1</dim>
					<dim>80</dim>
					<dim>1</dim>
					<dim>1</dim>
				</port>
			</input>
			<output>
				<port id="2" precision="FP32" names="batch_norm_24.tmp_2">
					<dim>1</dim>
					<dim>80</dim>
					<dim>32</dim>
					<dim>24</dim>
				</port>
			</output>
		</layer>
		<layer id="278" name="tmp_2" type="Add" version="opset1">
			<data auto_broadcast="numpy"/>
			<rt_info>
				<attribute name="fused_names" version="0" value="tmp_2"/>
			</rt_info>
			<input>
				<port id="0" precision="FP32">
					<dim>1</dim>
					<dim>80</dim>
					<dim>32</dim>
					<dim>24</dim>
				</port>
				<port id="1" precision="FP32">
					<dim>1</dim>
					<dim>80</dim>
					<dim>32</dim>
					<dim>24</dim>
				</port>
			</input>
			<output>
				<port id="2" precision="FP32" names="tmp_2">
					<dim>1</dim>
					<dim>80</dim>
					<dim>32</dim>
					<dim>24</dim>
				</port>
			</output>
		</layer>
		<layer id="279" name="tmp_3" type="Add" version="opset1">
			<data auto_broadcast="numpy"/>
			<rt_info>
				<attribute name="fused_names" version="0" value="tmp_3"/>
			</rt_info>
			<input>
				<port id="0" precision="FP32">
					<dim>1</dim>
					<dim>80</dim>
					<dim>32</dim>
					<dim>24</dim>
				</port>
				<port id="1" precision="FP32">
					<dim>1</dim>
					<dim>80</dim>
					<dim>32</dim>
					<dim>24</dim>
				</port>
			</input>
			<output>
				<port id="2" precision="FP32" names="tmp_3">
					<dim>1</dim>
					<dim>80</dim>
					<dim>32</dim>
					<dim>24</dim>
				</port>
			</output>
		</layer>
		<layer id="280" name="relu_15.tmp_0" type="ReLU" version="opset1">
			<rt_info>
				<attribute name="fused_names" version="0" value="relu_15.tmp_0"/>
			</rt_info>
			<input>
				<port id="0" precision="FP32">
					<dim>1</dim>
					<dim>80</dim>
					<dim>32</dim>
					<dim>24</dim>
				</port>
			</input>
			<output>
				<port id="1" precision="FP32" names="relu_15.tmp_0">
					<dim>1</dim>
					<dim>80</dim>
					<dim>32</dim>
					<dim>24</dim>
				</port>
			</output>
		</layer>
		<layer id="281" name="Constant_2151" type="Const" version="opset1">
			<data element_type="i32" shape="" offset="1792" size="4"/>
			<rt_info>
				<attribute name="fused_names" version="0" value="Constant_2151"/>
			</rt_info>
			<output>
				<port id="0" precision="I32"/>
			</output>
		</layer>
		<layer id="282" name="split_7.tmp_0" type="Split" version="opset1">
			<data num_splits="2"/>
			<rt_info>
				<attribute name="fused_names" version="0" value="split_7.tmp_0"/>
			</rt_info>
			<input>
				<port id="0" precision="FP32">
					<dim>1</dim>
					<dim>80</dim>
					<dim>32</dim>
					<dim>24</dim>
				</port>
				<port id="1" precision="I32"/>
			</input>
			<output>
				<port id="2" precision="FP32" names="split_7.tmp_0">
					<dim>1</dim>
					<dim>40</dim>
					<dim>32</dim>
					<dim>24</dim>
				</port>
				<port id="3" precision="FP32" names="split_7.tmp_1">
					<dim>1</dim>
					<dim>40</dim>
					<dim>32</dim>
					<dim>24</dim>
				</port>
			</output>
		</layer>
		<layer id="283" name="Multiply_51117_compressed" type="Const" version="opset1">
			<data element_type="f16" shape="40, 40, 1, 1" offset="51688" size="3200"/>
			<output>
				<port id="0" precision="FP16">
					<dim>40</dim>
					<dim>40</dim>
					<dim>1</dim>
					<dim>1</dim>
				</port>
			</output>
		</layer>
		<layer id="284" name="Multiply_51117" type="Convert" version="opset1">
			<data destination_type="f32"/>
			<rt_info>
				<attribute name="decompression" version="0"/>
			</rt_info>
			<input>
				<port id="0" precision="FP16">
					<dim>40</dim>
					<dim>40</dim>
					<dim>1</dim>
					<dim>1</dim>
				</port>
			</input>
			<output>
				<port id="1" precision="FP32">
					<dim>40</dim>
					<dim>40</dim>
					<dim>1</dim>
					<dim>1</dim>
				</port>
			</output>
		</layer>
		<layer id="285" name="Multiply_49183" type="Convolution" version="opset1">
			<data strides="1, 1" dilations="1, 1" pads_begin="0, 0" pads_end="0, 0" auto_pad="explicit"/>
			<rt_info>
				<attribute name="fused_names" version="0" value="batch_norm2d_31.b_0, batch_norm2d_31.w_0, batch_norm2d_31.w_1, batch_norm2d_31.w_2, conv2d_289.tmp_0"/>
			</rt_info>
			<input>
				<port id="0" precision="FP32">
					<dim>1</dim>
					<dim>40</dim>
					<dim>32</dim>
					<dim>24</dim>
				</port>
				<port id="1" precision="FP32">
					<dim>40</dim>
					<dim>40</dim>
					<dim>1</dim>
					<dim>1</dim>
				</port>
			</input>
			<output>
				<port id="2" precision="FP32">
					<dim>1</dim>
					<dim>40</dim>
					<dim>32</dim>
					<dim>24</dim>
				</port>
			</output>
		</layer>
		<layer id="286" name="Constant_49188_compressed" type="Const" version="opset1">
			<data element_type="f16" shape="1, 40, 1, 1" offset="54888" size="80"/>
			<output>
				<port id="0" precision="FP16">
					<dim>1</dim>
					<dim>40</dim>
					<dim>1</dim>
					<dim>1</dim>
				</port>
			</output>
		</layer>
		<layer id="287" name="Constant_49188" type="Convert" version="opset1">
			<data destination_type="f32"/>
			<rt_info>
				<attribute name="decompression" version="0"/>
			</rt_info>
			<input>
				<port id="0" precision="FP16">
					<dim>1</dim>
					<dim>40</dim>
					<dim>1</dim>
					<dim>1</dim>
				</port>
			</input>
			<output>
				<port id="1" precision="FP32">
					<dim>1</dim>
					<dim>40</dim>
					<dim>1</dim>
					<dim>1</dim>
				</port>
			</output>
		</layer>
		<layer id="288" name="batch_norm2d_31.w_1" type="Add" version="opset1">
			<data auto_broadcast="numpy"/>
			<rt_info>
				<attribute name="fused_names" version="0" value="batch_norm2d_31.b_0, batch_norm2d_31.w_0, batch_norm2d_31.w_1, batch_norm2d_31.w_2"/>
			</rt_info>
			<input>
				<port id="0" precision="FP32">
					<dim>1</dim>
					<dim>40</dim>
					<dim>32</dim>
					<dim>24</dim>
				</port>
				<port id="1" precision="FP32">
					<dim>1</dim>
					<dim>40</dim>
					<dim>1</dim>
					<dim>1</dim>
				</port>
			</input>
			<output>
				<port id="2" precision="FP32" names="batch_norm_31.tmp_2">
					<dim>1</dim>
					<dim>40</dim>
					<dim>32</dim>
					<dim>24</dim>
				</port>
			</output>
		</layer>
		<layer id="289" name="relu_20.tmp_0" type="ReLU" version="opset1">
			<rt_info>
				<attribute name="fused_names" version="0" value="relu_20.tmp_0"/>
			</rt_info>
			<input>
				<port id="0" precision="FP32">
					<dim>1</dim>
					<dim>40</dim>
					<dim>32</dim>
					<dim>24</dim>
				</port>
			</input>
			<output>
				<port id="1" precision="FP32" names="relu_20.tmp_0">
					<dim>1</dim>
					<dim>40</dim>
					<dim>32</dim>
					<dim>24</dim>
				</port>
			</output>
		</layer>
		<layer id="290" name="Multiply_51126_compressed" type="Const" version="opset1">
			<data element_type="f16" shape="40, 1, 1, 3, 3" offset="54968" size="720"/>
			<output>
				<port id="0" precision="FP16">
					<dim>40</dim>
					<dim>1</dim>
					<dim>1</dim>
					<dim>3</dim>
					<dim>3</dim>
				</port>
			</output>
		</layer>
		<layer id="291" name="Multiply_51126" type="Convert" version="opset1">
			<data destination_type="f32"/>
			<rt_info>
				<attribute name="decompression" version="0"/>
			</rt_info>
			<input>
				<port id="0" precision="FP16">
					<dim>40</dim>
					<dim>1</dim>
					<dim>1</dim>
					<dim>3</dim>
					<dim>3</dim>
				</port>
			</input>
			<output>
				<port id="1" precision="FP32">
					<dim>40</dim>
					<dim>1</dim>
					<dim>1</dim>
					<dim>3</dim>
…
		<edge from-layer="1845" from-port="0" to-layer="1848" to-port="2"/>
		<edge from-layer="1845" from-port="0" to-layer="1846" to-port="1"/>
		<edge from-layer="1846" from-port="2" to-layer="1847" to-port="0"/>
		<edge from-layer="1847" from-port="1" to-layer="1848" to-port="1"/>
		<edge from-layer="1848" from-port="3" to-layer="1849" to-port="1"/>
		<edge from-layer="1849" from-port="2" to-layer="1850" to-port="0"/>
		<edge from-layer="1850" from-port="1" to-layer="1852" to-port="0"/>
		<edge from-layer="1851" from-port="0" to-layer="1852" to-port="1"/>
		<edge from-layer="1852" from-port="2" to-layer="1873" to-port="0"/>
		<edge from-layer="1852" from-port="3" to-layer="1855" to-port="0"/>
		<edge from-layer="1853" from-port="0" to-layer="1854" to-port="0"/>
		<edge from-layer="1854" from-port="1" to-layer="1855" to-port="1"/>
		<edge from-layer="1855" from-port="2" to-layer="1858" to-port="0"/>
		<edge from-layer="1856" from-port="0" to-layer="1857" to-port="0"/>
		<edge from-layer="1857" from-port="1" to-layer="1858" to-port="1"/>
		<edge from-layer="1858" from-port="2" to-layer="1859" to-port="0"/>
		<edge from-layer="1859" from-port="1" to-layer="1862" to-port="0"/>
		<edge from-layer="1860" from-port="0" to-layer="1861" to-port="0"/>
		<edge from-layer="1861" from-port="1" to-layer="1862" to-port="1"/>
		<edge from-layer="1862" from-port="2" to-layer="1865" to-port="0"/>
		<edge from-layer="1863" from-port="0" to-layer="1864" to-port="0"/>
		<edge from-layer="1864" from-port="1" to-layer="1865" to-port="1"/>
		<edge from-layer="1865" from-port="2" to-layer="1868" to-port="0"/>
		<edge from-layer="1866" from-port="0" to-layer="1867" to-port="0"/>
		<edge from-layer="1867" from-port="1" to-layer="1868" to-port="1"/>
		<edge from-layer="1868" from-port="2" to-layer="1871" to-port="0"/>
		<edge from-layer="1869" from-port="0" to-layer="1870" to-port="0"/>
		<edge from-layer="1870" from-port="1" to-layer="1871" to-port="1"/>
		<edge from-layer="1871" from-port="2" to-layer="1872" to-port="0"/>
		<edge from-layer="1872" from-port="1" to-layer="1873" to-port="1"/>
		<edge from-layer="1873" from-port="2" to-layer="1875" to-port="0"/>
		<edge from-layer="1874" from-port="0" to-layer="1875" to-port="1"/>
		<edge from-layer="1875" from-port="2" to-layer="1877" to-port="0"/>
		<edge from-layer="1876" from-port="0" to-layer="1877" to-port="1"/>
		<edge from-layer="1877" from-port="2" to-layer="1879" to-port="0"/>
		<edge from-layer="1878" from-port="0" to-layer="1879" to-port="1"/>
		<edge from-layer="1879" from-port="2" to-layer="1881" to-port="0"/>
		<edge from-layer="1880" from-port="0" to-layer="1881" to-port="1"/>
		<edge from-layer="1881" from-port="3" to-layer="1884" to-port="0"/>
		<edge from-layer="1881" from-port="2" to-layer="1902" to-port="0"/>
		<edge from-layer="1882" from-port="0" to-layer="1883" to-port="0"/>
		<edge from-layer="1883" from-port="1" to-layer="1884" to-port="1"/>
		<edge from-layer="1884" from-port="2" to-layer="1887" to-port="0"/>
		<edge from-layer="1885" from-port="0" to-layer="1886" to-port="0"/>
		<edge from-layer="1886" from-port="1" to-layer="1887" to-port="1"/>
		<edge from-layer="1887" from-port="2" to-layer="1888" to-port="0"/>
		<edge from-layer="1888" from-port="1" to-layer="1891" to-port="0"/>
		<edge from-layer="1889" from-port="0" to-layer="1890" to-port="0"/>
		<edge from-layer="1890" from-port="1" to-layer="1891" to-port="1"/>
		<edge from-layer="1891" from-port="2" to-layer="1894" to-port="0"/>
		<edge from-layer="1892" from-port="0" to-layer="1893" to-port="0"/>
		<edge from-layer="1893" from-port="1" to-layer="1894" to-port="1"/>
		<edge from-layer="1894" from-port="2" to-layer="1897" to-port="0"/>
		<edge from-layer="1895" from-port="0" to-layer="1896" to-port="0"/>
		<edge from-layer="1896" from-port="1" to-layer="1897" to-port="1"/>
		<edge from-layer="1897" from-port="2" to-layer="1900" to-port="0"/>
		<edge from-layer="1898" from-port="0" to-layer="1899" to-port="0"/>
		<edge from-layer="1899" from-port="1" to-layer="1900" to-port="1"/>
		<edge from-layer="1900" from-port="2" to-layer="1901" to-port="0"/>
		<edge from-layer="1901" from-port="1" to-layer="1902" to-port="1"/>
		<edge from-layer="1902" from-port="2" to-layer="1904" to-port="0"/>
		<edge from-layer="1903" from-port="0" to-layer="1904" to-port="1"/>
		<edge from-layer="1904" from-port="2" to-layer="1906" to-port="0"/>
		<edge from-layer="1905" from-port="0" to-layer="1906" to-port="1"/>
		<edge from-layer="1906" from-port="2" to-layer="1908" to-port="0"/>
		<edge from-layer="1907" from-port="0" to-layer="1908" to-port="1"/>
		<edge from-layer="1908" from-port="2" to-layer="2335" to-port="0"/>
		<edge from-layer="1908" from-port="2" to-layer="1911" to-port="0"/>
		<edge from-layer="1908" from-port="2" to-layer="2268" to-port="0"/>
		<edge from-layer="1908" from-port="2" to-layer="2212" to-port="1"/>
		<edge from-layer="1909" from-port="0" to-layer="1910" to-port="0"/>
		<edge from-layer="1910" from-port="1" to-layer="1911" to-port="1"/>
		<edge from-layer="1911" from-port="2" to-layer="1914" to-port="0"/>
		<edge from-layer="1912" from-port="0" to-layer="1913" to-port="0"/>
		<edge from-layer="1913" from-port="1" to-layer="1914" to-port="1"/>
		<edge from-layer="1914" from-port="2" to-layer="1915" to-port="0"/>
		<edge from-layer="1914" from-port="2" to-layer="1920" to-port="0"/>
		<edge from-layer="1915" from-port="1" to-layer="1916" to-port="0"/>
		<edge from-layer="1916" from-port="1" to-layer="1918" to-port="0"/>
		<edge from-layer="1917" from-port="0" to-layer="1920" to-port="2"/>
		<edge from-layer="1917" from-port="0" to-layer="1918" to-port="1"/>
		<edge from-layer="1918" from-port="2" to-layer="1919" to-port="0"/>
		<edge from-layer="1919" from-port="1" to-layer="1920" to-port="1"/>
		<edge from-layer="1920" from-port="3" to-layer="1921" to-port="1"/>
		<edge from-layer="1921" from-port="2" to-layer="2046" to-port="0"/>
		<edge from-layer="1922" from-port="0" to-layer="1923" to-port="0"/>
		<edge from-layer="1923" from-port="1" to-layer="1924" to-port="1"/>
		<edge from-layer="1924" from-port="2" to-layer="1927" to-port="0"/>
		<edge from-layer="1925" from-port="0" to-layer="1926" to-port="0"/>
		<edge from-layer="1926" from-port="1" to-layer="1927" to-port="1"/>
		<edge from-layer="1927" from-port="2" to-layer="1930" to-port="0"/>
		<edge from-layer="1928" from-port="0" to-layer="1929" to-port="0"/>
		<edge from-layer="1929" from-port="1" to-layer="1930" to-port="1"/>
		<edge from-layer="1930" from-port="2" to-layer="1933" to-port="0"/>
		<edge from-layer="1931" from-port="0" to-layer="1932" to-port="0"/>
		<edge from-layer="1932" from-port="1" to-layer="1933" to-port="1"/>
		<edge from-layer="1933" from-port="2" to-layer="1934" to-port="0"/>
		<edge from-layer="1934" from-port="1" to-layer="1937" to-port="0"/>
		<edge from-layer="1935" from-port="0" to-layer="1936" to-port="0"/>
		<edge from-layer="1936" from-port="1" to-layer="1937" to-port="1"/>
		<edge from-layer="1937" from-port="2" to-layer="1940" to-port="0"/>
		<edge from-layer="1938" from-port="0" to-layer="1939" to-port="0"/>
		<edge from-layer="1939" from-port="1" to-layer="1940" to-port="1"/>
		<edge from-layer="1940" from-port="2" to-layer="1943" to-port="0"/>
		<edge from-layer="1941" from-port="0" to-layer="1942" to-port="0"/>
		<edge from-layer="1942" from-port="1" to-layer="1943" to-port="1"/>
		<edge from-layer="1943" from-port="2" to-layer="1946" to-port="0"/>
		<edge from-layer="1944" from-port="0" to-layer="1945" to-port="0"/>
		<edge from-layer="1945" from-port="1" to-layer="1946" to-port="1"/>
		<edge from-layer="1946" from-port="2" to-layer="1947" to-port="0"/>
		<edge from-layer="1946" from-port="2" to-layer="1947" to-port="1"/>
		<edge from-layer="1947" from-port="2" to-layer="1960" to-port="0"/>
		<edge from-layer="1948" from-port="0" to-layer="1949" to-port="0"/>
		<edge from-layer="1949" from-port="1" to-layer="1950" to-port="1"/>
		<edge from-layer="1950" from-port="2" to-layer="1953" to-port="0"/>
		<edge from-layer="1951" from-port="0" to-layer="1952" to-port="0"/>
		<edge from-layer="1952" from-port="1" to-layer="1953" to-port="1"/>
		<edge from-layer="1953" from-port="2" to-layer="1956" to-port="0"/>
		<edge from-layer="1954" from-port="0" to-layer="1955" to-port="0"/>
		<edge from-layer="1955" from-port="1" to-layer="1956" to-port="1"/>
		<edge from-layer="1956" from-port="2" to-layer="1959" to-port="0"/>
		<edge from-layer="1957" from-port="0" to-layer="1958" to-port="0"/>
		<edge from-layer="1958" from-port="1" to-layer="1959" to-port="1"/>
		<edge from-layer="1959" from-port="2" to-layer="1960" to-port="1"/>
		<edge from-layer="1960" from-port="2" to-layer="1961" to-port="0"/>
		<edge from-layer="1961" from-port="2" to-layer="1974" to-port="0"/>
		<edge from-layer="1962" from-port="0" to-layer="1963" to-port="0"/>
		<edge from-layer="1963" from-port="1" to-layer="1964" to-port="1"/>
		<edge from-layer="1964" from-port="2" to-layer="1967" to-port="0"/>
		<edge from-layer="1965" from-port="0" to-layer="1966" to-port="0"/>
		<edge from-layer="1966" from-port="1" to-layer="1967" to-port="1"/>
		<edge from-layer="1967" from-port="2" to-layer="1973" to-port="0"/>
		<edge from-layer="1967" from-port="2" to-layer="1968" to-port="0"/>
		<edge from-layer="1968" from-port="1" to-layer="1969" to-port="0"/>
		<edge from-layer="1969" from-port="1" to-layer="1971" to-port="0"/>
		<edge from-layer="1970" from-port="0" to-layer="1973" to-port="2"/>
		<edge from-layer="1970" from-port="0" to-layer="1971" to-port="1"/>
		<edge from-layer="1971" from-port="2" to-layer="1972" to-port="0"/>
		<edge from-layer="1972" from-port="1" to-layer="1973" to-port="1"/>
		<edge from-layer="1973" from-port="3" to-layer="1974" to-port="1"/>
		<edge from-layer="1974" from-port="2" to-layer="1975" to-port="0"/>
		<edge from-layer="1975" from-port="1" to-layer="1977" to-port="0"/>
		<edge from-layer="1976" from-port="0" to-layer="1977" to-port="1"/>
		<edge from-layer="1977" from-port="3" to-layer="1980" to-port="0"/>
		<edge from-layer="1977" from-port="2" to-layer="1998" to-port="0"/>
		<edge from-layer="1978" from-port="0" to-layer="1979" to-port="0"/>
		<edge from-layer="1979" from-port="1" to-layer="1980" to-port="1"/>
		<edge from-layer="1980" from-port="2" to-layer="1983" to-port="0"/>
		<edge from-layer="1981" from-port="0" to-layer="1982" to-port="0"/>
		<edge from-layer="1982" from-port="1" to-layer="1983" to-port="1"/>
		<edge from-layer="1983" from-port="2" to-layer="1984" to-port="0"/>
		<edge from-layer="1984" from-port="1" to-layer="1987" to-port="0"/>
		<edge from-layer="1985" from-port="0" to-layer="1986" to-port="0"/>
		<edge from-layer="1986" from-port="1" to-layer="1987" to-port="1"/>
		<edge from-layer="1987" from-port="2" to-layer="1990" to-port="0"/>
		<edge from-layer="1988" from-port="0" to-layer="1989" to-port="0"/>
		<edge from-layer="1989" from-port="1" to-layer="1990" to-port="1"/>
		<edge from-layer="1990" from-port="2" to-layer="1993" to-port="0"/>
		<edge from-layer="1991" from-port="0" to-layer="1992" to-port="0"/>
		<edge from-layer="1992" from-port="1" to-layer="1993" to-port="1"/>
		<edge from-layer="1993" from-port="2" to-layer="1996" to-port="0"/>
		<edge from-layer="1994" from-port="0" to-layer="1995" to-port="0"/>
		<edge from-layer="1995" from-port="1" to-layer="1996" to-port="1"/>
		<edge from-layer="1996" from-port="2" to-layer="1997" to-port="0"/>
		<edge from-layer="1997" from-port="1" to-layer="1998" to-port="1"/>
		<edge from-layer="1998" from-port="2" to-layer="2000" to-port="0"/>
		<edge from-layer="1999" from-port="0" to-layer="2000" to-port="1"/>
		<edge from-layer="2000" from-port="2" to-layer="2002" to-port="0"/>
		<edge from-layer="2001" from-port="0" to-layer="2002" to-port="1"/>
		<edge from-layer="2002" from-port="2" to-layer="2004" to-port="0"/>
		<edge from-layer="2003" from-port="0" to-layer="2004" to-port="1"/>
		<edge from-layer="2004" from-port="2" to-layer="2006" to-port="0"/>
		<edge from-layer="2005" from-port="0" to-layer="2006" to-port="1"/>
		<edge from-layer="2006" from-port="2" to-layer="2027" to-port="0"/>
		<edge from-layer="2006" from-port="3" to-layer="2009" to-port="0"/>
		<edge from-layer="2007" from-port="0" to-layer="2008" to-port="0"/>
		<edge from-layer="2008" from-port="1" to-layer="2009" to-port="1"/>
		<edge from-layer="2009" from-port="2" to-layer="2012" to-port="0"/>
		<edge from-layer="2010" from-port="0" to-layer="2011" to-port="0"/>
		<edge from-layer="2011" from-port="1" to-layer="2012" to-port="1"/>
		<edge from-layer="2012" from-port="2" to-layer="2013" to-port="0"/>
		<edge from-layer="2013" from-port="1" to-layer="2016" to-port="0"/>
		<edge from-layer="2014" from-port="0" to-layer="2015" to-port="0"/>
		<edge from-layer="2015" from-port="1" to-layer="2016" to-port="1"/>
		<edge from-layer="2016" from-port="2" to-layer="2019" to-port="0"/>
		<edge from-layer="2017" from-port="0" to-layer="2018" to-port="0"/>
		<edge from-layer="2018" from-port="1" to-layer="2019" to-port="1"/>
		<edge from-layer="2019" from-port="2" to-layer="2022" to-port="0"/>
		<edge from-layer="2020" from-port="0" to-layer="2021" to-port="0"/>
		<edge from-layer="2021" from-port="1" to-layer="2022" to-port="1"/>
		<edge from-layer="2022" from-port="2" to-layer="2025" to-port="0"/>
		<edge from-layer="2023" from-port="0" to-layer="2024" to-port="0"/>
		<edge from-layer="2024" from-port="1" to-layer="2025" to-port="1"/>
		<edge from-layer="2025" from-port="2" to-layer="2026" to-port="0"/>
		<edge from-layer="2026" from-port="1" to-layer="2027" to-port="1"/>
		<edge from-layer="2027" from-port="2" to-layer="2029" to-port="0"/>
		<edge from-layer="2028" from-port="0" to-layer="2029" to-port="1"/>
		<edge from-layer="2029" from-port="2" to-layer="2031" to-port="0"/>
		<edge from-layer="2030" from-port="0" to-layer="2031" to-port="1"/>
		<edge from-layer="2031" from-port="2" to-layer="2033" to-port="0"/>
		<edge from-layer="2032" from-port="0" to-layer="2033" to-port="1"/>
		<edge from-layer="2033" from-port="2" to-layer="2036" to-port="0"/>
		<edge from-layer="2033" from-port="2" to-layer="2215" to-port="0"/>
		<edge from-layer="2033" from-port="2" to-layer="2279" to-port="1"/>
		<edge from-layer="2033" from-port="2" to-layer="2361" to-port="0"/>
		<edge from-layer="2034" from-port="0" to-layer="2035" to-port="0"/>
		<edge from-layer="2035" from-port="1" to-layer="2036" to-port="1"/>
		<edge from-layer="2036" from-port="2" to-layer="2039" to-port="0"/>
		<edge from-layer="2037" from-port="0" to-layer="2038" to-port="0"/>
		<edge from-layer="2038" from-port="1" to-layer="2039" to-port="1"/>
		<edge from-layer="2039" from-port="2" to-layer="2045" to-port="0"/>
		<edge from-layer="2039" from-port="2" to-layer="2040" to-port="0"/>
		<edge from-layer="2040" from-port="1" to-layer="2041" to-port="0"/>
		<edge from-layer="2041" from-port="1" to-layer="2043" to-port="0"/>
		<edge from-layer="2042" from-port="0" to-layer="2043" to-port="1"/>
		<edge from-layer="2042" from-port="0" to-layer="2045" to-port="2"/>
		<edge from-layer="2043" from-port="2" to-layer="2044" to-port="0"/>
		<edge from-layer="2044" from-port="1" to-layer="2045" to-port="1"/>
		<edge from-layer="2045" from-port="3" to-layer="2046" to-port="1"/>
		<edge from-layer="2046" from-port="2" to-layer="2197" to-port="0"/>
		<edge from-layer="2047" from-port="0" to-layer="2048" to-port="0"/>
		<edge from-layer="2048" from-port="1" to-layer="2049" to-port="1"/>
		<edge from-layer="2049" from-port="2" to-layer="2052" to-port="0"/>
		<edge from-layer="2050" from-port="0" to-layer="2051" to-port="0"/>
		<edge from-layer="2051" from-port="1" to-layer="2052" to-port="1"/>
		<edge from-layer="2052" from-port="2" to-layer="2055" to-port="0"/>
		<edge from-layer="2053" from-port="0" to-layer="2054" to-port="0"/>
		<edge from-layer="2054" from-port="1" to-layer="2055" to-port="1"/>
		<edge from-layer="2055" from-port="2" to-layer="2058" to-port="0"/>
		<edge from-layer="2056" from-port="0" to-layer="2057" to-port="0"/>
		<edge from-layer="2057" from-port="1" to-layer="2058" to-port="1"/>
		<edge from-layer="2058" from-port="2" to-layer="2059" to-port="0"/>
		<edge from-layer="2059" from-port="1" to-layer="2062" to-port="0"/>
		<edge from-layer="2060" from-port="0" to-layer="2061" to-port="0"/>
		<edge from-layer="2061" from-port="1" to-layer="2062" to-port="1"/>
		<edge from-layer="2062" from-port="2" to-layer="2065" to-port="0"/>
		<edge from-layer="2063" from-port="0" to-layer="2064" to-port="0"/>
		<edge from-layer="2064" from-port="1" to-layer="2065" to-port="1"/>
		<edge from-layer="2065" from-port="2" to-layer="2068" to-port="0"/>
		<edge from-layer="2066" from-port="0" to-layer="2067" to-port="0"/>
		<edge from-layer="2067" from-port="1" to-layer="2068" to-port="1"/>
		<edge from-layer="2068" from-port="2" to-layer="2071" to-port="0"/>
		<edge from-layer="2069" from-port="0" to-layer="2070" to-port="0"/>
		<edge from-layer="2070" from-port="1" to-layer="2071" to-port="1"/>
		<edge from-layer="2071" from-port="2" to-layer="2072" to-port="0"/>
		<edge from-layer="2072" from-port="1" to-layer="2075" to-port="0"/>
		<edge from-layer="2073" from-port="0" to-layer="2074" to-port="0"/>
		<edge from-layer="2074" from-port="1" to-layer="2075" to-port="1"/>
		<edge from-layer="2075" from-port="2" to-layer="2078" to-port="0"/>
		<edge from-layer="2076" from-port="0" to-layer="2077" to-port="0"/>
		<edge from-layer="2077" from-port="1" to-layer="2078" to-port="1"/>
		<edge from-layer="2078" from-port="2" to-layer="2081" to-port="0"/>
		<edge from-layer="2079" from-port="0" to-layer="2080" to-port="0"/>
		<edge from-layer="2080" from-port="1" to-layer="2081" to-port="1"/>
		<edge from-layer="2081" from-port="2" to-layer="2084" to-port="0"/>
		<edge from-layer="2082" from-port="0" to-layer="2083" to-port="0"/>
		<edge from-layer="2083" from-port="1" to-layer="2084" to-port="1"/>
		<edge from-layer="2084" from-port="2" to-layer="2085" to-port="0"/>
		<edge from-layer="2084" from-port="2" to-layer="2085" to-port="1"/>
		<edge from-layer="2085" from-port="2" to-layer="2111" to-port="0"/>
		<edge from-layer="2086" from-port="0" to-layer="2087" to-port="0"/>
		<edge from-layer="2087" from-port="1" to-layer="2088" to-port="1"/>
		<edge from-layer="2088" from-port="2" to-layer="2091" to-port="0"/>
		<edge from-layer="2089" from-port="0" to-layer="2090" to-port="0"/>
		<edge from-layer="2090" from-port="1" to-layer="2091" to-port="1"/>
		<edge from-layer="2091" from-port="2" to-layer="2094" to-port="0"/>
		<edge from-layer="2092" from-port="0" to-layer="2093" to-port="0"/>
		<edge from-layer="2093" from-port="1" to-layer="2094" to-port="1"/>
		<edge from-layer="2094" from-port="2" to-layer="2097" to-port="0"/>
		<edge from-layer="2095" from-port="0" to-layer="2096" to-port="0"/>
		<edge from-layer="2096" from-port="1" to-layer="2097" to-port="1"/>
		<edge from-layer="2097" from-port="2" to-layer="2098" to-port="0"/>
		<edge from-layer="2098" from-port="1" to-layer="2101" to-port="0"/>
		<edge from-layer="2099" from-port="0" to-layer="2100" to-port="0"/>
		<edge from-layer="2100" from-port="1" to-layer="2101" to-port="1"/>
		<edge from-layer="2101" from-port="2" to-layer="2104" to-port="0"/>
		<edge from-layer="2102" from-port="0" to-layer="2103" to-port="0"/>
		<edge from-layer="2103" from-port="1" to-layer="2104" to-port="1"/>
		<edge from-layer="2104" from-port="2" to-layer="2107" to-port="0"/>
		<edge from-layer="2105" from-port="0" to-layer="2106" to-port="0"/>
		<edge from-layer="2106" from-port="1" to-layer="2107" to-port="1"/>
		<edge from-layer="2107" from-port="2" to-layer="2110" to-port="0"/>
		<edge from-layer="2108" from-port="0" to-layer="2109" to-port="0"/>
		<edge from-layer="2109" from-port="1" to-layer="2110" to-port="1"/>
		<edge from-layer="2110" from-port="2" to-layer="2111" to-port="1"/>
		<edge from-layer="2111" from-port="2" to-layer="2124" to-port="0"/>
		<edge from-layer="2112" from-port="0" to-layer="2113" to-port="0"/>
		<edge from-layer="2113" from-port="1" to-layer="2114" to-port="1"/>
		<edge from-layer="2114" from-port="2" to-layer="2117" to-port="0"/>
		<edge from-layer="2115" from-port="0" to-layer="2116" to-port="0"/>
		<edge from-layer="2116" from-port="1" to-layer="2117" to-port="1"/>
		<edge from-layer="2117" from-port="2" to-layer="2120" to-port="0"/>
		<edge from-layer="2118" from-port="0" to-layer="2119" to-port="0"/>
		<edge from-layer="2119" from-port="1" to-layer="2120" to-port="1"/>
		<edge from-layer="2120" from-port="2" to-layer="2123" to-port="0"/>
		<edge from-layer="2121" from-port="0" to-layer="2122" to-port="0"/>
		<edge from-layer="2122" from-port="1" to-layer="2123" to-port="1"/>
		<edge from-layer="2123" from-port="2" to-layer="2124" to-port="1"/>
		<edge from-layer="2124" from-port="2" to-layer="2125" to-port="0"/>
		<edge from-layer="2125" from-port="2" to-layer="2126" to-port="0"/>
		<edge from-layer="2126" from-port="1" to-layer="2128" to-port="0"/>
		<edge from-layer="2127" from-port="0" to-layer="2128" to-port="1"/>
		<edge from-layer="2128" from-port="3" to-layer="2131" to-port="0"/>
		<edge from-layer="2128" from-port="2" to-layer="2149" to-port="0"/>
		<edge from-layer="2129" from-port="0" to-layer="2130" to-port="0"/>
		<edge from-layer="2130" from-port="1" to-layer="2131" to-port="1"/>
		<edge from-layer="2131" from-port="2" to-layer="2134" to-port="0"/>
		<edge from-layer="2132" from-port="0" to-layer="2133" to-port="0"/>
		<edge from-layer="2133" from-port="1" to-layer="2134" to-port="1"/>
		<edge from-layer="2134" from-port="2" to-layer="2135" to-port="0"/>
		<edge from-layer="2135" from-port="1" to-layer="2138" to-port="0"/>
		<edge from-layer="2136" from-port="0" to-layer="2137" to-port="0"/>
		<edge from-layer="2137" from-port="1" to-layer="2138" to-port="1"/>
		<edge from-layer="2138" from-port="2" to-layer="2141" to-port="0"/>
		<edge from-layer="2139" from-port="0" to-layer="2140" to-port="0"/>
		<edge from-layer="2140" from-port="1" to-layer="2141" to-port="1"/>
		<edge from-layer="2141" from-port="2" to-layer="2144" to-port="0"/>
		<edge from-layer="2142" from-port="0" to-layer="2143" to-port="0"/>
		<edge from-layer="2143" from-port="1" to-layer="2144" to-port="1"/>
		<edge from-layer="2144" from-port="2" to-layer="2147" to-port="0"/>
		<edge from-layer="2145" from-port="0" to-layer="2146" to-port="0"/>
		<edge from-layer="2146" from-port="1" to-layer="2147" to-port="1"/>
		<edge from-layer="2147" from-port="2" to-layer="2148" to-port="0"/>
		<edge from-layer="2148" from-port="1" to-layer="2149" to-port="1"/>
		<edge from-layer="2149" from-port="2" to-layer="2151" to-port="0"/>
		<edge from-layer="2150" from-port="0" to-layer="2151" to-port="1"/>
		<edge from-layer="2151" from-port="2" to-layer="2153" to-port="0"/>
		<edge from-layer="2152" from-port="0" to-layer="2153" to-port="1"/>
		<edge from-layer="2153" from-port="2" to-layer="2155" to-port="0"/>
		<edge from-layer="2154" from-port="0" to-layer="2155" to-port="1"/>
		<edge from-layer="2155" from-port="2" to-layer="2157" to-port="0"/>
		<edge from-layer="2156" from-port="0" to-layer="2157" to-port="1"/>
		<edge from-layer="2157" from-port="3" to-layer="2160" to-port="0"/>
		<edge from-layer="2157" from-port="2" to-layer="2178" to-port="0"/>
		<edge from-layer="2158" from-port="0" to-layer="2159" to-port="0"/>
		<edge from-layer="2159" from-port="1" to-layer="2160" to-port="1"/>
		<edge from-layer="2160" from-port="2" to-layer="2163" to-port="0"/>
		<edge from-layer="2161" from-port="0" to-layer="2162" to-port="0"/>
		<edge from-layer="2162" from-port="1" to-layer="2163" to-port="1"/>
		<edge from-layer="2163" from-port="2" to-layer="2164" to-port="0"/>
		<edge from-layer="2164" from-port="1" to-layer="2167" to-port="0"/>
		<edge from-layer="2165" from-port="0" to-layer="2166" to-port="0"/>
		<edge from-layer="2166" from-port="1" to-layer="2167" to-port="1"/>
		<edge from-layer="2167" from-port="2" to-layer="2170" to-port="0"/>
		<edge from-layer="2168" from-port="0" to-layer="2169" to-port="0"/>
		<edge from-layer="2169" from-port="1" to-layer="2170" to-port="1"/>
		<edge from-layer="2170" from-port="2" to-layer="2173" to-port="0"/>
		<edge from-layer="2171" from-port="0" to-layer="2172" to-port="0"/>
		<edge from-layer="2172" from-port="1" to-layer="2173" to-port="1"/>
		<edge from-layer="2173" from-port="2" to-layer="2176" to-port="0"/>
		<edge from-layer="2174" from-port="0" to-layer="2175" to-port="0"/>
		<edge from-layer="2175" from-port="1" to-layer="2176" to-port="1"/>
		<edge from-layer="2176" from-port="2" to-layer="2177" to-port="0"/>
		<edge from-layer="2177" from-port="1" to-layer="2178" to-port="1"/>
		<edge from-layer="2178" from-port="2" to-layer="2180" to-port="0"/>
		<edge from-layer="2179" from-port="0" to-layer="2180" to-port="1"/>
		<edge from-layer="2180" from-port="2" to-layer="2182" to-port="0"/>
		<edge from-layer="2181" from-port="0" to-layer="2182" to-port="1"/>
		<edge from-layer="2182" from-port="2" to-layer="2184" to-port="0"/>
		<edge from-layer="2183" from-port="0" to-layer="2184" to-port="1"/>
		<edge from-layer="2184" from-port="2" to-layer="2228" to-port="0"/>
		<edge from-layer="2184" from-port="2" to-layer="2187" to-port="0"/>
		<edge from-layer="2184" from-port="2" to-layer="2282" to-port="0"/>
		<edge from-layer="2184" from-port="2" to-layer="2372" to-port="1"/>
		<edge from-layer="2185" from-port="0" to-layer="2186" to-port="0"/>
		<edge from-layer="2186" from-port="1" to-layer="2187" to-port="1"/>
		<edge from-layer="2187" from-port="2" to-layer="2190" to-port="0"/>
		<edge from-layer="2188" from-port="0" to-layer="2189" to-port="0"/>
		<edge from-layer="2189" from-port="1" to-layer="2190" to-port="1"/>
		<edge from-layer="2190" from-port="2" to-layer="2191" to-port="0"/>
		<edge from-layer="2190" from-port="2" to-layer="2196" to-port="0"/>
		<edge from-layer="2191" from-port="1" to-layer="2192" to-port="0"/>
		<edge from-layer="2192" from-port="1" to-layer="2194" to-port="0"/>
		<edge from-layer="2193" from-port="0" to-layer="2194" to-port="1"/>
		<edge from-layer="2193" from-port="0" to-layer="2196" to-port="2"/>
		<edge from-layer="2194" from-port="2" to-layer="2195" to-port="0"/>
		<edge from-layer="2195" from-port="1" to-layer="2196" to-port="1"/>
		<edge from-layer="2196" from-port="3" to-layer="2197" to-port="1"/>
		<edge from-layer="2197" from-port="2" to-layer="2198" to-port="0"/>
		<edge from-layer="2197" from-port="2" to-layer="2201" to-port="0"/>
		<edge from-layer="2197" from-port="2" to-layer="2242" to-port="0"/>
		<edge from-layer="2197" from-port="2" to-layer="2296" to-port="0"/>
		<edge from-layer="2198" from-port="1" to-layer="2454" to-port="0"/>
		<edge from-layer="2199" from-port="0" to-layer="2200" to-port="0"/>
		<edge from-layer="2200" from-port="1" to-layer="2201" to-port="1"/>
		<edge from-layer="2201" from-port="2" to-layer="2204" to-port="0"/>
		<edge from-layer="2202" from-port="0" to-layer="2203" to-port="0"/>
		<edge from-layer="2203" from-port="1" to-layer="2204" to-port="1"/>
		<edge from-layer="2204" from-port="2" to-layer="2207" to-port="0"/>
		<edge from-layer="2205" from-port="0" to-layer="2206" to-port="0"/>
		<edge from-layer="2206" from-port="1" to-layer="2207" to-port="1"/>
		<edge from-layer="2207" from-port="2" to-layer="2210" to-port="0"/>
		<edge from-layer="2208" from-port="0" to-layer="2209" to-port="0"/>
		<edge from-layer="2209" from-port="1" to-layer="2210" to-port="1"/>
		<edge from-layer="2210" from-port="2" to-layer="2211" to-port="1"/>
		<edge from-layer="2210" from-port="2" to-layer="2211" to-port="0"/>
		<edge from-layer="2211" from-port="2" to-layer="2212" to-port="0"/>
		<edge from-layer="2212" from-port="2" to-layer="2225" to-port="0"/>
		<edge from-layer="2213" from-port="0" to-layer="2214" to-port="0"/>
		<edge from-layer="2214" from-port="1" to-layer="2215" to-port="1"/>
		<edge from-layer="2215" from-port="2" to-layer="2218" to-port="0"/>
		<edge from-layer="2216" from-port="0" to-layer="2217" to-port="0"/>
		<edge from-layer="2217" from-port="1" to-layer="2218" to-port="1"/>
		<edge from-layer="2218" from-port="2" to-layer="2224" to-port="0"/>
		<edge from-layer="2218" from-port="2" to-layer="2219" to-port="0"/>
		<edge from-layer="2219" from-port="1" to-layer="2220" to-port="0"/>
		<edge from-layer="2220" from-port="1" to-layer="2222" to-port="0"/>
		<edge from-layer="2221" from-port="0" to-layer="2222" to-port="1"/>
		<edge from-layer="2221" from-port="0" to-layer="2224" to-port="2"/>
		<edge from-layer="2222" from-port="2" to-layer="2223" to-port="0"/>
		<edge from-layer="2223" from-port="1" to-layer="2224" to-port="1"/>
		<edge from-layer="2224" from-port="3" to-layer="2225" to-port="1"/>
		<edge from-layer="2225" from-port="2" to-layer="2238" to-port="0"/>
		<edge from-layer="2226" from-port="0" to-layer="2227" to-port="0"/>
		<edge from-layer="2227" from-port="1" to-layer="2228" to-port="1"/>
		<edge from-layer="2228" from-port="2" to-layer="2231" to-port="0"/>
		<edge from-layer="2229" from-port="0" to-layer="2230" to-port="0"/>
		<edge from-layer="2230" from-port="1" to-layer="2231" to-port="1"/>
		<edge from-layer="2231" from-port="2" to-layer="2232" to-port="0"/>
		<edge from-layer="2231" from-port="2" to-layer="2237" to-port="0"/>
		<edge from-layer="2232" from-port="1" to-layer="2233" to-port="0"/>
		<edge from-layer="2233" from-port="1" to-layer="2235" to-port="0"/>
		<edge from-layer="2234" from-port="0" to-layer="2235" to-port="1"/>
		<edge from-layer="2234" from-port="0" to-layer="2237" to-port="2"/>
		<edge from-layer="2235" from-port="2" to-layer="2236" to-port="0"/>
		<edge from-layer="2236" from-port="1" to-layer="2237" to-port="1"/>
		<edge from-layer="2237" from-port="3" to-layer="2238" to-port="1"/>
		<edge from-layer="2238" from-port="2" to-layer="2239" to-port="0"/>
		<edge from-layer="2239" from-port="1" to-layer="2427" to-port="0"/>
		<edge from-layer="2240" from-port="0" to-layer="2241" to-port="0"/>
		<edge from-layer="2241" from-port="1" to-layer="2242" to-port="1"/>
		<edge from-layer="2242" from-port="2" to-layer="2245" to-port="0"/>
		<edge from-layer="2243" from-port="0" to-layer="2244" to-port="0"/>
		<edge from-layer="2244" from-port="1" to-layer="2245" to-port="1"/>
		<edge from-layer="2245" from-port="2" to-layer="2248" to-port="0"/>
		<edge from-layer="2246" from-port="0" to-layer="2247" to-port="0"/>
		<edge from-layer="2247" from-port="1" to-layer="2248" to-port="1"/>
		<edge from-layer="2248" from-port="2" to-layer="2251" to-port="0"/>
		<edge from-layer="2249" from-port="0" to-layer="2250" to-port="0"/>
		<edge from-layer="2250" from-port="1" to-layer="2251" to-port="1"/>
		<edge from-layer="2251" from-port="2" to-layer="2252" to-port="0"/>
		<edge from-layer="2252" from-port="1" to-layer="2255" to-port="0"/>
		<edge from-layer="2253" from-port="0" to-layer="2254" to-port="0"/>
		<edge from-layer="2254" from-port="1" to-layer="2255" to-port="1"/>
		<edge from-layer="2255" from-port="2" to-layer="2258" to-port="0"/>
		<edge from-layer="2256" from-port="0" to-layer="2257" to-port="0"/>
		<edge from-layer="2257" from-port="1" to-layer="2258" to-port="1"/>
		<edge from-layer="2258" from-port="2" to-layer="2261" to-port="0"/>
		<edge from-layer="2259" from-port="0" to-layer="2260" to-port="0"/>
		<edge from-layer="2260" from-port="1" to-layer="2261" to-port="1"/>
		<edge from-layer="2261" from-port="2" to-layer="2264" to-port="0"/>
		<edge from-layer="2262" from-port="0" to-layer="2263" to-port="0"/>
		<edge from-layer="2263" from-port="1" to-layer="2264" to-port="1"/>
		<edge from-layer="2264" from-port="2" to-layer="2265" to-port="0"/>
		<edge from-layer="2264" from-port="2" to-layer="2265" to-port="1"/>
		<edge from-layer="2265" from-port="2" to-layer="2278" to-port="0"/>
		<edge from-layer="2266" from-port="0" to-layer="2267" to-port="0"/>
		<edge from-layer="2267" from-port="1" to-layer="2268" to-port="1"/>
		<edge from-layer="2268" from-port="2" to-layer="2271" to-port="0"/>
		<edge from-layer="2269" from-port="0" to-layer="2270" to-port="0"/>
		<edge from-layer="2270" from-port="1" to-layer="2271" to-port="1"/>
		<edge from-layer="2271" from-port="2" to-layer="2274" to-port="0"/>
		<edge from-layer="2272" from-port="0" to-layer="2273" to-port="0"/>
		<edge from-layer="2273" from-port="1" to-layer="2274" to-port="1"/>
		<edge from-layer="2274" from-port="2" to-layer="2277" to-port="0"/>
		<edge from-layer="2275" from-port="0" to-layer="2276" to-port="0"/>
		<edge from-layer="2276" from-port="1" to-layer="2277" to-port="1"/>
		<edge from-layer="2277" from-port="2" to-layer="2278" to-port="1"/>
		<edge from-layer="2278" from-port="2" to-layer="2279" to-port="0"/>
		<edge from-layer="2279" from-port="2" to-layer="2292" to-port="0"/>
		<edge from-layer="2280" from-port="0" to-layer="2281" to-port="0"/>
		<edge from-layer="2281" from-port="1" to-layer="2282" to-port="1"/>
		<edge from-layer="2282" from-port="2" to-layer="2285" to-port="0"/>
		<edge from-layer="2283" from-port="0" to-layer="2284" to-port="0"/>
		<edge from-layer="2284" from-port="1" to-layer="2285" to-port="1"/>
		<edge from-layer="2285" from-port="2" to-layer="2286" to-port="0"/>
		<edge from-layer="2285" from-port="2" to-layer="2291" to-port="0"/>
		<edge from-layer="2286" from-port="1" to-layer="2287" to-port="0"/>
		<edge from-layer="2287" from-port="1" to-layer="2289" to-port="0"/>
		<edge from-layer="2288" from-port="0" to-layer="2289" to-port="1"/>
		<edge from-layer="2288" from-port="0" to-layer="2291" to-port="2"/>
		<edge from-layer="2289" from-port="2" to-layer="2290" to-port="0"/>
		<edge from-layer="2290" from-port="1" to-layer="2291" to-port="1"/>
		<edge from-layer="2291" from-port="3" to-layer="2292" to-port="1"/>
		<edge from-layer="2292" from-port="2" to-layer="2293" to-port="0"/>
		<edge from-layer="2293" from-port="1" to-layer="2400" to-port="0"/>
		<edge from-layer="2294" from-port="0" to-layer="2295" to-port="0"/>
		<edge from-layer="2295" from-port="1" to-layer="2296" to-port="1"/>
		<edge from-layer="2296" from-port="2" to-layer="2299" to-port="0"/>
		<edge from-layer="2297" from-port="0" to-layer="2298" to-port="0"/>
		<edge from-layer="2298" from-port="1" to-layer="2299" to-port="1"/>
		<edge from-layer="2299" from-port="2" to-layer="2302" to-port="0"/>
		<edge from-layer="2300" from-port="0" to-layer="2301" to-port="0"/>
		<edge from-layer="2301" from-port="1" to-layer="2302" to-port="1"/>
		<edge from-layer="2302" from-port="2" to-layer="2305" to-port="0"/>
		<edge from-layer="2303" from-port="0" to-layer="2304" to-port="0"/>
		<edge from-layer="2304" from-port="1" to-layer="2305" to-port="1"/>
		<edge from-layer="2305" from-port="2" to-layer="2306" to-port="0"/>
		<edge from-layer="2306" from-port="1" to-layer="2309" to-port="0"/>
		<edge from-layer="2307" from-port="0" to-layer="2308" to-port="0"/>
		<edge from-layer="2308" from-port="1" to-layer="2309" to-port="1"/>
		<edge from-layer="2309" from-port="2" to-layer="2312" to-port="0"/>
		<edge from-layer="2310" from-port="0" to-layer="2311" to-port="0"/>
		<edge from-layer="2311" from-port="1" to-layer="2312" to-port="1"/>
		<edge from-layer="2312" from-port="2" to-layer="2315" to-port="0"/>
		<edge from-layer="2313" from-port="0" to-layer="2314" to-port="0"/>
		<edge from-layer="2314" from-port="1" to-layer="2315" to-port="1"/>
		<edge from-layer="2315" from-port="2" to-layer="2318" to-port="0"/>
		<edge from-layer="2316" from-port="0" to-layer="2317" to-port="0"/>
		<edge from-layer="2317" from-port="1" to-layer="2318" to-port="1"/>
		<edge from-layer="2318" from-port="2" to-layer="2319" to-port="0"/>
		<edge from-layer="2319" from-port="1" to-layer="2322" to-port="0"/>
		<edge from-layer="2320" from-port="0" to-layer="2321" to-port="0"/>
		<edge from-layer="2321" from-port="1" to-layer="2322" to-port="1"/>
		<edge from-layer="2322" from-port="2" to-layer="2325" to-port="0"/>
		<edge from-layer="2323" from-port="0" to-layer="2324" to-port="0"/>
		<edge from-layer="2324" from-port="1" to-layer="2325" to-port="1"/>
		<edge from-layer="2325" from-port="2" to-layer="2328" to-port="0"/>
		<edge from-layer="2326" from-port="0" to-layer="2327" to-port="0"/>
		<edge from-layer="2327" from-port="1" to-layer="2328" to-port="1"/>
		<edge from-layer="2328" from-port="2" to-layer="2331" to-port="0"/>
		<edge from-layer="2329" from-port="0" to-layer="2330" to-port="0"/>
		<edge from-layer="2330" from-port="1" to-layer="2331" to-port="1"/>
		<edge from-layer="2331" from-port="2" to-layer="2332" to-port="0"/>
		<edge from-layer="2331" from-port="2" to-layer="2332" to-port="1"/>
		<edge from-layer="2332" from-port="2" to-layer="2358" to-port="0"/>
		<edge from-layer="2333" from-port="0" to-layer="2334" to-port="0"/>
		<edge from-layer="2334" from-port="1" to-layer="2335" to-port="1"/>
		<edge from-layer="2335" from-port="2" to-layer="2338" to-port="0"/>
		<edge from-layer="2336" from-port="0" to-layer="2337" to-port="0"/>
		<edge from-layer="2337" from-port="1" to-layer="2338" to-port="1"/>
		<edge from-layer="2338" from-port="2" to-layer="2341" to-port="0"/>
		<edge from-layer="2339" from-port="0" to-layer="2340" to-port="0"/>
		<edge from-layer="2340" from-port="1" to-layer="2341" to-port="1"/>
		<edge from-layer="2341" from-port="2" to-layer="2344" to-port="0"/>
		<edge from-layer="2342" from-port="0" to-layer="2343" to-port="0"/>
		<edge from-layer="2343" from-port="1" to-layer="2344" to-port="1"/>
		<edge from-layer="2344" from-port="2" to-layer="2345" to-port="0"/>
		<edge from-layer="2345" from-port="1" to-layer="2348" to-port="0"/>
		<edge from-layer="2346" from-port="0" to-layer="2347" to-port="0"/>
		<edge from-layer="2347" from-port="1" to-layer="2348" to-port="1"/>
		<edge from-layer="2348" from-port="2" to-layer="2351" to-port="0"/>
		<edge from-layer="2349" from-port="0" to-layer="2350" to-port="0"/>
		<edge from-layer="2350" from-port="1" to-layer="2351" to-port="1"/>
		<edge from-layer="2351" from-port="2" to-layer="2354" to-port="0"/>
		<edge from-layer="2352" from-port="0" to-layer="2353" to-port="0"/>
		<edge from-layer="2353" from-port="1" to-layer="2354" to-port="1"/>
		<edge from-layer="2354" from-port="2" to-layer="2357" to-port="0"/>
		<edge from-layer="2355" from-port="0" to-layer="2356" to-port="0"/>
		<edge from-layer="2356" from-port="1" to-layer="2357" to-port="1"/>
		<edge from-layer="2357" from-port="2" to-layer="2358" to-port="1"/>
		<edge from-layer="2358" from-port="2" to-layer="2371" to-port="0"/>
		<edge from-layer="2359" from-port="0" to-layer="2360" to-port="0"/>
		<edge from-layer="2360" from-port="1" to-layer="2361" to-port="1"/>
		<edge from-layer="2361" from-port="2" to-layer="2364" to-port="0"/>
		<edge from-layer="2362" from-port="0" to-layer="2363" to-port="0"/>
		<edge from-layer="2363" from-port="1" to-layer="2364" to-port="1"/>
		<edge from-layer="2364" from-port="2" to-layer="2367" to-port="0"/>
		<edge from-layer="2365" from-port="0" to-layer="2366" to-port="0"/>
		<edge from-layer="2366" from-port="1" to-layer="2367" to-port="1"/>
		<edge from-layer="2367" from-port="2" to-layer="2370" to-port="0"/>
		<edge from-layer="2368" from-port="0" to-layer="2369" to-port="0"/>
		<edge from-layer="2369" from-port="1" to-layer="2370" to-port="1"/>
		<edge from-layer="2370" from-port="2" to-layer="2371" to-port="1"/>
		<edge from-layer="2371" from-port="2" to-layer="2372" to-port="0"/>
		<edge from-layer="2372" from-port="2" to-layer="2373" to-port="0"/>
		<edge from-layer="2373" from-port="1" to-layer="2376" to-port="0"/>
		<edge from-layer="2374" from-port="0" to-layer="2375" to-port="0"/>
		<edge from-layer="2375" from-port="1" to-layer="2376" to-port="1"/>
		<edge from-layer="2376" from-port="2" to-layer="2379" to-port="0"/>
		<edge from-layer="2377" from-port="0" to-layer="2378" to-port="0"/>
		<edge from-layer="2378" from-port="1" to-layer="2379" to-port="1"/>
		<edge from-layer="2379" from-port="2" to-layer="2382" to-port="0"/>
		<edge from-layer="2380" from-port="0" to-layer="2381" to-port="0"/>
		<edge from-layer="2381" from-port="1" to-layer="2382" to-port="1"/>
		<edge from-layer="2382" from-port="2" to-layer="2385" to-port="0"/>
		<edge from-layer="2383" from-port="0" to-layer="2384" to-port="0"/>
		<edge from-layer="2384" from-port="1" to-layer="2385" to-port="1"/>
		<edge from-layer="2385" from-port="2" to-layer="2386" to-port="0"/>
		<edge from-layer="2386" from-port="1" to-layer="2387" to-port="0"/>
		<edge from-layer="2386" from-port="1" to-layer="2399" to-port="0"/>
		<edge from-layer="2387" from-port="1" to-layer="2391" to-port="0"/>
		<edge from-layer="2387" from-port="1" to-layer="2395" to-port="0"/>
		<edge from-layer="2388" from-port="0" to-layer="2391" to-port="1"/>
		<edge from-layer="2389" from-port="0" to-layer="2391" to-port="2"/>
		<edge from-layer="2390" from-port="0" to-layer="2391" to-port="3"/>
		<edge from-layer="2391" from-port="4" to-layer="2393" to-port="0"/>
		<edge from-layer="2392" from-port="0" to-layer="2393" to-port="1"/>
		<edge from-layer="2393" from-port="2" to-layer="2399" to-port="1"/>
		<edge from-layer="2393" from-port="2" to-layer="2394" to-port="0"/>
		<edge from-layer="2394" from-port="1" to-layer="2396" to-port="0"/>
		<edge from-layer="2395" from-port="1" to-layer="2396" to-port="1"/>
		<edge from-layer="2396" from-port="2" to-layer="2398" to-port="0"/>
		<edge from-layer="2397" from-port="0" to-layer="2398" to-port="1"/>
		<edge from-layer="2398" from-port="2" to-layer="2399" to-port="2"/>
		<edge from-layer="2399" from-port="3" to-layer="2400" to-port="1"/>
		<edge from-layer="2400" from-port="2" to-layer="2403" to-port="0"/>
		<edge from-layer="2401" from-port="0" to-layer="2402" to-port="0"/>
		<edge from-layer="2402" from-port="1" to-layer="2403" to-port="1"/>
		<edge from-layer="2403" from-port="2" to-layer="2406" to-port="0"/>
		<edge from-layer="2404" from-port="0" to-layer="2405" to-port="0"/>
		<edge from-layer="2405" from-port="1" to-layer="2406" to-port="1"/>
		<edge from-layer="2406" from-port="2" to-layer="2409" to-port="0"/>
		<edge from-layer="2407" from-port="0" to-layer="2408" to-port="0"/>
		<edge from-layer="2408" from-port="1" to-layer="2409" to-port="1"/>
		<edge from-layer="2409" from-port="2" to-layer="2412" to-port="0"/>
		<edge from-layer="2410" from-port="0" to-layer="2411" to-port="0"/>
		<edge from-layer="2411" from-port="1" to-layer="2412" to-port="1"/>
		<edge from-layer="2412" from-port="2" to-layer="2413" to-port="0"/>
		<edge from-layer="2413" from-port="1" to-layer="2414" to-port="0"/>
		<edge from-layer="2413" from-port="1" to-layer="2426" to-port="0"/>
		<edge from-layer="2414" from-port="1" to-layer="2422" to-port="0"/>
		<edge from-layer="2414" from-port="1" to-layer="2418" to-port="0"/>
		<edge from-layer="2415" from-port="0" to-layer="2418" to-port="1"/>
		<edge from-layer="2416" from-port="0" to-layer="2418" to-port="2"/>
		<edge from-layer="2417" from-port="0" to-layer="2418" to-port="3"/>
		<edge from-layer="2418" from-port="4" to-layer="2420" to-port="0"/>
		<edge from-layer="2419" from-port="0" to-layer="2420" to-port="1"/>
		<edge from-layer="2420" from-port="2" to-layer="2421" to-port="0"/>
		<edge from-layer="2420" from-port="2" to-layer="2426" to-port="1"/>
		<edge from-layer="2421" from-port="1" to-layer="2423" to-port="0"/>
		<edge from-layer="2422" from-port="1" to-layer="2423" to-port="1"/>
		<edge from-layer="2423" from-port="2" to-layer="2425" to-port="0"/>
		<edge from-layer="2424" from-port="0" to-layer="2425" to-port="1"/>
		<edge from-layer="2425" from-port="2" to-layer="2426" to-port="2"/>
		<edge from-layer="2426" from-port="3" to-layer="2427" to-port="1"/>
		<edge from-layer="2427" from-port="2" to-layer="2430" to-port="0"/>
		<edge from-layer="2428" from-port="0" to-layer="2429" to-port="0"/>
		<edge from-layer="2429" from-port="1" to-layer="2430" to-port="1"/>
		<edge from-layer="2430" from-port="2" to-layer="2433" to-port="0"/>
		<edge from-layer="2431" from-port="0" to-layer="2432" to-port="0"/>
		<edge from-layer="2432" from-port="1" to-layer="2433" to-port="1"/>
		<edge from-layer="2433" from-port="2" to-layer="2436" to-port="0"/>
		<edge from-layer="2434" from-port="0" to-layer="2435" to-port="0"/>
		<edge from-layer="2435" from-port="1" to-layer="2436" to-port="1"/>
		<edge from-layer="2436" from-port="2" to-layer="2439" to-port="0"/>
		<edge from-layer="2437" from-port="0" to-layer="2438" to-port="0"/>
		<edge from-layer="2438" from-port="1" to-layer="2439" to-port="1"/>
		<edge from-layer="2439" from-port="2" to-layer="2440" to-port="0"/>
		<edge from-layer="2440" from-port="1" to-layer="2441" to-port="0"/>
		<edge from-layer="2440" from-port="1" to-layer="2453" to-port="0"/>
		<edge from-layer="2441" from-port="1" to-layer="2445" to-port="0"/>
		<edge from-layer="2441" from-port="1" to-layer="2449" to-port="0"/>
		<edge from-layer="2442" from-port="0" to-layer="2445" to-port="1"/>
		<edge from-layer="2443" from-port="0" to-layer="2445" to-port="2"/>
		<edge from-layer="2444" from-port="0" to-layer="2445" to-port="3"/>
		<edge from-layer="2445" from-port="4" to-layer="2447" to-port="0"/>
		<edge from-layer="2446" from-port="0" to-layer="2447" to-port="1"/>
		<edge from-layer="2447" from-port="2" to-layer="2448" to-port="0"/>
		<edge from-layer="2447" from-port="2" to-layer="2453" to-port="1"/>
		<edge from-layer="2448" from-port="1" to-layer="2450" to-port="0"/>
		<edge from-layer="2449" from-port="1" to-layer="2450" to-port="1"/>
		<edge from-layer="2450" from-port="2" to-layer="2452" to-port="0"/>
		<edge from-layer="2451" from-port="0" to-layer="2452" to-port="1"/>
		<edge from-layer="2452" from-port="2" to-layer="2453" to-port="2"/>
		<edge from-layer="2453" from-port="3" to-layer="2454" to-port="1"/>
		<edge from-layer="2454" from-port="2" to-layer="2457" to-port="0"/>
		<edge from-layer="2455" from-port="0" to-layer="2456" to-port="0"/>
		<edge from-layer="2456" from-port="1" to-layer="2457" to-port="1"/>
		<edge from-layer="2457" from-port="2" to-layer="2460" to-port="0"/>
		<edge from-layer="2458" from-port="0" to-layer="2459" to-port="0"/>
		<edge from-layer="2459" from-port="1" to-layer="2460" to-port="1"/>
		<edge from-layer="2460" from-port="2" to-layer="2463" to-port="0"/>
		<edge from-layer="2461" from-port="0" to-layer="2462" to-port="0"/>
		<edge from-layer="2462" from-port="1" to-layer="2463" to-port="1"/>
		<edge from-layer="2463" from-port="2" to-layer="2466" to-port="0"/>
		<edge from-layer="2464" from-port="0" to-layer="2465" to-port="0"/>
		<edge from-layer="2465" from-port="1" to-layer="2466" to-port="1"/>
		<edge from-layer="2466" from-port="2" to-layer="2467" to-port="0"/>
		<edge from-layer="2467" from-port="1" to-layer="2470" to-port="0"/>
		<edge from-layer="2468" from-port="0" to-layer="2469" to-port="0"/>
		<edge from-layer="2469" from-port="1" to-layer="2470" to-port="1"/>
		<edge from-layer="2470" from-port="2" to-layer="2473" to-port="0"/>
		<edge from-layer="2471" from-port="0" to-layer="2472" to-port="0"/>
		<edge from-layer="2472" from-port="1" to-layer="2473" to-port="1"/>
		<edge from-layer="2473" from-port="2" to-layer="2475" to-port="0"/>
		<edge from-layer="2473" from-port="2" to-layer="2481" to-port="0"/>
		<edge from-layer="2474" from-port="0" to-layer="2475" to-port="1"/>
		<edge from-layer="2475" from-port="2" to-layer="2477" to-port="0"/>
		<edge from-layer="2476" from-port="0" to-layer="2477" to-port="1"/>
		<edge from-layer="2477" from-port="3" to-layer="2479" to-port="0"/>
		<edge from-layer="2478" from-port="0" to-layer="2479" to-port="1"/>
		<edge from-layer="2479" from-port="2" to-layer="2480" to-port="0"/>
	</edges>
	<meta_data>
		<MO_version value="2022.2.0-7713-af16ea1d79a-releases/2022/2"/>
		<Runtime_version value="2022.2.0-7713-af16ea1d79a-releases/2022/2"/>
		<legacy_path value="False"/>
		<cli_parameters>
			<caffe_parser_path value="DIR"/>
			<compress_fp16 value="True"/>
			<data_type value="FP32"/>
			<disable_nhwc_to_nchw value="False"/>
			<disable_omitting_optional value="False"/>
			<disable_resnet_optimization value="False"/>
			<disable_weights_compression value="False"/>
			<enable_concat_optimization value="False"/>
			<enable_flattening_nested_params value="False"/>
			<enable_ssd_gluoncv value="False"/>
			<extensions value="DIR"/>
			<framework value="paddle"/>
			<freeze_placeholder_with_value value="{}"/>
			<input_model value="DIR\model.pdmodel"/>
			<input_model_is_text value="False"/>
			<input_shape value="[1,3,256,192]"/>
			<k value="DIR\CustomLayersMapping.xml"/>
			<layout value="()"/>
			<layout_values value="{}"/>
			<legacy_mxnet_model value="False"/>
			<log_level value="ERROR"/>
			<mean_scale_values value="{}"/>
			<mean_values value="()"/>
			<model_name value="model"/>
			<output_dir value="DIR"/>
			<placeholder_data_types value="{}"/>
			<placeholder_shapes value="(1, 3, 256, 192)"/>
			<progress value="False"/>
			<remove_memory value="False"/>
			<remove_output_softmax value="False"/>
			<reverse_input_channels value="False"/>
			<save_params_from_nd value="False"/>
			<scale_values value="()"/>
			<silent value="False"/>
			<source_layout value="()"/>
			<static_shape value="False"/>
			<stream_output value="False"/>
			<target_layout value="()"/>
			<transform value=""/>
			<use_legacy_frontend value="False"/>
			<use_new_frontend value="False"/>
			<unset unset_cli_parameters="batch, counts, disable_fusing, finegrain_fusing, input, input_checkpoint, input_meta_graph, input_proto, input_symbol, mean_file, mean_file_offsets, nd_prefix_name, output, pretrained_model_name, saved_model_dir, saved_model_tags, scale, tensorboard_logdir, tensorflow_custom_layer_libraries, tensorflow_custom_operations_config_update, tensorflow_object_detection_api_pipeline_config, tensorflow_use_custom_operations_config, transformations_config"/>
		</cli_parameters>
	</meta_data>
</net>
