<?xml version="1.0" ?>
<net name="paddle-onnx" version="11">
	<layers>
		<layer id="0" name="image" type="Parameter" version="opset1">
			<data shape="?,3,128,96" element_type="f32"/>
			<rt_info>
				<attribute name="fused_names" version="0" value="image"/>
			</rt_info>
			<output>
				<port id="0" precision="FP32" names="image">
					<dim>-1</dim>
					<dim>3</dim>
					<dim>128</dim>
					<dim>96</dim>
				</port>
			</output>
		</layer>
		<layer id="1" name="Multiply_56594" type="Const" version="opset1">
			<data element_type="f32" shape="32, 3, 3, 3" offset="0" size="3456"/>
			<output>
				<port id="0" precision="FP32">
					<dim>32</dim>
					<dim>3</dim>
					<dim>3</dim>
					<dim>3</dim>
				</port>
			</output>
		</layer>
		<layer id="2" name="Multiply_54711" type="Convolution" version="opset1">
			<data strides="2, 2" dilations="1, 1" pads_begin="1, 1" pads_end="1, 1" auto_pad="explicit"/>
			<rt_info>
				<attribute name="fused_names" version="0" value="batch_norm2d_0.b_0, batch_norm2d_0.w_0, batch_norm2d_0.w_1, batch_norm2d_0.w_2, batch_norm_0.tmp_2, conv2d_269.tmp_0"/>
			</rt_info>
			<input>
				<port id="0" precision="FP32">
					<dim>-1</dim>
					<dim>3</dim>
					<dim>128</dim>
					<dim>96</dim>
				</port>
				<port id="1" precision="FP32">
					<dim>32</dim>
					<dim>3</dim>
					<dim>3</dim>
					<dim>3</dim>
				</port>
			</input>
			<output>
				<port id="2" precision="FP32">
					<dim>-1</dim>
					<dim>32</dim>
					<dim>64</dim>
					<dim>48</dim>
				</port>
			</output>
		</layer>
		<layer id="3" name="Constant_54716" type="Const" version="opset1">
			<data element_type="f32" shape="1, 32, 1, 1" offset="3456" size="128"/>
			<output>
				<port id="0" precision="FP32">
					<dim>1</dim>
					<dim>32</dim>
					<dim>1</dim>
					<dim>1</dim>
				</port>
			</output>
		</layer>
		<layer id="4" name="batch_norm_0.tmp_2" type="Add" version="opset1">
			<data auto_broadcast="numpy"/>
			<rt_info>
				<attribute name="fused_names" version="0" value="batch_norm2d_0.b_0, batch_norm2d_0.w_0, batch_norm2d_0.w_1, batch_norm2d_0.w_2, batch_norm_0.tmp_2"/>
			</rt_info>
			<input>
				<port id="0" precision="FP32">
					<dim>-1</dim>
					<dim>32</dim>
					<dim>64</dim>
					<dim>48</dim>
				</port>
				<port id="1" precision="FP32">
					<dim>1</dim>
					<dim>32</dim>
					<dim>1</dim>
					<dim>1</dim>
				</port>
			</input>
			<output>
				<port id="2" precision="FP32" names="batch_norm_0.tmp_2">
					<dim>-1</dim>
					<dim>32</dim>
					<dim>64</dim>
					<dim>48</dim>
				</port>
			</output>
		</layer>
		<layer id="5" name="relu_0.tmp_0" type="ReLU" version="opset1">
			<rt_info>
				<attribute name="fused_names" version="0" value="relu_0.tmp_0"/>
			</rt_info>
			<input>
				<port id="0" precision="FP32">
					<dim>-1</dim>
					<dim>32</dim>
					<dim>64</dim>
					<dim>48</dim>
				</port>
			</input>
			<output>
				<port id="1" precision="FP32" names="relu_0.tmp_0">
					<dim>-1</dim>
					<dim>32</dim>
					<dim>64</dim>
					<dim>48</dim>
				</port>
			</output>
		</layer>
		<layer id="6" name="Constant_1347" type="Const" version="opset1">
			<data element_type="i64" shape="" offset="3584" size="8"/>
			<rt_info>
				<attribute name="fused_names" version="0" value="Constant_1347"/>
			</rt_info>
			<output>
				<port id="0" precision="I64"/>
			</output>
		</layer>
		<layer id="7" name="split_0.tmp_1" type="Split" version="opset1">
			<data num_splits="2"/>
			<rt_info>
				<attribute name="fused_names" version="0" value="split_0.tmp_1"/>
			</rt_info>
			<input>
				<port id="0" precision="FP32">
					<dim>-1</dim>
					<dim>32</dim>
					<dim>64</dim>
					<dim>48</dim>
				</port>
				<port id="1" precision="I64"/>
			</input>
			<output>
				<port id="2" precision="FP32" names="split_0.tmp_0">
					<dim>-1</dim>
					<dim>16</dim>
					<dim>64</dim>
					<dim>48</dim>
				</port>
				<port id="3" precision="FP32" names="split_0.tmp_1">
					<dim>-1</dim>
					<dim>16</dim>
					<dim>64</dim>
					<dim>48</dim>
				</port>
			</output>
		</layer>
		<layer id="8" name="Multiply_56603" type="Const" version="opset1">
			<data element_type="f32" shape="16, 1, 1, 3, 3" offset="3592" size="576"/>
			<output>
				<port id="0" precision="FP32">
					<dim>16</dim>
					<dim>1</dim>
					<dim>1</dim>
					<dim>3</dim>
					<dim>3</dim>
				</port>
			</output>
		</layer>
		<layer id="9" name="Multiply_54718" type="GroupConvolution" version="opset1">
			<data strides="2, 2" pads_begin="1, 1" pads_end="1, 1" dilations="1, 1" auto_pad="explicit"/>
			<rt_info>
				<attribute name="fused_names" version="0" value="batch_norm2d_1.b_0, batch_norm2d_1.w_0, batch_norm2d_1.w_1, batch_norm2d_1.w_2, batch_norm_1.tmp_2"/>
			</rt_info>
			<input>
				<port id="0" precision="FP32">
					<dim>-1</dim>
					<dim>16</dim>
					<dim>64</dim>
					<dim>48</dim>
				</port>
				<port id="1" precision="FP32">
					<dim>16</dim>
					<dim>1</dim>
					<dim>1</dim>
					<dim>3</dim>
					<dim>3</dim>
				</port>
			</input>
			<output>
				<port id="2" precision="FP32" names="depthwise_conv2d_0.tmp_0">
					<dim>-1</dim>
					<dim>16</dim>
					<dim>32</dim>
					<dim>24</dim>
				</port>
			</output>
		</layer>
		<layer id="10" name="Constant_54723" type="Const" version="opset1">
			<data element_type="f32" shape="1, 16, 1, 1" offset="4168" size="64"/>
			<output>
				<port id="0" precision="FP32">
					<dim>1</dim>
					<dim>16</dim>
					<dim>1</dim>
					<dim>1</dim>
				</port>
			</output>
		</layer>
		<layer id="11" name="batch_norm_1.tmp_2" type="Add" version="opset1">
			<data auto_broadcast="numpy"/>
			<rt_info>
				<attribute name="fused_names" version="0" value="batch_norm2d_1.b_0, batch_norm2d_1.w_0, batch_norm2d_1.w_1, batch_norm2d_1.w_2, batch_norm_1.tmp_2"/>
			</rt_info>
			<input>
				<port id="0" precision="FP32">
					<dim>-1</dim>
					<dim>16</dim>
					<dim>32</dim>
					<dim>24</dim>
				</port>
				<port id="1" precision="FP32">
					<dim>1</dim>
					<dim>16</dim>
					<dim>1</dim>
					<dim>1</dim>
				</port>
			</input>
			<output>
				<port id="2" precision="FP32" names="batch_norm_1.tmp_2">
					<dim>-1</dim>
					<dim>16</dim>
					<dim>32</dim>
					<dim>24</dim>
				</port>
			</output>
		</layer>
		<layer id="12" name="Multiply_56611" type="Const" version="opset1">
			<data element_type="f32" shape="16, 16, 1, 1" offset="4232" size="1024"/>
			<output>
				<port id="0" precision="FP32">
					<dim>16</dim>
					<dim>16</dim>
					<dim>1</dim>
					<dim>1</dim>
				</port>
			</output>
		</layer>
		<layer id="13" name="Multiply_54725" type="Convolution" version="opset1">
			<data strides="1, 1" dilations="1, 1" pads_begin="0, 0" pads_end="0, 0" auto_pad="explicit"/>
			<rt_info>
				<attribute name="fused_names" version="0" value="batch_norm2d_2.b_0, batch_norm2d_2.w_0, batch_norm2d_2.w_1, batch_norm2d_2.w_2, batch_norm_2.tmp_2, conv2d_270.tmp_0"/>
			</rt_info>
			<input>
				<port id="0" precision="FP32">
					<dim>-1</dim>
					<dim>16</dim>
					<dim>32</dim>
					<dim>24</dim>
				</port>
				<port id="1" precision="FP32">
					<dim>16</dim>
					<dim>16</dim>
					<dim>1</dim>
					<dim>1</dim>
				</port>
			</input>
			<output>
				<port id="2" precision="FP32">
					<dim>-1</dim>
					<dim>16</dim>
					<dim>32</dim>
					<dim>24</dim>
				</port>
			</output>
		</layer>
		<layer id="14" name="Constant_54730" type="Const" version="opset1">
			<data element_type="f32" shape="1, 16, 1, 1" offset="5256" size="64"/>
			<output>
				<port id="0" precision="FP32">
					<dim>1</dim>
					<dim>16</dim>
					<dim>1</dim>
					<dim>1</dim>
				</port>
			</output>
		</layer>
		<layer id="15" name="batch_norm_2.tmp_2" type="Add" version="opset1">
			<data auto_broadcast="numpy"/>
			<rt_info>
				<attribute name="fused_names" version="0" value="batch_norm2d_2.b_0, batch_norm2d_2.w_0, batch_norm2d_2.w_1, batch_norm2d_2.w_2, batch_norm_2.tmp_2"/>
			</rt_info>
			<input>
				<port id="0" precision="FP32">
					<dim>-1</dim>
					<dim>16</dim>
					<dim>32</dim>
					<dim>24</dim>
				</port>
				<port id="1" precision="FP32">
					<dim>1</dim>
					<dim>16</dim>
					<dim>1</dim>
					<dim>1</dim>
				</port>
			</input>
			<output>
				<port id="2" precision="FP32" names="batch_norm_2.tmp_2">
					<dim>-1</dim>
					<dim>16</dim>
					<dim>32</dim>
					<dim>24</dim>
				</port>
			</output>
		</layer>
		<layer id="16" name="relu_1.tmp_0" type="ReLU" version="opset1">
			<rt_info>
				<attribute name="fused_names" version="0" value="relu_1.tmp_0"/>
			</rt_info>
			<input>
				<port id="0" precision="FP32">
					<dim>-1</dim>
					<dim>16</dim>
					<dim>32</dim>
					<dim>24</dim>
				</port>
			</input>
			<output>
				<port id="1" precision="FP32" names="relu_1.tmp_0">
					<dim>-1</dim>
					<dim>16</dim>
					<dim>32</dim>
					<dim>24</dim>
				</port>
			</output>
		</layer>
		<layer id="17" name="Multiply_56620" type="Const" version="opset1">
			<data element_type="f32" shape="32, 16, 1, 1" offset="5320" size="2048"/>
			<output>
				<port id="0" precision="FP32">
					<dim>32</dim>
					<dim>16</dim>
					<dim>1</dim>
					<dim>1</dim>
				</port>
			</output>
		</layer>
		<layer id="18" name="Multiply_54732" type="Convolution" version="opset1">
			<data strides="1, 1" dilations="1, 1" pads_begin="0, 0" pads_end="0, 0" auto_pad="explicit"/>
			<rt_info>
				<attribute name="fused_names" version="0" value="batch_norm2d_3.b_0, batch_norm2d_3.w_0, batch_norm2d_3.w_1, batch_norm2d_3.w_2, batch_norm_3.tmp_2, conv2d_271.tmp_0"/>
			</rt_info>
			<input>
				<port id="0" precision="FP32">
					<dim>-1</dim>
					<dim>16</dim>
					<dim>64</dim>
					<dim>48</dim>
				</port>
				<port id="1" precision="FP32">
					<dim>32</dim>
					<dim>16</dim>
					<dim>1</dim>
					<dim>1</dim>
				</port>
			</input>
			<output>
				<port id="2" precision="FP32">
					<dim>-1</dim>
					<dim>32</dim>
					<dim>64</dim>
					<dim>48</dim>
				</port>
			</output>
		</layer>
		<layer id="19" name="Constant_54737" type="Const" version="opset1">
			<data element_type="f32" shape="1, 32, 1, 1" offset="7368" size="128"/>
			<output>
				<port id="0" precision="FP32">
					<dim>1</dim>
					<dim>32</dim>
					<dim>1</dim>
					<dim>1</dim>
				</port>
			</output>
		</layer>
		<layer id="20" name="batch_norm_3.tmp_2" type="Add" version="opset1">
			<data auto_broadcast="numpy"/>
			<rt_info>
				<attribute name="fused_names" version="0" value="batch_norm2d_3.b_0, batch_norm2d_3.w_0, batch_norm2d_3.w_1, batch_norm2d_3.w_2, batch_norm_3.tmp_2"/>
			</rt_info>
			<input>
				<port id="0" precision="FP32">
					<dim>-1</dim>
					<dim>32</dim>
					<dim>64</dim>
					<dim>48</dim>
				</port>
				<port id="1" precision="FP32">
					<dim>1</dim>
					<dim>32</dim>
					<dim>1</dim>
					<dim>1</dim>
				</port>
			</input>
			<output>
				<port id="2" precision="FP32" names="batch_norm_3.tmp_2">
					<dim>-1</dim>
					<dim>32</dim>
					<dim>64</dim>
					<dim>48</dim>
				</port>
			</output>
		</layer>
		<layer id="21" name="relu_2.tmp_0" type="ReLU" version="opset1">
			<rt_info>
				<attribute name="fused_names" version="0" value="relu_2.tmp_0"/>
			</rt_info>
			<input>
				<port id="0" precision="FP32">
					<dim>-1</dim>
					<dim>32</dim>
					<dim>64</dim>
					<dim>48</dim>
				</port>
			</input>
			<output>
				<port id="1" precision="FP32" names="relu_2.tmp_0">
					<dim>-1</dim>
					<dim>32</dim>
					<dim>64</dim>
					<dim>48</dim>
				</port>
			</output>
		</layer>
		<layer id="22" name="Multiply_56629" type="Const" version="opset1">
			<data element_type="f32" shape="32, 1, 1, 3, 3" offset="7496" size="1152"/>
			<output>
				<port id="0" precision="FP32">
					<dim>32</dim>
					<dim>1</dim>
					<dim>1</dim>
					<dim>3</dim>
					<dim>3</dim>
				</port>
			</output>
		</layer>
		<layer id="23" name="Multiply_54739" type="GroupConvolution" version="opset1">
			<data strides="2, 2" pads_begin="1, 1" pads_end="1, 1" dilations="1, 1" auto_pad="explicit"/>
			<rt_info>
				<attribute name="fused_names" version="0" value="batch_norm2d_4.b_0, batch_norm2d_4.w_0, batch_norm2d_4.w_1, batch_norm2d_4.w_2, batch_norm_4.tmp_2"/>
			</rt_info>
			<input>
				<port id="0" precision="FP32">
					<dim>-1</dim>
					<dim>32</dim>
					<dim>64</dim>
					<dim>48</dim>
				</port>
				<port id="1" precision="FP32">
					<dim>32</dim>
					<dim>1</dim>
					<dim>1</dim>
					<dim>3</dim>
					<dim>3</dim>
				</port>
			</input>
			<output>
				<port id="2" precision="FP32" names="depthwise_conv2d_1.tmp_0">
					<dim>-1</dim>
					<dim>32</dim>
					<dim>32</dim>
					<dim>24</dim>
				</port>
			</output>
		</layer>
		<layer id="24" name="Constant_54744" type="Const" version="opset1">
			<data element_type="f32" shape="1, 32, 1, 1" offset="8648" size="128"/>
			<output>
				<port id="0" precision="FP32">
					<dim>1</dim>
					<dim>32</dim>
					<dim>1</dim>
					<dim>1</dim>
				</port>
			</output>
		</layer>
		<layer id="25" name="batch_norm_4.tmp_2" type="Add" version="opset1">
			<data auto_broadcast="numpy"/>
			<rt_info>
				<attribute name="fused_names" version="0" value="batch_norm2d_4.b_0, batch_norm2d_4.w_0, batch_norm2d_4.w_1, batch_norm2d_4.w_2, batch_norm_4.tmp_2"/>
			</rt_info>
			<input>
				<port id="0" precision="FP32">
					<dim>-1</dim>
					<dim>32</dim>
					<dim>32</dim>
					<dim>24</dim>
				</port>
				<port id="1" precision="FP32">
					<dim>1</dim>
					<dim>32</dim>
					<dim>1</dim>
					<dim>1</dim>
				</port>
			</input>
			<output>
				<port id="2" precision="FP32" names="batch_norm_4.tmp_2">
					<dim>-1</dim>
					<dim>32</dim>
					<dim>32</dim>
					<dim>24</dim>
				</port>
			</output>
		</layer>
		<layer id="26" name="Multiply_56637" type="Const" version="opset1">
			<data element_type="f32" shape="16, 32, 1, 1" offset="8776" size="2048"/>
			<output>
				<port id="0" precision="FP32">
					<dim>16</dim>
					<dim>32</dim>
					<dim>1</dim>
					<dim>1</dim>
				</port>
			</output>
		</layer>
		<layer id="27" name="Multiply_54746" type="Convolution" version="opset1">
			<data strides="1, 1" dilations="1, 1" pads_begin="0, 0" pads_end="0, 0" auto_pad="explicit"/>
			<rt_info>
				<attribute name="fused_names" version="0" value="batch_norm2d_5.b_0, batch_norm2d_5.w_0, batch_norm2d_5.w_1, batch_norm2d_5.w_2, batch_norm_5.tmp_2, conv2d_272.tmp_0"/>
			</rt_info>
			<input>
				<port id="0" precision="FP32">
					<dim>-1</dim>
					<dim>32</dim>
					<dim>32</dim>
					<dim>24</dim>
				</port>
				<port id="1" precision="FP32">
					<dim>16</dim>
					<dim>32</dim>
					<dim>1</dim>
					<dim>1</dim>
				</port>
			</input>
			<output>
				<port id="2" precision="FP32">
					<dim>-1</dim>
					<dim>16</dim>
					<dim>32</dim>
					<dim>24</dim>
				</port>
			</output>
		</layer>
		<layer id="28" name="Constant_54751" type="Const" version="opset1">
			<data element_type="f32" shape="1, 16, 1, 1" offset="10824" size="64"/>
			<output>
				<port id="0" precision="FP32">
					<dim>1</dim>
					<dim>16</dim>
					<dim>1</dim>
					<dim>1</dim>
				</port>
			</output>
		</layer>
		<layer id="29" name="batch_norm_5.tmp_2" type="Add" version="opset1">
			<data auto_broadcast="numpy"/>
			<rt_info>
				<attribute name="fused_names" version="0" value="batch_norm2d_5.b_0, batch_norm2d_5.w_0, batch_norm2d_5.w_1, batch_norm2d_5.w_2, batch_norm_5.tmp_2"/>
			</rt_info>
			<input>
				<port id="0" precision="FP32">
					<dim>-1</dim>
					<dim>16</dim>
					<dim>32</dim>
					<dim>24</dim>
				</port>
				<port id="1" precision="FP32">
					<dim>1</dim>
					<dim>16</dim>
					<dim>1</dim>
					<dim>1</dim>
				</port>
			</input>
			<output>
				<port id="2" precision="FP32" names="batch_norm_5.tmp_2">
					<dim>-1</dim>
					<dim>16</dim>
					<dim>32</dim>
					<dim>24</dim>
				</port>
			</output>
		</layer>
		<layer id="30" name="relu_3.tmp_0" type="ReLU" version="opset1">
			<rt_info>
				<attribute name="fused_names" version="0" value="relu_3.tmp_0"/>
			</rt_info>
			<input>
				<port id="0" precision="FP32">
					<dim>-1</dim>
					<dim>16</dim>
					<dim>32</dim>
					<dim>24</dim>
				</port>
			</input>
			<output>
				<port id="1" precision="FP32" names="relu_3.tmp_0">
					<dim>-1</dim>
					<dim>16</dim>
					<dim>32</dim>
					<dim>24</dim>
				</port>
			</output>
		</layer>
		<layer id="31" name="concat_0.tmp_0" type="Concat" version="opset1">
			<data axis="1"/>
			<rt_info>
				<attribute name="fused_names" version="0" value="concat_0.tmp_0"/>
			</rt_info>
			<input>
				<port id="0" precision="FP32">
					<dim>-1</dim>
					<dim>16</dim>
					<dim>32</dim>
					<dim>24</dim>
				</port>
				<port id="1" precision="FP32">
					<dim>-1</dim>
					<dim>16</dim>
					<dim>32</dim>
					<dim>24</dim>
				</port>
			</input>
			<output>
				<port id="2" precision="FP32" names="concat_0.tmp_0">
					<dim>-1</dim>
					<dim>32</dim>
					<dim>32</dim>
					<dim>24</dim>
				</port>
			</output>
		</layer>
		<layer id="32" name="Constant_0" type="Const" version="opset1">
			<data element_type="i64" shape="5" offset="10888" size="40"/>
			<rt_info>
				<attribute name="fused_names" version="0" value="Constant_0"/>
			</rt_info>
			<output>
				<port id="0" precision="I64" names="Constant_0">
					<dim>5</dim>
				</port>
			</output>
		</layer>
		<layer id="33" name="reshape2_0.tmp_0" type="Reshape" version="opset1">
			<data special_zero="true"/>
			<rt_info>
				<attribute name="fused_names" version="0" value="reshape2_0.tmp_0"/>
			</rt_info>
			<input>
				<port id="0" precision="FP32">
					<dim>-1</dim>
					<dim>32</dim>
					<dim>32</dim>
					<dim>24</dim>
				</port>
				<port id="1" precision="I64">
					<dim>5</dim>
				</port>
			</input>
			<output>
				<port id="2" precision="FP32" names="reshape2_0.tmp_0">
					<dim>-1</dim>
					<dim>2</dim>
					<dim>16</dim>
					<dim>32</dim>
					<dim>24</dim>
				</port>
			</output>
		</layer>
		<layer id="34" name="Constant_1521" type="Const" version="opset1">
			<data element_type="i64" shape="5" offset="10928" size="40"/>
			<rt_info>
				<attribute name="fused_names" version="0" value="Constant_1521"/>
			</rt_info>
			<output>
				<port id="0" precision="I64">
					<dim>5</dim>
				</port>
			</output>
		</layer>
		<layer id="35" name="transpose_0.tmp_0" type="Transpose" version="opset1">
			<rt_info>
				<attribute name="fused_names" version="0" value="transpose_0.tmp_0"/>
			</rt_info>
			<input>
				<port id="0" precision="FP32">
					<dim>-1</dim>
					<dim>2</dim>
					<dim>16</dim>
					<dim>32</dim>
					<dim>24</dim>
				</port>
				<port id="1" precision="I64">
					<dim>5</dim>
				</port>
			</input>
			<output>
				<port id="2" precision="FP32" names="transpose_0.tmp_0">
					<dim>-1</dim>
					<dim>16</dim>
					<dim>2</dim>
					<dim>32</dim>
					<dim>24</dim>
				</port>
			</output>
		</layer>
		<layer id="36" name="Constant_1" type="Const" version="opset1">
			<data element_type="i64" shape="4" offset="10968" size="32"/>
			<rt_info>
				<attribute name="fused_names" version="0" value="Constant_1"/>
			</rt_info>
			<output>
				<port id="0" precision="I64" names="Constant_1">
					<dim>4</dim>
				</port>
			</output>
		</layer>
		<layer id="37" name="reshape2_1.tmp_0" type="Reshape" version="opset1">
			<data special_zero="true"/>
			<rt_info>
				<attribute name="fused_names" version="0" value="reshape2_1.tmp_0"/>
			</rt_info>
			<input>
				<port id="0" precision="FP32">
					<dim>-1</dim>
					<dim>16</dim>
					<dim>2</dim>
					<dim>32</dim>
					<dim>24</dim>
				</port>
				<port id="1" precision="I64">
					<dim>4</dim>
				</port>
			</input>
			<output>
				<port id="2" precision="FP32" names="reshape2_1.tmp_0">
					<dim>-1</dim>
					<dim>32</dim>
					<dim>32</dim>
					<dim>24</dim>
				</port>
			</output>
		</layer>
		<layer id="38" name="Multiply_56646" type="Const" version="opset1">
			<data element_type="f32" shape="32, 1, 1, 3, 3" offset="11000" size="1152"/>
			<output>
				<port id="0" precision="FP32">
					<dim>32</dim>
					<dim>1</dim>
					<dim>1</dim>
					<dim>3</dim>
					<dim>3</dim>
				</port>
			</output>
		</layer>
		<layer id="39" name="Multiply_54753" type="GroupConvolution" version="opset1">
			<data strides="1, 1" pads_begin="1, 1" pads_end="1, 1" dilations="1, 1" auto_pad="explicit"/>
			<rt_info>
				<attribute name="fused_names" version="0" value="batch_norm2d_6.b_0, batch_norm2d_6.w_0, batch_norm2d_6.w_1, batch_norm2d_6.w_2, batch_norm_6.tmp_2"/>
			</rt_info>
			<input>
				<port id="0" precision="FP32">
					<dim>-1</dim>
					<dim>32</dim>
					<dim>32</dim>
					<dim>24</dim>
				</port>
				<port id="1" precision="FP32">
					<dim>32</dim>
					<dim>1</dim>
					<dim>1</dim>
					<dim>3</dim>
					<dim>3</dim>
				</port>
			</input>
			<output>
				<port id="2" precision="FP32" names="depthwise_conv2d_2.tmp_0">
					<dim>-1</dim>
					<dim>32</dim>
					<dim>32</dim>
					<dim>24</dim>
				</port>
			</output>
		</layer>
		<layer id="40" name="Constant_54758" type="Const" version="opset1">
			<data element_type="f32" shape="1, 32, 1, 1" offset="12152" size="128"/>
			<output>
				<port id="0" precision="FP32">
					<dim>1</dim>
					<dim>32</dim>
					<dim>1</dim>
					<dim>1</dim>
				</port>
			</output>
		</layer>
		<layer id="41" name="batch_norm_6.tmp_2" type="Add" version="opset1">
			<data auto_broadcast="numpy"/>
			<rt_info>
				<attribute name="fused_names" version="0" value="batch_norm2d_6.b_0, batch_norm2d_6.w_0, batch_norm2d_6.w_1, batch_norm2d_6.w_2, batch_norm_6.tmp_2"/>
			</rt_info>
			<input>
				<port id="0" precision="FP32">
					<dim>-1</dim>
					<dim>32</dim>
					<dim>32</dim>
					<dim>24</dim>
				</port>
				<port id="1" precision="FP32">
					<dim>1</dim>
					<dim>32</dim>
					<dim>1</dim>
					<dim>1</dim>
				</port>
			</input>
			<output>
				<port id="2" precision="FP32" names="batch_norm_6.tmp_2">
					<dim>-1</dim>
					<dim>32</dim>
					<dim>32</dim>
					<dim>24</dim>
				</port>
			</output>
		</layer>
		<layer id="42" name="Multiply_56654" type="Const" version="opset1">
			<data element_type="f32" shape="40, 32, 1, 1" offset="12280" size="5120"/>
			<output>
				<port id="0" precision="FP32">
					<dim>40</dim>
					<dim>32</dim>
					<dim>1</dim>
					<dim>1</dim>
				</port>
			</output>
		</layer>
		<layer id="43" name="Multiply_54760" type="Convolution" version="opset1">
			<data strides="1, 1" dilations="1, 1" pads_begin="0, 0" pads_end="0, 0" auto_pad="explicit"/>
			<rt_info>
				<attribute name="fused_names" version="0" value="batch_norm2d_7.b_0, batch_norm2d_7.w_0, batch_norm2d_7.w_1, batch_norm2d_7.w_2, batch_norm_7.tmp_2, conv2d_273.tmp_0"/>
			</rt_info>
			<input>
				<port id="0" precision="FP32">
					<dim>-1</dim>
					<dim>32</dim>
					<dim>32</dim>
					<dim>24</dim>
				</port>
				<port id="1" precision="FP32">
					<dim>40</dim>
					<dim>32</dim>
					<dim>1</dim>
					<dim>1</dim>
				</port>
			</input>
			<output>
				<port id="2" precision="FP32">
					<dim>-1</dim>
					<dim>40</dim>
					<dim>32</dim>
					<dim>24</dim>
				</port>
			</output>
		</layer>
		<layer id="44" name="Constant_54765" type="Const" version="opset1">
			<data element_type="f32" shape="1, 40, 1, 1" offset="17400" size="160"/>
			<output>
				<port id="0" precision="FP32">
					<dim>1</dim>
					<dim>40</dim>
					<dim>1</dim>
					<dim>1</dim>
				</port>
			</output>
		</layer>
		<layer id="45" name="batch_norm_7.tmp_2" type="Add" version="opset1">
			<data auto_broadcast="numpy"/>
			<rt_info>
				<attribute name="fused_names" version="0" value="batch_norm2d_7.b_0, batch_norm2d_7.w_0, batch_norm2d_7.w_1, batch_norm2d_7.w_2, batch_norm_7.tmp_2"/>
			</rt_info>
			<input>
				<port id="0" precision="FP32">
					<dim>-1</dim>
					<dim>40</dim>
					<dim>32</dim>
					<dim>24</dim>
				</port>
				<port id="1" precision="FP32">
					<dim>1</dim>
					<dim>40</dim>
					<dim>1</dim>
					<dim>1</dim>
				</port>
			</input>
			<output>
				<port id="2" precision="FP32" names="batch_norm_7.tmp_2">
					<dim>-1</dim>
					<dim>40</dim>
					<dim>32</dim>
					<dim>24</dim>
				</port>
			</output>
		</layer>
		<layer id="46" name="relu_4.tmp_0" type="ReLU" version="opset1">
			<rt_info>
				<attribute name="fused_names" version="0" value="relu_4.tmp_0"/>
			</rt_info>
			<input>
				<port id="0" precision="FP32">
					<dim>-1</dim>
					<dim>40</dim>
					<dim>32</dim>
					<dim>24</dim>
				</port>
			</input>
			<output>
				<port id="1" precision="FP32" names="relu_4.tmp_0">
					<dim>-1</dim>
					<dim>40</dim>
					<dim>32</dim>
					<dim>24</dim>
				</port>
			</output>
		</layer>
		<layer id="47" name="Constant_1690" type="Const" version="opset1">
			<data element_type="i64" shape="" offset="3584" size="8"/>
			<rt_info>
				<attribute name="fused_names" version="0" value="Constant_1690"/>
			</rt_info>
			<output>
				<port id="0" precision="I64"/>
			</output>
		</layer>
		<layer id="48" name="split_1.tmp_1" type="Split" version="opset1">
			<data num_splits="2"/>
			<rt_info>
				<attribute name="fused_names" version="0" value="split_1.tmp_1"/>
			</rt_info>
			<input>
				<port id="0" precision="FP32">
					<dim>-1</dim>
					<dim>40</dim>
					<dim>32</dim>
					<dim>24</dim>
				</port>
				<port id="1" precision="I64"/>
			</input>
			<output>
				<port id="2" precision="FP32" names="split_1.tmp_0">
					<dim>-1</dim>
					<dim>20</dim>
					<dim>32</dim>
					<dim>24</dim>
				</port>
				<port id="3" precision="FP32" names="split_1.tmp_1">
					<dim>-1</dim>
					<dim>20</dim>
					<dim>32</dim>
					<dim>24</dim>
				</port>
			</output>
		</layer>
		<layer id="49" name="Multiply_56663" type="Const" version="opset1">
			<data element_type="f32" shape="20, 20, 1, 1" offset="17560" size="1600"/>
			<output>
				<port id="0" precision="FP32">
					<dim>20</dim>
					<dim>20</dim>
					<dim>1</dim>
					<dim>1</dim>
				</port>
			</output>
		</layer>
		<layer id="50" name="Multiply_54767" type="Convolution" version="opset1">
			<data strides="1, 1" dilations="1, 1" pads_begin="0, 0" pads_end="0, 0" auto_pad="explicit"/>
			<rt_info>
				<attribute name="fused_names" version="0" value="batch_norm2d_10.b_0, batch_norm2d_10.w_0, batch_norm2d_10.w_1, batch_norm2d_10.w_2, batch_norm_10.tmp_2, conv2d_275.tmp_0"/>
			</rt_info>
			<input>
				<port id="0" precision="FP32">
					<dim>-1</dim>
					<dim>20</dim>
					<dim>32</dim>
					<dim>24</dim>
				</port>
				<port id="1" precision="FP32">
					<dim>20</dim>
					<dim>20</dim>
					<dim>1</dim>
					<dim>1</dim>
				</port>
			</input>
			<output>
				<port id="2" precision="FP32">
					<dim>-1</dim>
					<dim>20</dim>
					<dim>32</dim>
					<dim>24</dim>
				</port>
			</output>
		</layer>
		<layer id="51" name="Constant_54772" type="Const" version="opset1">
			<data element_type="f32" shape="1, 20, 1, 1" offset="19160" size="80"/>
			<output>
				<port id="0" precision="FP32">
					<dim>1</dim>
					<dim>20</dim>
					<dim>1</dim>
					<dim>1</dim>
				</port>
			</output>
		</layer>
		<layer id="52" name="batch_norm_10.tmp_2" type="Add" version="opset1">
			<data auto_broadcast="numpy"/>
			<rt_info>
				<attribute name="fused_names" version="0" value="batch_norm2d_10.b_0, batch_norm2d_10.w_0, batch_norm2d_10.w_1, batch_norm2d_10.w_2, batch_norm_10.tmp_2"/>
			</rt_info>
			<input>
				<port id="0" precision="FP32">
					<dim>-1</dim>
					<dim>20</dim>
					<dim>32</dim>
					<dim>24</dim>
				</port>
				<port id="1" precision="FP32">
					<dim>1</dim>
					<dim>20</dim>
					<dim>1</dim>
					<dim>1</dim>
				</port>
			</input>
			<output>
				<port id="2" precision="FP32" names="batch_norm_10.tmp_2">
					<dim>-1</dim>
					<dim>20</dim>
					<dim>32</dim>
					<dim>24</dim>
				</port>
			</output>
		</layer>
		<layer id="53" name="relu_6.tmp_0" type="ReLU" version="opset1">
			<rt_info>
				<attribute name="fused_names" version="0" value="relu_6.tmp_0"/>
			</rt_info>
			<input>
				<port id="0" precision="FP32">
					<dim>-1</dim>
					<dim>20</dim>
					<dim>32</dim>
					<dim>24</dim>
				</port>
			</input>
			<output>
				<port id="1" precision="FP32" names="relu_6.tmp_0">
					<dim>-1</dim>
					<dim>20</dim>
					<dim>32</dim>
					<dim>24</dim>
				</port>
			</output>
		</layer>
		<layer id="54" name="Multiply_56672" type="Const" version="opset1">
			<data element_type="f32" shape="20, 1, 1, 3, 3" offset="19240" size="720"/>
			<output>
				<port id="0" precision="FP32">
					<dim>20</dim>
					<dim>1</dim>
					<dim>1</dim>
					<dim>3</dim>
					<dim>3</dim>
				</port>
			</output>
		</layer>
		<layer id="55" name="Multiply_54774" type="GroupConvolution" version="opset1">
			<data strides="1, 1" pads_begin="1, 1" pads_end="1, 1" dilations="1, 1" auto_pad="explicit"/>
			<rt_info>
				<attribute name="fused_names" version="0" value="batch_norm2d_11.b_0, batch_norm2d_11.w_0, batch_norm2d_11.w_1, batch_norm2d_11.w_2, batch_norm_11.tmp_2"/>
			</rt_info>
			<input>
				<port id="0" precision="FP32">
					<dim>-1</dim>
					<dim>20</dim>
					<dim>32</dim>
					<dim>24</dim>
				</port>
				<port id="1" precision="FP32">
					<dim>20</dim>
					<dim>1</dim>
					<dim>1</dim>
					<dim>3</dim>
					<dim>3</dim>
				</port>
			</input>
			<output>
				<port id="2" precision="FP32" names="depthwise_conv2d_4.tmp_0">
					<dim>-1</dim>
					<dim>20</dim>
					<dim>32</dim>
					<dim>24</dim>
				</port>
			</output>
		</layer>
		<layer id="56" name="Constant_54779" type="Const" version="opset1">
			<data element_type="f32" shape="1, 20, 1, 1" offset="19960" size="80"/>
			<output>
				<port id="0" precision="FP32">
					<dim>1</dim>
					<dim>20</dim>
					<dim>1</dim>
					<dim>1</dim>
				</port>
			</output>
		</layer>
		<layer id="57" name="batch_norm_11.tmp_2" type="Add" version="opset1">
			<data auto_broadcast="numpy"/>
			<rt_info>
				<attribute name="fused_names" version="0" value="batch_norm2d_11.b_0, batch_norm2d_11.w_0, batch_norm2d_11.w_1, batch_norm2d_11.w_2, batch_norm_11.tmp_2"/>
			</rt_info>
			<input>
				<port id="0" precision="FP32">
					<dim>-1</dim>
					<dim>20</dim>
					<dim>32</dim>
					<dim>24</dim>
				</port>
				<port id="1" precision="FP32">
					<dim>1</dim>
					<dim>20</dim>
					<dim>1</dim>
					<dim>1</dim>
				</port>
			</input>
			<output>
				<port id="2" precision="FP32" names="batch_norm_11.tmp_2">
					<dim>-1</dim>
					<dim>20</dim>
					<dim>32</dim>
					<dim>24</dim>
				</port>
			</output>
		</layer>
		<layer id="58" name="Multiply_56680" type="Const" version="opset1">
			<data element_type="f32" shape="20, 20, 1, 1" offset="20040" size="1600"/>
			<output>
				<port id="0" precision="FP32">
					<dim>20</dim>
					<dim>20</dim>
					<dim>1</dim>
					<dim>1</dim>
				</port>
			</output>
		</layer>
		<layer id="59" name="Multiply_54781" type="Convolution" version="opset1">
			<data strides="1, 1" dilations="1, 1" pads_begin="0, 0" pads_end="0, 0" auto_pad="explicit"/>
			<rt_info>
				<attribute name="fused_names" version="0" value="batch_norm2d_12.b_0, batch_norm2d_12.w_0, batch_norm2d_12.w_1, batch_norm2d_12.w_2, batch_norm_12.tmp_2, conv2d_276.tmp_0"/>
			</rt_info>
			<input>
				<port id="0" precision="FP32">
					<dim>-1</dim>
					<dim>20</dim>
					<dim>32</dim>
					<dim>24</dim>
				</port>
				<port id="1" precision="FP32">
					<dim>20</dim>
					<dim>20</dim>
					<dim>1</dim>
					<dim>1</dim>
				</port>
			</input>
			<output>
				<port id="2" precision="FP32">
					<dim>-1</dim>
					<dim>20</dim>
					<dim>32</dim>
					<dim>24</dim>
				</port>
			</output>
		</layer>
		<layer id="60" name="Constant_54786" type="Const" version="opset1">
			<data element_type="f32" shape="1, 20, 1, 1" offset="21640" size="80"/>
			<output>
				<port id="0" precision="FP32">
					<dim>1</dim>
					<dim>20</dim>
					<dim>1</dim>
					<dim>1</dim>
				</port>
			</output>
		</layer>
		<layer id="61" name="batch_norm_12.tmp_2" type="Add" version="opset1">
			<data auto_broadcast="numpy"/>
			<rt_info>
				<attribute name="fused_names" version="0" value="batch_norm2d_12.b_0, batch_norm2d_12.w_0, batch_norm2d_12.w_1, batch_norm2d_12.w_2, batch_norm_12.tmp_2"/>
			</rt_info>
			<input>
				<port id="0" precision="FP32">
					<dim>-1</dim>
					<dim>20</dim>
					<dim>32</dim>
					<dim>24</dim>
				</port>
				<port id="1" precision="FP32">
					<dim>1</dim>
					<dim>20</dim>
					<dim>1</dim>
					<dim>1</dim>
				</port>
			</input>
			<output>
				<port id="2" precision="FP32" names="batch_norm_12.tmp_2">
					<dim>-1</dim>
					<dim>20</dim>
					<dim>32</dim>
					<dim>24</dim>
				</port>
			</output>
		</layer>
		<layer id="62" name="relu_7.tmp_0" type="ReLU" version="opset1">
			<rt_info>
				<attribute name="fused_names" version="0" value="relu_7.tmp_0"/>
			</rt_info>
			<input>
				<port id="0" precision="FP32">
					<dim>-1</dim>
					<dim>20</dim>
					<dim>32</dim>
					<dim>24</dim>
				</port>
			</input>
			<output>
				<port id="1" precision="FP32" names="relu_7.tmp_0">
					<dim>-1</dim>
					<dim>20</dim>
					<dim>32</dim>
					<dim>24</dim>
				</port>
			</output>
		</layer>
		<layer id="63" name="concat_1.tmp_0" type="Concat" version="opset1">
			<data axis="1"/>
			<rt_info>
				<attribute name="fused_names" version="0" value="concat_1.tmp_0"/>
			</rt_info>
			<input>
				<port id="0" precision="FP32">
					<dim>-1</dim>
					<dim>20</dim>
					<dim>32</dim>
					<dim>24</dim>
				</port>
				<port id="1" precision="FP32">
					<dim>-1</dim>
					<dim>20</dim>
					<dim>32</dim>
					<dim>24</dim>
				</port>
			</input>
			<output>
				<port id="2" precision="FP32" names="concat_1.tmp_0">
					<dim>-1</dim>
					<dim>40</dim>
					<dim>32</dim>
					<dim>24</dim>
				</port>
			</output>
		</layer>
		<layer id="64" name="Constant_2" type="Const" version="opset1">
			<data element_type="i64" shape="5" offset="21720" size="40"/>
			<rt_info>
				<attribute name="fused_names" version="0" value="Constant_2"/>
			</rt_info>
			<output>
				<port id="0" precision="I64" names="Constant_2">
					<dim>5</dim>
				</port>
			</output>
		</layer>
		<layer id="65" name="reshape2_2.tmp_0" type="Reshape" version="opset1">
			<data special_zero="true"/>
			<rt_info>
				<attribute name="fused_names" version="0" value="reshape2_2.tmp_0"/>
			</rt_info>
			<input>
				<port id="0" precision="FP32">
					<dim>-1</dim>
					<dim>40</dim>
					<dim>32</dim>
					<dim>24</dim>
				</port>
				<port id="1" precision="I64">
					<dim>5</dim>
				</port>
			</input>
			<output>
				<port id="2" precision="FP32" names="reshape2_2.tmp_0">
					<dim>-1</dim>
					<dim>2</dim>
					<dim>20</dim>
					<dim>32</dim>
					<dim>24</dim>
				</port>
			</output>
		</layer>
		<layer id="66" name="Constant_1784" type="Const" version="opset1">
			<data element_type="i64" shape="5" offset="10928" size="40"/>
			<rt_info>
				<attribute name="fused_names" version="0" value="Constant_1784"/>
			</rt_info>
			<output>
				<port id="0" precision="I64">
					<dim>5</dim>
				</port>
			</output>
		</layer>
		<layer id="67" name="transpose_1.tmp_0" type="Transpose" version="opset1">
			<rt_info>
				<attribute name="fused_names" version="0" value="transpose_1.tmp_0"/>
			</rt_info>
			<input>
				<port id="0" precision="FP32">
					<dim>-1</dim>
					<dim>2</dim>
					<dim>20</dim>
					<dim>32</dim>
					<dim>24</dim>
				</port>
				<port id="1" precision="I64">
					<dim>5</dim>
				</port>
			</input>
			<output>
				<port id="2" precision="FP32" names="transpose_1.tmp_0">
					<dim>-1</dim>
					<dim>20</dim>
					<dim>2</dim>
					<dim>32</dim>
					<dim>24</dim>
				</port>
			</output>
		</layer>
		<layer id="68" name="Constant_3" type="Const" version="opset1">
			<data element_type="i64" shape="4" offset="21760" size="32"/>
			<rt_info>
				<attribute name="fused_names" version="0" value="Constant_3"/>
			</rt_info>
			<output>
				<port id="0" precision="I64" names="Constant_3">
					<dim>4</dim>
				</port>
			</output>
		</layer>
		<layer id="69" name="reshape2_3.tmp_0" type="Reshape" version="opset1">
			<data special_zero="true"/>
			<rt_info>
				<attribute name="fused_names" version="0" value="reshape2_3.tmp_0"/>
			</rt_info>
			<input>
				<port id="0" precision="FP32">
					<dim>-1</dim>
					<dim>20</dim>
					<dim>2</dim>
					<dim>32</dim>
					<dim>24</dim>
				</port>
				<port id="1" precision="I64">
					<dim>4</dim>
				</port>
			</input>
			<output>
				<port id="2" precision="FP32" names="reshape2_3.tmp_0">
					<dim>-1</dim>
					<dim>40</dim>
					<dim>32</dim>
					<dim>24</dim>
				</port>
			</output>
		</layer>
		<layer id="70" name="Constant_1793" type="Const" version="opset1">
			<data element_type="i64" shape="" offset="3584" size="8"/>
			<rt_info>
				<attribute name="fused_names" version="0" value="Constant_1793"/>
			</rt_info>
			<output>
				<port id="0" precision="I64"/>
			</output>
		</layer>
		<layer id="71" name="split_2.tmp_1" type="Split" version="opset1">
			<data num_splits="2"/>
			<rt_info>
				<attribute name="fused_names" version="0" value="split_2.tmp_1"/>
			</rt_info>
			<input>
				<port id="0" precision="FP32">
					<dim>-1</dim>
					<dim>40</dim>
					<dim>32</dim>
					<dim>24</dim>
				</port>
				<port id="1" precision="I64"/>
			</input>
			<output>
				<port id="2" precision="FP32" names="split_2.tmp_0">
					<dim>-1</dim>
					<dim>20</dim>
					<dim>32</dim>
					<dim>24</dim>
				</port>
				<port id="3" precision="FP32" names="split_2.tmp_1">
					<dim>-1</dim>
					<dim>20</dim>
					<dim>32</dim>
					<dim>24</dim>
				</port>
			</output>
		</layer>
		<layer id="72" name="Multiply_56689" type="Const" version="opset1">
			<data element_type="f32" shape="20, 20, 1, 1" offset="21792" size="1600"/>
			<output>
				<port id="0" precision="FP32">
					<dim>20</dim>
					<dim>20</dim>
					<dim>1</dim>
					<dim>1</dim>
				</port>
			</output>
		</layer>
		<layer id="73" name="Multiply_54788" type="Convolution" version="opset1">
			<data strides="1, 1" dilations="1, 1" pads_begin="0, 0" pads_end="0, 0" auto_pad="explicit"/>
			<rt_info>
				<attribute name="fused_names" version="0" value="batch_norm2d_13.b_0, batch_norm2d_13.w_0, batch_norm2d_13.w_1, batch_norm2d_13.w_2, batch_norm_13.tmp_2, conv2d_277.tmp_0"/>
			</rt_info>
			<input>
				<port id="0" precision="FP32">
					<dim>-1</dim>
					<dim>20</dim>
					<dim>32</dim>
					<dim>24</dim>
				</port>
				<port id="1" precision="FP32">
					<dim>20</dim>
					<dim>20</dim>
					<dim>1</dim>
					<dim>1</dim>
				</port>
			</input>
			<output>
				<port id="2" precision="FP32">
					<dim>-1</dim>
					<dim>20</dim>
					<dim>32</dim>
					<dim>24</dim>
				</port>
			</output>
		</layer>
		<layer id="74" name="Constant_54793" type="Const" version="opset1">
			<data element_type="f32" shape="1, 20, 1, 1" offset="23392" size="80"/>
			<output>
				<port id="0" precision="FP32">
					<dim>1</dim>
					<dim>20</dim>
					<dim>1</dim>
					<dim>1</dim>
				</port>
			</output>
		</layer>
		<layer id="75" name="batch_norm_13.tmp_2" type="Add" version="opset1">
			<data auto_broadcast="numpy"/>
			<rt_info>
				<attribute name="fused_names" version="0" value="batch_norm2d_13.b_0, batch_norm2d_13.w_0, batch_norm2d_13.w_1, batch_norm2d_13.w_2, batch_norm_13.tmp_2"/>
			</rt_info>
			<input>
				<port id="0" precision="FP32">
					<dim>-1</dim>
					<dim>20</dim>
					<dim>32</dim>
					<dim>24</dim>
				</port>
				<port id="1" precision="FP32">
					<dim>1</dim>
					<dim>20</dim>
					<dim>1</dim>
					<dim>1</dim>
				</port>
			</input>
			<output>
				<port id="2" precision="FP32" names="batch_norm_13.tmp_2">
					<dim>-1</dim>
					<dim>20</dim>
					<dim>32</dim>
					<dim>24</dim>
				</port>
			</output>
		</layer>
		<layer id="76" name="relu_8.tmp_0" type="ReLU" version="opset1">
			<rt_info>
				<attribute name="fused_names" version="0" value="relu_8.tmp_0"/>
			</rt_info>
			<input>
				<port id="0" precision="FP32">
					<dim>-1</dim>
					<dim>20</dim>
					<dim>32</dim>
					<dim>24</dim>
				</port>
			</input>
			<output>
				<port id="1" precision="FP32" names="relu_8.tmp_0">
					<dim>-1</dim>
					<dim>20</dim>
					<dim>32</dim>
					<dim>24</dim>
				</port>
			</output>
		</layer>
		<layer id="77" name="Multiply_56698" type="Const" version="opset1">
			<data element_type="f32" shape="20, 1, 1, 3, 3" offset="23472" size="720"/>
			<output>
				<port id="0" precision="FP32">
					<dim>20</dim>
					<dim>1</dim>
					<dim>1</dim>
					<dim>3</dim>
					<dim>3</dim>
				</port>
			</output>
		</layer>
		<layer id="78" name="Multiply_54795" type="GroupConvolution" version="opset1">
			<data strides="1, 1" pads_begin="1, 1" pads_end="1, 1" dilations="1, 1" auto_pad="explicit"/>
			<rt_info>
				<attribute name="fused_names" version="0" value="batch_norm2d_14.b_0, batch_norm2d_14.w_0, batch_norm2d_14.w_1, batch_norm2d_14.w_2, batch_norm_14.tmp_2"/>
			</rt_info>
			<input>
				<port id="0" precision="FP32">
					<dim>-1</dim>
					<dim>20</dim>
					<dim>32</dim>
					<dim>24</dim>
				</port>
				<port id="1" precision="FP32">
					<dim>20</dim>
					<dim>1</dim>
					<dim>1</dim>
					<dim>3</dim>
					<dim>3</dim>
				</port>
			</input>
			<output>
				<port id="2" precision="FP32" names="depthwise_conv2d_5.tmp_0">
					<dim>-1</dim>
					<dim>20</dim>
					<dim>32</dim>
					<dim>24</dim>
				</port>
			</output>
		</layer>
		<layer id="79" name="Constant_54800" type="Const" version="opset1">
			<data element_type="f32" shape="1, 20, 1, 1" offset="24192" size="80"/>
			<output>
				<port id="0" precision="FP32">
					<dim>1</dim>
					<dim>20</dim>
					<dim>1</dim>
					<dim>1</dim>
				</port>
			</output>
		</layer>
		<layer id="80" name="batch_norm_14.tmp_2" type="Add" version="opset1">
			<data auto_broadcast="numpy"/>
			<rt_info>
				<attribute name="fused_names" version="0" value="batch_norm2d_14.b_0, batch_norm2d_14.w_0, batch_norm2d_14.w_1, batch_norm2d_14.w_2, batch_norm_14.tmp_2"/>
			</rt_info>
			<input>
				<port id="0" precision="FP32">
					<dim>-1</dim>
					<dim>20</dim>
					<dim>32</dim>
					<dim>24</dim>
				</port>
				<port id="1" precision="FP32">
					<dim>1</dim>
					<dim>20</dim>
					<dim>1</dim>
					<dim>1</dim>
				</port>
			</input>
			<output>
				<port id="2" precision="FP32" names="batch_norm_14.tmp_2">
					<dim>-1</dim>
					<dim>20</dim>
					<dim>32</dim>
					<dim>24</dim>
				</port>
			</output>
		</layer>
		<layer id="81" name="Multiply_56706" type="Const" version="opset1">
			<data element_type="f32" shape="20, 20, 1, 1" offset="24272" size="1600"/>
			<output>
				<port id="0" precision="FP32">
					<dim>20</dim>
					<dim>20</dim>
					<dim>1</dim>
					<dim>1</dim>
				</port>
			</output>
		</layer>
		<layer id="82" name="Multiply_54802" type="Convolution" version="opset1">
			<data strides="1, 1" dilations="1, 1" pads_begin="0, 0" pads_end="0, 0" auto_pad="explicit"/>
			<rt_info>
				<attribute name="fused_names" version="0" value="batch_norm2d_15.b_0, batch_norm2d_15.w_0, batch_norm2d_15.w_1, batch_norm2d_15.w_2, batch_norm_15.tmp_2, conv2d_278.tmp_0"/>
			</rt_info>
			<input>
				<port id="0" precision="FP32">
					<dim>-1</dim>
					<dim>20</dim>
					<dim>32</dim>
					<dim>24</dim>
				</port>
				<port id="1" precision="FP32">
					<dim>20</dim>
					<dim>20</dim>
					<dim>1</dim>
					<dim>1</dim>
				</port>
			</input>
			<output>
				<port id="2" precision="FP32">
					<dim>-1</dim>
					<dim>20</dim>
					<dim>32</dim>
					<dim>24</dim>
				</port>
			</output>
		</layer>
		<layer id="83" name="Constant_54807" type="Const" version="opset1">
			<data element_type="f32" shape="1, 20, 1, 1" offset="25872" size="80"/>
			<output>
				<port id="0" precision="FP32">
					<dim>1</dim>
					<dim>20</dim>
					<dim>1</dim>
					<dim>1</dim>
				</port>
			</output>
		</layer>
		<layer id="84" name="batch_norm_15.tmp_2" type="Add" version="opset1">
			<data auto_broadcast="numpy"/>
			<rt_info>
				<attribute name="fused_names" version="0" value="batch_norm2d_15.b_0, batch_norm2d_15.w_0, batch_norm2d_15.w_1, batch_norm2d_15.w_2, batch_norm_15.tmp_2"/>
			</rt_info>
			<input>
				<port id="0" precision="FP32">
					<dim>-1</dim>
					<dim>20</dim>
					<dim>32</dim>
					<dim>24</dim>
				</port>
				<port id="1" precision="FP32">
					<dim>1</dim>
					<dim>20</dim>
					<dim>1</dim>
					<dim>1</dim>
				</port>
			</input>
			<output>
				<port id="2" precision="FP32" names="batch_norm_15.tmp_2">
					<dim>-1</dim>
					<dim>20</dim>
					<dim>32</dim>
					<dim>24</dim>
				</port>
			</output>
		</layer>
		<layer id="85" name="relu_9.tmp_0" type="ReLU" version="opset1">
			<rt_info>
				<attribute name="fused_names" version="0" value="relu_9.tmp_0"/>
			</rt_info>
			<input>
				<port id="0" precision="FP32">
					<dim>-1</dim>
					<dim>20</dim>
					<dim>32</dim>
					<dim>24</dim>
				</port>
			</input>
			<output>
				<port id="1" precision="FP32" names="relu_9.tmp_0">
					<dim>-1</dim>
					<dim>20</dim>
					<dim>32</dim>
					<dim>24</dim>
				</port>
			</output>
		</layer>
		<layer id="86" name="concat_2.tmp_0" type="Concat" version="opset1">
			<data axis="1"/>
			<rt_info>
				<attribute name="fused_names" version="0" value="concat_2.tmp_0"/>
			</rt_info>
			<input>
				<port id="0" precision="FP32">
					<dim>-1</dim>
					<dim>20</dim>
					<dim>32</dim>
					<dim>24</dim>
				</port>
				<port id="1" precision="FP32">
					<dim>-1</dim>
					<dim>20</dim>
					<dim>32</dim>
					<dim>24</dim>
				</port>
			</input>
			<output>
				<port id="2" precision="FP32" names="concat_2.tmp_0">
					<dim>-1</dim>
					<dim>40</dim>
					<dim>32</dim>
					<dim>24</dim>
				</port>
			</output>
		</layer>
		<layer id="87" name="Constant_4" type="Const" version="opset1">
			<data element_type="i64" shape="5" offset="21720" size="40"/>
			<rt_info>
				<attribute name="fused_names" version="0" value="Constant_4"/>
			</rt_info>
			<output>
				<port id="0" precision="I64" names="Constant_4">
					<dim>5</dim>
				</port>
			</output>
		</layer>
		<layer id="88" name="reshape2_4.tmp_0" type="Reshape" version="opset1">
			<data special_zero="true"/>
			<rt_info>
				<attribute name="fused_names" version="0" value="reshape2_4.tmp_0"/>
			</rt_info>
			<input>
				<port id="0" precision="FP32">
					<dim>-1</dim>
					<dim>40</dim>
					<dim>32</dim>
					<dim>24</dim>
				</port>
				<port id="1" precision="I64">
					<dim>5</dim>
				</port>
			</input>
			<output>
				<port id="2" precision="FP32" names="reshape2_4.tmp_0">
					<dim>-1</dim>
					<dim>2</dim>
					<dim>20</dim>
					<dim>32</dim>
					<dim>24</dim>
				</port>
			</output>
		</layer>
		<layer id="89" name="Constant_1887" type="Const" version="opset1">
			<data element_type="i64" shape="5" offset="10928" size="40"/>
			<rt_info>
				<attribute name="fused_names" version="0" value="Constant_1887"/>
			</rt_info>
			<output>
				<port id="0" precision="I64">
					<dim>5</dim>
				</port>
			</output>
		</layer>
		<layer id="90" name="transpose_2.tmp_0" type="Transpose" version="opset1">
			<rt_info>
				<attribute name="fused_names" version="0" value="transpose_2.tmp_0"/>
			</rt_info>
			<input>
				<port id="0" precision="FP32">
					<dim>-1</dim>
					<dim>2</dim>
					<dim>20</dim>
					<dim>32</dim>
					<dim>24</dim>
				</port>
				<port id="1" precision="I64">
					<dim>5</dim>
				</port>
			</input>
			<output>
				<port id="2" precision="FP32" names="transpose_2.tmp_0">
					<dim>-1</dim>
					<dim>20</dim>
					<dim>2</dim>
					<dim>32</dim>
					<dim>24</dim>
				</port>
			</output>
		</layer>
		<layer id="91" name="Constant_5" type="Const" version="opset1">
			<data element_type="i64" shape="4" offset="21760" size="32"/>
			<rt_info>
				<attribute name="fused_names" version="0" value="Constant_5"/>
			</rt_info>
			<output>
				<port id="0" precision="I64" names="Constant_5">
					<dim>4</dim>
				</port>
			</output>
		</layer>
		<layer id="92" name="reshape2_5.tmp_0" type="Reshape" version="opset1">
			<data special_zero="true"/>
			<rt_info>
				<attribute name="fused_names" version="0" value="reshape2_5.tmp_0"/>
			</rt_info>
			<input>
				<port id="0" precision="FP32">
					<dim>-1</dim>
					<dim>20</dim>
					<dim>2</dim>
					<dim>32</dim>
					<dim>24</dim>
				</port>
				<port id="1" precision="I64">
					<dim>4</dim>
				</port>
			</input>
			<output>
				<port id="2" precision="FP32" names="reshape2_5.tmp_0">
					<dim>-1</dim>
					<dim>40</dim>
					<dim>32</dim>
					<dim>24</dim>
				</port>
			</output>
		</layer>
		<layer id="93" name="tmp_0" type="Add" version="opset1">
			<data auto_broadcast="numpy"/>
			<rt_info>
				<attribute name="fused_names" version="0" value="tmp_0"/>
			</rt_info>
			<input>
				<port id="0" precision="FP32">
					<dim>-1</dim>
					<dim>40</dim>
					<dim>32</dim>
					<dim>24</dim>
				</port>
				<port id="1" precision="FP32">
					<dim>-1</dim>
					<dim>40</dim>
					<dim>32</dim>
					<dim>24</dim>
				</port>
			</input>
			<output>
				<port id="2" precision="FP32" names="tmp_0">
					<dim>-1</dim>
					<dim>40</dim>
					<dim>32</dim>
					<dim>24</dim>
				</port>
			</output>
		</layer>
		<layer id="94" name="Multiply_56715" type="Const" version="opset1">
			<data element_type="f32" shape="32, 1, 1, 3, 3" offset="25952" size="1152"/>
			<output>
				<port id="0" precision="FP32">
					<dim>32</dim>
					<dim>1</dim>
					<dim>1</dim>
					<dim>3</dim>
					<dim>3</dim>
				</port>
			</output>
		</layer>
		<layer id="95" name="Multiply_54809" type="GroupConvolution" version="opset1">
			<data strides="2, 2" pads_begin="1, 1" pads_end="1, 1" dilations="1, 1" auto_pad="explicit"/>
			<rt_info>
				<attribute name="fused_names" version="0" value="batch_norm2d_8.b_0, batch_norm2d_8.w_0, batch_norm2d_8.w_1, batch_norm2d_8.w_2, batch_norm_8.tmp_2"/>
			</rt_info>
			<input>
				<port id="0" precision="FP32">
					<dim>-1</dim>
					<dim>32</dim>
					<dim>32</dim>
					<dim>24</dim>
				</port>
				<port id="1" precision="FP32">
					<dim>32</dim>
					<dim>1</dim>
					<dim>1</dim>
					<dim>3</dim>
					<dim>3</dim>
				</port>
			</input>
			<output>
				<port id="2" precision="FP32" names="depthwise_conv2d_3.tmp_0">
					<dim>-1</dim>
					<dim>32</dim>
					<dim>16</dim>
					<dim>12</dim>
				</port>
			</output>
		</layer>
		<layer id="96" name="Constant_54814" type="Const" version="opset1">
			<data element_type="f32" shape="1, 32, 1, 1" offset="27104" size="128"/>
			<output>
				<port id="0" precision="FP32">
					<dim>1</dim>
					<dim>32</dim>
					<dim>1</dim>
					<dim>1</dim>
				</port>
			</output>
		</layer>
		<layer id="97" name="batch_norm_8.tmp_2" type="Add" version="opset1">
			<data auto_broadcast="numpy"/>
			<rt_info>
				<attribute name="fused_names" version="0" value="batch_norm2d_8.b_0, batch_norm2d_8.w_0, batch_norm2d_8.w_1, batch_norm2d_8.w_2, batch_norm_8.tmp_2"/>
			</rt_info>
			<input>
				<port id="0" precision="FP32">
					<dim>-1</dim>
					<dim>32</dim>
					<dim>16</dim>
					<dim>12</dim>
				</port>
				<port id="1" precision="FP32">
					<dim>1</dim>
					<dim>32</dim>
					<dim>1</dim>
					<dim>1</dim>
				</port>
			</input>
			<output>
				<port id="2" precision="FP32" names="batch_norm_8.tmp_2">
					<dim>-1</dim>
					<dim>32</dim>
					<dim>16</dim>
					<dim>12</dim>
				</port>
			</output>
		</layer>
		<layer id="98" name="Multiply_56723" type="Const" version="opset1">
			<data element_type="f32" shape="80, 32, 1, 1" offset="27232" size="10240"/>
			<output>
				<port id="0" precision="FP32">
					<dim>80</dim>
					<dim>32</dim>
					<dim>1</dim>
					<dim>1</dim>
				</port>
			</output>
		</layer>
		<layer id="99" name="Multiply_54816" type="Convolution" version="opset1">
			<data strides="1, 1" dilations="1, 1" pads_begin="0, 0" pads_end="0, 0" auto_pad="explicit"/>
			<rt_info>
				<attribute name="fused_names" version="0" value="batch_norm2d_9.b_0, batch_norm2d_9.w_0, batch_norm2d_9.w_1, batch_norm2d_9.w_2, batch_norm_9.tmp_2, conv2d_274.tmp_0"/>
			</rt_info>
			<input>
				<port id="0" precision="FP32">
					<dim>-1</dim>
					<dim>32</dim>
					<dim>16</dim>
					<dim>12</dim>
				</port>
				<port id="1" precision="FP32">
					<dim>80</dim>
					<dim>32</dim>
					<dim>1</dim>
					<dim>1</dim>
				</port>
			</input>
			<output>
				<port id="2" precision="FP32">
					<dim>-1</dim>
					<dim>80</dim>
					<dim>16</dim>
					<dim>12</dim>
				</port>
			</output>
		</layer>
		<layer id="100" name="Constant_54821" type="Const" version="opset1">
			<data element_type="f32" shape="1, 80, 1, 1" offset="37472" size="320"/>
			<output>
				<port id="0" precision="FP32">
					<dim>1</dim>
					<dim>80</dim>
					<dim>1</dim>
					<dim>1</dim>
				</port>
			</output>
		</layer>
		<layer id="101" name="batch_norm_9.tmp_2" type="Add" version="opset1">
			<data auto_broadcast="numpy"/>
			<rt_info>
				<attribute name="fused_names" version="0" value="batch_norm2d_9.b_0, batch_norm2d_9.w_0, batch_norm2d_9.w_1, batch_norm2d_9.w_2, batch_norm_9.tmp_2"/>
			</rt_info>
			<input>
				<port id="0" precision="FP32">
					<dim>-1</dim>
					<dim>80</dim>
					<dim>16</dim>
					<dim>12</dim>
				</port>
				<port id="1" precision="FP32">
					<dim>1</dim>
					<dim>80</dim>
					<dim>1</dim>
					<dim>1</dim>
				</port>
			</input>
			<output>
				<port id="2" precision="FP32" names="batch_norm_9.tmp_2">
					<dim>-1</dim>
					<dim>80</dim>
					<dim>16</dim>
					<dim>12</dim>
				</port>
			</output>
		</layer>
		<layer id="102" name="relu_5.tmp_0" type="ReLU" version="opset1">
			<rt_info>
				<attribute name="fused_names" version="0" value="relu_5.tmp_0"/>
			</rt_info>
			<input>
				<port id="0" precision="FP32">
					<dim>-1</dim>
					<dim>80</dim>
					<dim>16</dim>
					<dim>12</dim>
				</port>
			</input>
			<output>
				<port id="1" precision="FP32" names="relu_5.tmp_0">
					<dim>-1</dim>
					<dim>80</dim>
					<dim>16</dim>
					<dim>12</dim>
				</port>
			</output>
		</layer>
		<layer id="103" name="Constant_1896" type="Const" version="opset1">
			<data element_type="i64" shape="" offset="3584" size="8"/>
			<rt_info>
				<attribute name="fused_names" version="0" value="Constant_1896"/>
			</rt_info>
			<output>
				<port id="0" precision="I64"/>
			</output>
		</layer>
		<layer id="104" name="split_3.tmp_1" type="Split" version="opset1">
			<data num_splits="2"/>
			<rt_info>
				<attribute name="fused_names" version="0" value="split_3.tmp_1"/>
			</rt_info>
			<input>
				<port id="0" precision="FP32">
					<dim>-1</dim>
					<dim>80</dim>
					<dim>16</dim>
					<dim>12</dim>
				</port>
				<port id="1" precision="I64"/>
			</input>
			<output>
				<port id="2" precision="FP32" names="split_3.tmp_0">
					<dim>-1</dim>
					<dim>40</dim>
					<dim>16</dim>
					<dim>12</dim>
				</port>
				<port id="3" precision="FP32" names="split_3.tmp_1">
					<dim>-1</dim>
					<dim>40</dim>
					<dim>16</dim>
					<dim>12</dim>
				</port>
			</output>
		</layer>
		<layer id="105" name="Multiply_56732" type="Const" version="opset1">
			<data element_type="f32" shape="40, 40, 1, 1" offset="37792" size="6400"/>
			<output>
				<port id="0" precision="FP32">
					<dim>40</dim>
					<dim>40</dim>
					<dim>1</dim>
					<dim>1</dim>
				</port>
			</output>
		</layer>
		<layer id="106" name="Multiply_54823" type="Convolution" version="opset1">
			<data strides="1, 1" dilations="1, 1" pads_begin="0, 0" pads_end="0, 0" auto_pad="explicit"/>
			<rt_info>
				<attribute name="fused_names" version="0" value="batch_norm2d_16.b_0, batch_norm2d_16.w_0, batch_norm2d_16.w_1, batch_norm2d_16.w_2, batch_norm_16.tmp_2, conv2d_279.tmp_0"/>
			</rt_info>
			<input>
				<port id="0" precision="FP32">
					<dim>-1</dim>
					<dim>40</dim>
					<dim>16</dim>
					<dim>12</dim>
				</port>
				<port id="1" precision="FP32">
					<dim>40</dim>
					<dim>40</dim>
					<dim>1</dim>
					<dim>1</dim>
				</port>
			</input>
			<output>
				<port id="2" precision="FP32">
					<dim>-1</dim>
					<dim>40</dim>
					<dim>16</dim>
					<dim>12</dim>
				</port>
			</output>
		</layer>
		<layer id="107" name="Constant_54828" type="Const" version="opset1">
			<data element_type="f32" shape="1, 40, 1, 1" offset="44192" size="160"/>
			<output>
				<port id="0" precision="FP32">
					<dim>1</dim>
					<dim>40</dim>
					<dim>1</dim>
					<dim>1</dim>
				</port>
			</output>
		</layer>
		<layer id="108" name="batch_norm_16.tmp_2" type="Add" version="opset1">
			<data auto_broadcast="numpy"/>
			<rt_info>
				<attribute name="fused_names" version="0" value="batch_norm2d_16.b_0, batch_norm2d_16.w_0, batch_norm2d_16.w_1, batch_norm2d_16.w_2, batch_norm_16.tmp_2"/>
			</rt_info>
			<input>
				<port id="0" precision="FP32">
					<dim>-1</dim>
					<dim>40</dim>
					<dim>16</dim>
					<dim>12</dim>
				</port>
				<port id="1" precision="FP32">
					<dim>1</dim>
					<dim>40</dim>
					<dim>1</dim>
					<dim>1</dim>
				</port>
			</input>
			<output>
				<port id="2" precision="FP32" names="batch_norm_16.tmp_2">
					<dim>-1</dim>
					<dim>40</dim>
					<dim>16</dim>
					<dim>12</dim>
				</port>
			</output>
		</layer>
		<layer id="109" name="relu_10.tmp_0" type="ReLU" version="opset1">
			<rt_info>
				<attribute name="fused_names" version="0" value="relu_10.tmp_0"/>
			</rt_info>
			<input>
				<port id="0" precision="FP32">
					<dim>-1</dim>
					<dim>40</dim>
					<dim>16</dim>
					<dim>12</dim>
				</port>
			</input>
			<output>
				<port id="1" precision="FP32" names="relu_10.tmp_0">
					<dim>-1</dim>
					<dim>40</dim>
					<dim>16</dim>
					<dim>12</dim>
				</port>
			</output>
		</layer>
		<layer id="110" name="Multiply_56741" type="Const" version="opset1">
			<data element_type="f32" shape="40, 1, 1, 3, 3" offset="44352" size="1440"/>
			<output>
				<port id="0" precision="FP32">
					<dim>40</dim>
					<dim>1</dim>
					<dim>1</dim>
					<dim>3</dim>
					<dim>3</dim>
				</port>
			</output>
		</layer>
		<layer id="111" name="Multiply_54830" type="GroupConvolution" version="opset1">
			<data strides="1, 1" pads_begin="1, 1" pads_end="1, 1" dilations="1, 1" auto_pad="explicit"/>
			<rt_info>
				<attribute name="fused_names" version="0" value="batch_norm2d_17.b_0, batch_norm2d_17.w_0, batch_norm2d_17.w_1, batch_norm2d_17.w_2, batch_norm_17.tmp_2"/>
			</rt_info>
			<input>
				<port id="0" precision="FP32">
					<dim>-1</dim>
					<dim>40</dim>
					<dim>16</dim>
					<dim>12</dim>
				</port>
				<port id="1" precision="FP32">
					<dim>40</dim>
					<dim>1</dim>
					<dim>1</dim>
					<dim>3</dim>
					<dim>3</dim>
				</port>
			</input>
			<output>
				<port id="2" precision="FP32" names="depthwise_conv2d_6.tmp_0">
					<dim>-1</dim>
					<dim>40</dim>
					<dim>16</dim>
					<dim>12</dim>
				</port>
			</output>
		</layer>
		<layer id="112" name="Constant_54835" type="Const" version="opset1">
			<data element_type="f32" shape="1, 40, 1, 1" offset="45792" size="160"/>
			<output>
				<port id="0" precision="FP32">
					<dim>1</dim>
					<dim>40</dim>
					<dim>1</dim>
					<dim>1</dim>
				</port>
			</output>
		</layer>
		<layer id="113" name="batch_norm_17.tmp_2" type="Add" version="opset1">
			<data auto_broadcast="numpy"/>
			<rt_info>
				<attribute name="fused_names" version="0" value="batch_norm2d_17.b_0, batch_norm2d_17.w_0, batch_norm2d_17.w_1, batch_norm2d_17.w_2, batch_norm_17.tmp_2"/>
			</rt_info>
			<input>
				<port id="0" precision="FP32">
					<dim>-1</dim>
					<dim>40</dim>
					<dim>16</dim>
					<dim>12</dim>
				</port>
				<port id="1" precision="FP32">
					<dim>1</dim>
					<dim>40</dim>
					<dim>1</dim>
					<dim>1</dim>
				</port>
			</input>
			<output>
				<port id="2" precision="FP32" names="batch_norm_17.tmp_2">
					<dim>-1</dim>
					<dim>40</dim>
					<dim>16</dim>
					<dim>12</dim>
				</port>
			</output>
		</layer>
		<layer id="114" name="Multiply_56749" type="Const" version="opset1">
			<data element_type="f32" shape="40, 40, 1, 1" offset="45952" size="6400"/>
			<output>
				<port id="0" precision="FP32">
					<dim>40</dim>
					<dim>40</dim>
					<dim>1</dim>
					<dim>1</dim>
				</port>
			</output>
		</layer>
		<layer id="115" name="Multiply_54837" type="Convolution" version="opset1">
			<data strides="1, 1" dilations="1, 1" pads_begin="0, 0" pads_end="0, 0" auto_pad="explicit"/>
			<rt_info>
				<attribute name="fused_names" version="0" value="batch_norm2d_18.b_0, batch_norm2d_18.w_0, batch_norm2d_18.w_1, batch_norm2d_18.w_2, batch_norm_18.tmp_2, conv2d_280.tmp_0"/>
			</rt_info>
			<input>
				<port id="0" precision="FP32">
					<dim>-1</dim>
					<dim>40</dim>
					<dim>16</dim>
					<dim>12</dim>
				</port>
				<port id="1" precision="FP32">
					<dim>40</dim>
					<dim>40</dim>
					<dim>1</dim>
					<dim>1</dim>
				</port>
			</input>
			<output>
				<port id="2" precision="FP32">
					<dim>-1</dim>
					<dim>40</dim>
					<dim>16</dim>
					<dim>12</dim>
				</port>
			</output>
		</layer>
		<layer id="116" name="Constant_54842" type="Const" version="opset1">
			<data element_type="f32" shape="1, 40, 1, 1" offset="52352" size="160"/>
			<output>
				<port id="0" precision="FP32">
					<dim>1</dim>
					<dim>40</dim>
					<dim>1</dim>
					<dim>1</dim>
				</port>
			</output>
		</layer>
		<layer id="117" name="batch_norm_18.tmp_2" type="Add" version="opset1">
			<data auto_broadcast="numpy"/>
			<rt_info>
				<attribute name="fused_names" version="0" value="batch_norm2d_18.b_0, batch_norm2d_18.w_0, batch_norm2d_18.w_1, batch_norm2d_18.w_2, batch_norm_18.tmp_2"/>
			</rt_info>
			<input>
				<port id="0" precision="FP32">
					<dim>-1</dim>
					<dim>40</dim>
					<dim>16</dim>
					<dim>12</dim>
				</port>
				<port id="1" precision="FP32">
					<dim>1</dim>
					<dim>40</dim>
					<dim>1</dim>
					<dim>1</dim>
				</port>
			</input>
			<output>
				<port id="2" precision="FP32" names="batch_norm_18.tmp_2">
					<dim>-1</dim>
					<dim>40</dim>
					<dim>16</dim>
					<dim>12</dim>
				</port>
			</output>
		</layer>
		<layer id="118" name="relu_11.tmp_0" type="ReLU" version="opset1">
			<rt_info>
				<attribute name="fused_names" version="0" value="relu_11.tmp_0"/>
			</rt_info>
			<input>
				<port id="0" precision="FP32">
					<dim>-1</dim>
					<dim>40</dim>
					<dim>16</dim>
					<dim>12</dim>
				</port>
			</input>
			<output>
				<port id="1" precision="FP32" names="relu_11.tmp_0">
					<dim>-1</dim>
					<dim>40</dim>
					<dim>16</dim>
					<dim>12</dim>
				</port>
			</output>
		</layer>
		<layer id="119" name="concat_3.tmp_0" type="Concat" version="opset1">
			<data axis="1"/>
			<rt_info>
				<attribute name="fused_names" version="0" value="concat_3.tmp_0"/>
			</rt_info>
			<input>
				<port id="0" precision="FP32">
					<dim>-1</dim>
					<dim>40</dim>
					<dim>16</dim>
					<dim>12</dim>
				</port>
				<port id="1" precision="FP32">
					<dim>-1</dim>
					<dim>40</dim>
					<dim>16</dim>
					<dim>12</dim>
				</port>
			</input>
			<output>
				<port id="2" precision="FP32" names="concat_3.tmp_0">
					<dim>-1</dim>
					<dim>80</dim>
					<dim>16</dim>
					<dim>12</dim>
				</port>
			</output>
		</layer>
		<layer id="120" name="Constant_6" type="Const" version="opset1">
			<data element_type="i64" shape="5" offset="52512" size="40"/>
			<rt_info>
				<attribute name="fused_names" version="0" value="Constant_6"/>
			</rt_info>
			<output>
				<port id="0" precision="I64" names="Constant_6">
					<dim>5</dim>
				</port>
			</output>
		</layer>
		<layer id="121" name="reshape2_6.tmp_0" type="Reshape" version="opset1">
			<data special_zero="true"/>
			<rt_info>
				<attribute name="fused_names" version="0" value="reshape2_6.tmp_0"/>
			</rt_info>
			<input>
				<port id="0" precision="FP32">
					<dim>-1</dim>
					<dim>80</dim>
					<dim>16</dim>
					<dim>12</dim>
				</port>
				<port id="1" precision="I64">
					<dim>5</dim>
				</port>
			</input>
			<output>
				<port id="2" precision="FP32" names="reshape2_6.tmp_0">
					<dim>-1</dim>
					<dim>2</dim>
					<dim>40</dim>
					<dim>16</dim>
					<dim>12</dim>
				</port>
			</output>
		</layer>
		<layer id="122" name="Constant_1990" type="Const" version="opset1">
			<data element_type="i64" shape="5" offset="10928" size="40"/>
			<rt_info>
				<attribute name="fused_names" version="0" value="Constant_1990"/>
			</rt_info>
			<output>
				<port id="0" precision="I64">
					<dim>5</dim>
				</port>
			</output>
		</layer>
		<layer id="123" name="transpose_3.tmp_0" type="Transpose" version="opset1">
			<rt_info>
				<attribute name="fused_names" version="0" value="transpose_3.tmp_0"/>
			</rt_info>
			<input>
				<port id="0" precision="FP32">
					<dim>-1</dim>
					<dim>2</dim>
					<dim>40</dim>
					<dim>16</dim>
					<dim>12</dim>
				</port>
				<port id="1" precision="I64">
					<dim>5</dim>
				</port>
			</input>
			<output>
				<port id="2" precision="FP32" names="transpose_3.tmp_0">
					<dim>-1</dim>
					<dim>40</dim>
					<dim>2</dim>
					<dim>16</dim>
					<dim>12</dim>
				</port>
			</output>
		</layer>
		<layer id="124" name="Constant_7" type="Const" version="opset1">
			<data element_type="i64" shape="4" offset="52552" size="32"/>
			<rt_info>
				<attribute name="fused_names" version="0" value="Constant_7"/>
			</rt_info>
			<output>
				<port id="0" precision="I64" names="Constant_7">
					<dim>4</dim>
				</port>
			</output>
		</layer>
		<layer id="125" name="reshape2_7.tmp_0" type="Reshape" version="opset1">
			<data special_zero="true"/>
			<rt_info>
				<attribute name="fused_names" version="0" value="reshape2_7.tmp_0"/>
			</rt_info>
			<input>
				<port id="0" precision="FP32">
					<dim>-1</dim>
					<dim>40</dim>
					<dim>2</dim>
					<dim>16</dim>
					<dim>12</dim>
				</port>
				<port id="1" precision="I64">
					<dim>4</dim>
				</port>
			</input>
			<output>
				<port id="2" precision="FP32" names="reshape2_7.tmp_0">
					<dim>-1</dim>
					<dim>80</dim>
					<dim>16</dim>
					<dim>12</dim>
				</port>
			</output>
		</layer>
		<layer id="126" name="Constant_1999" type="Const" version="opset1">
			<data element_type="i64" shape="" offset="3584" size="8"/>
			<rt_info>
				<attribute name="fused_names" version="0" value="Constant_1999"/>
			</rt_info>
			<output>
				<port id="0" precision="I64"/>
			</output>
		</layer>
		<layer id="127" name="split_4.tmp_1" type="Split" version="opset1">
			<data num_splits="2"/>
			<rt_info>
				<attribute name="fused_names" version="0" value="split_4.tmp_1"/>
			</rt_info>
			<input>
				<port id="0" precision="FP32">
					<dim>-1</dim>
					<dim>80</dim>
					<dim>16</dim>
					<dim>12</dim>
				</port>
				<port id="1" precision="I64"/>
			</input>
			<output>
				<port id="2" precision="FP32" names="split_4.tmp_0">
					<dim>-1</dim>
					<dim>40</dim>
					<dim>16</dim>
					<dim>12</dim>
				</port>
				<port id="3" precision="FP32" names="split_4.tmp_1">
					<dim>-1</dim>
					<dim>40</dim>
					<dim>16</dim>
					<dim>12</dim>
				</port>
			</output>
		</layer>
		<layer id="128" name="Multiply_56758" type="Const" version="opset1">
			<data element_type="f32" shape="40, 40, 1, 1" offset="52584" size="6400"/>
			<output>
				<port id="0" precision="FP32">
					<dim>40</dim>
					<dim>40</dim>
					<dim>1</dim>
					<dim>1</dim>
				</port>
			</output>
		</layer>
		<layer id="129" name="Multiply_54844" type="Convolution" version="opset1">
			<data strides="1, 1" dilations="1, 1" pads_begin="0, 0" pads_end="0, 0" auto_pad="explicit"/>
			<rt_info>
				<attribute name="fused_names" version="0" value="batch_norm2d_19.b_0, batch_norm2d_19.w_0, batch_norm2d_19.w_1, batch_norm2d_19.w_2, batch_norm_19.tmp_2, conv2d_281.tmp_0"/>
			</rt_info>
			<input>
				<port id="0" precision="FP32">
					<dim>-1</dim>
					<dim>40</dim>
					<dim>16</dim>
					<dim>12</dim>
				</port>
				<port id="1" precision="FP32">
					<dim>40</dim>
					<dim>40</dim>
					<dim>1</dim>
					<dim>1</dim>
				</port>
			</input>
			<output>
				<port id="2" precision="FP32">
					<dim>-1</dim>
					<dim>40</dim>
					<dim>16</dim>
					<dim>12</dim>
				</port>
			</output>
		</layer>
		<layer id="130" name="Constant_54849" type="Const" version="opset1">
			<data element_type="f32" shape="1, 40, 1, 1" offset="58984" size="160"/>
			<output>
				<port id="0" precision="FP32">
					<dim>1</dim>
					<dim>40</dim>
					<dim>1</dim>
					<dim>1</dim>
				</port>
			</output>
		</layer>
		<layer id="131" name="batch_norm_19.tmp_2" type="Add" version="opset1">
			<data auto_broadcast="numpy"/>
			<rt_info>
				<attribute name="fused_names" version="0" value="batch_norm2d_19.b_0, batch_norm2d_19.w_0, batch_norm2d_19.w_1, batch_norm2d_19.w_2, batch_norm_19.tmp_2"/>
			</rt_info>
			<input>
				<port id="0" precision="FP32">
					<dim>-1</dim>
					<dim>40</dim>
					<dim>16</dim>
					<dim>12</dim>
				</port>
				<port id="1" precision="FP32">
					<dim>1</dim>
					<dim>40</dim>
					<dim>1</dim>
					<dim>1</dim>
				</port>
			</input>
			<output>
				<port id="2" precision="FP32" names="batch_norm_19.tmp_2">
					<dim>-1</dim>
					<dim>40</dim>
					<dim>16</dim>
					<dim>12</dim>
				</port>
			</output>
		</layer>
		<layer id="132" name="relu_12.tmp_0" type="ReLU" version="opset1">
			<rt_info>
				<attribute name="fused_names" version="0" value="relu_12.tmp_0"/>
			</rt_info>
			<input>
				<port id="0" precision="FP32">
					<dim>-1</dim>
					<dim>40</dim>
					<dim>16</dim>
					<dim>12</dim>
				</port>
			</input>
			<output>
				<port id="1" precision="FP32" names="relu_12.tmp_0">
					<dim>-1</dim>
					<dim>40</dim>
					<dim>16</dim>
					<dim>12</dim>
				</port>
			</output>
		</layer>
		<layer id="133" name="Multiply_56767" type="Const" version="opset1">
			<data element_type="f32" shape="40, 1, 1, 3, 3" offset="59144" size="1440"/>
			<output>
				<port id="0" precision="FP32">
					<dim>40</dim>
					<dim>1</dim>
					<dim>1</dim>
					<dim>3</dim>
					<dim>3</dim>
				</port>
			</output>
		</layer>
		<layer id="134" name="Multiply_54851" type="GroupConvolution" version="opset1">
			<data strides="1, 1" pads_begin="1, 1" pads_end="1, 1" dilations="1, 1" auto_pad="explicit"/>
			<rt_info>
				<attribute name="fused_names" version="0" value="batch_norm2d_20.b_0, batch_norm2d_20.w_0, batch_norm2d_20.w_1, batch_norm2d_20.w_2, batch_norm_20.tmp_2"/>
			</rt_info>
			<input>
				<port id="0" precision="FP32">
					<dim>-1</dim>
					<dim>40</dim>
					<dim>16</dim>
					<dim>12</dim>
				</port>
				<port id="1" precision="FP32">
					<dim>40</dim>
					<dim>1</dim>
					<dim>1</dim>
					<dim>3</dim>
					<dim>3</dim>
				</port>
			</input>
			<output>
				<port id="2" precision="FP32" names="depthwise_conv2d_7.tmp_0">
					<dim>-1</dim>
					<dim>40</dim>
					<dim>16</dim>
					<dim>12</dim>
				</port>
			</output>
		</layer>
		<layer id="135" name="Constant_54856" type="Const" version="opset1">
			<data element_type="f32" shape="1, 40, 1, 1" offset="60584" size="160"/>
			<output>
				<port id="0" precision="FP32">
					<dim>1</dim>
					<dim>40</dim>
					<dim>1</dim>
					<dim>1</dim>
				</port>
			</output>
		</layer>
		<layer id="136" name="batch_norm_20.tmp_2" type="Add" version="opset1">
			<data auto_broadcast="numpy"/>
			<rt_info>
				<attribute name="fused_names" version="0" value="batch_norm2d_20.b_0, batch_norm2d_20.w_0, batch_norm2d_20.w_1, batch_norm2d_20.w_2, batch_norm_20.tmp_2"/>
			</rt_info>
			<input>
				<port id="0" precision="FP32">
					<dim>-1</dim>
					<dim>40</dim>
					<dim>16</dim>
					<dim>12</dim>
				</port>
				<port id="1" precision="FP32">
					<dim>1</dim>
					<dim>40</dim>
					<dim>1</dim>
					<dim>1</dim>
				</port>
			</input>
			<output>
				<port id="2" precision="FP32" names="batch_norm_20.tmp_2">
					<dim>-1</dim>
					<dim>40</dim>
					<dim>16</dim>
					<dim>12</dim>
				</port>
			</output>
		</layer>
		<layer id="137" name="Multiply_56775" type="Const" version="opset1">
			<data element_type="f32" shape="40, 40, 1, 1" offset="60744" size="6400"/>
			<output>
				<port id="0" precision="FP32">
					<dim>40</dim>
					<dim>40</dim>
					<dim>1</dim>
					<dim>1</dim>
				</port>
			</output>
		</layer>
		<layer id="138" name="Multiply_54858" type="Convolution" version="opset1">
			<data strides="1, 1" dilations="1, 1" pads_begin="0, 0" pads_end="0, 0" auto_pad="explicit"/>
			<rt_info>
				<attribute name="fused_names" version="0" value="batch_norm2d_21.b_0, batch_norm2d_21.w_0, batch_norm2d_21.w_1, batch_norm2d_21.w_2, batch_norm_21.tmp_2, conv2d_282.tmp_0"/>
			</rt_info>
			<input>
				<port id="0" precision="FP32">
					<dim>-1</dim>
					<dim>40</dim>
					<dim>16</dim>
					<dim>12</dim>
				</port>
				<port id="1" precision="FP32">
					<dim>40</dim>
					<dim>40</dim>
					<dim>1</dim>
					<dim>1</dim>
				</port>
			</input>
			<output>
				<port id="2" precision="FP32">
					<dim>-1</dim>
					<dim>40</dim>
					<dim>16</dim>
					<dim>12</dim>
				</port>
			</output>
		</layer>
		<layer id="139" name="Constant_54863" type="Const" version="opset1">
			<data element_type="f32" shape="1, 40, 1, 1" offset="67144" size="160"/>
			<output>
				<port id="0" precision="FP32">
					<dim>1</dim>
					<dim>40</dim>
					<dim>1</dim>
					<dim>1</dim>
				</port>
			</output>
		</layer>
		<layer id="140" name="batch_norm_21.tmp_2" type="Add" version="opset1">
			<data auto_broadcast="numpy"/>
			<rt_info>
				<attribute name="fused_names" version="0" value="batch_norm2d_21.b_0, batch_norm2d_21.w_0, batch_norm2d_21.w_1, batch_norm2d_21.w_2, batch_norm_21.tmp_2"/>
			</rt_info>
			<input>
				<port id="0" precision="FP32">
					<dim>-1</dim>
					<dim>40</dim>
					<dim>16</dim>
					<dim>12</dim>
				</port>
				<port id="1" precision="FP32">
					<dim>1</dim>
					<dim>40</dim>
					<dim>1</dim>
					<dim>1</dim>
				</port>
			</input>
			<output>
				<port id="2" precision="FP32" names="batch_norm_21.tmp_2">
					<dim>-1</dim>
					<dim>40</dim>
					<dim>16</dim>
					<dim>12</dim>
				</port>
			</output>
		</layer>
		<layer id="141" name="relu_13.tmp_0" type="ReLU" version="opset1">
			<rt_info>
				<attribute name="fused_names" version="0" value="relu_13.tmp_0"/>
			</rt_info>
			<input>
				<port id="0" precision="FP32">
					<dim>-1</dim>
					<dim>40</dim>
					<dim>16</dim>
					<dim>12</dim>
				</port>
			</input>
			<output>
				<port id="1" precision="FP32" names="relu_13.tmp_0">
					<dim>-1</dim>
					<dim>40</dim>
					<dim>16</dim>
					<dim>12</dim>
				</port>
			</output>
		</layer>
		<layer id="142" name="concat_4.tmp_0" type="Concat" version="opset1">
			<data axis="1"/>
			<rt_info>
				<attribute name="fused_names" version="0" value="concat_4.tmp_0"/>
			</rt_info>
			<input>
				<port id="0" precision="FP32">
					<dim>-1</dim>
					<dim>40</dim>
					<dim>16</dim>
					<dim>12</dim>
				</port>
				<port id="1" precision="FP32">
					<dim>-1</dim>
					<dim>40</dim>
					<dim>16</dim>
					<dim>12</dim>
				</port>
			</input>
			<output>
				<port id="2" precision="FP32" names="concat_4.tmp_0">
					<dim>-1</dim>
					<dim>80</dim>
					<dim>16</dim>
					<dim>12</dim>
				</port>
			</output>
		</layer>
		<layer id="143" name="Constant_8" type="Const" version="opset1">
			<data element_type="i64" shape="5" offset="52512" size="40"/>
			<rt_info>
				<attribute name="fused_names" version="0" value="Constant_8"/>
			</rt_info>
			<output>
				<port id="0" precision="I64" names="Constant_8">
					<dim>5</dim>
				</port>
			</output>
		</layer>
		<layer id="144" name="reshape2_8.tmp_0" type="Reshape" version="opset1">
			<data special_zero="true"/>
			<rt_info>
				<attribute name="fused_names" version="0" value="reshape2_8.tmp_0"/>
			</rt_info>
			<input>
				<port id="0" precision="FP32">
					<dim>-1</dim>
					<dim>80</dim>
					<dim>16</dim>
					<dim>12</dim>
				</port>
				<port id="1" precision="I64">
					<dim>5</dim>
				</port>
			</input>
			<output>
				<port id="2" precision="FP32" names="reshape2_8.tmp_0">
					<dim>-1</dim>
					<dim>2</dim>
					<dim>40</dim>
					<dim>16</dim>
					<dim>12</dim>
				</port>
			</output>
		</layer>
		<layer id="145" name="Constant_2093" type="Const" version="opset1">
			<data element_type="i64" shape="5" offset="10928" size="40"/>
			<rt_info>
				<attribute name="fused_names" version="0" value="Constant_2093"/>
			</rt_info>
			<output>
				<port id="0" precision="I64">
					<dim>5</dim>
				</port>
			</output>
		</layer>
		<layer id="146" name="transpose_4.tmp_0" type="Transpose" version="opset1">
			<rt_info>
				<attribute name="fused_names" version="0" value="transpose_4.tmp_0"/>
			</rt_info>
			<input>
				<port id="0" precision="FP32">
					<dim>-1</dim>
					<dim>2</dim>
					<dim>40</dim>
					<dim>16</dim>
					<dim>12</dim>
				</port>
				<port id="1" precision="I64">
					<dim>5</dim>
				</port>
			</input>
			<output>
				<port id="2" precision="FP32" names="transpose_4.tmp_0">
					<dim>-1</dim>
					<dim>40</dim>
					<dim>2</dim>
					<dim>16</dim>
					<dim>12</dim>
				</port>
			</output>
		</layer>
		<layer id="147" name="Constant_9" type="Const" version="opset1">
			<data element_type="i64" shape="4" offset="52552" size="32"/>
			<rt_info>
				<attribute name="fused_names" version="0" value="Constant_9"/>
			</rt_info>
			<output>
				<port id="0" precision="I64" names="Constant_9">
					<dim>4</dim>
				</port>
			</output>
		</layer>
		<layer id="148" name="reshape2_9.tmp_0" type="Reshape" version="opset1">
			<data special_zero="true"/>
			<rt_info>
				<attribute name="fused_names" version="0" value="reshape2_9.tmp_0"/>
			</rt_info>
			<input>
				<port id="0" precision="FP32">
					<dim>-1</dim>
					<dim>40</dim>
					<dim>2</dim>
					<dim>16</dim>
					<dim>12</dim>
				</port>
				<port id="1" precision="I64">
					<dim>4</dim>
				</port>
			</input>
			<output>
				<port id="2" precision="FP32" names="reshape2_9.tmp_0">
					<dim>-1</dim>
					<dim>80</dim>
					<dim>16</dim>
					<dim>12</dim>
				</port>
			</output>
		</layer>
		<layer id="149" name="Multiply_56784" type="Const" version="opset1">
			<data element_type="f32" shape="40, 80, 1, 1" offset="67304" size="12800"/>
			<output>
				<port id="0" precision="FP32">
					<dim>40</dim>
					<dim>80</dim>
					<dim>1</dim>
					<dim>1</dim>
				</port>
			</output>
		</layer>
		<layer id="150" name="Multiply_54865" type="Convolution" version="opset1">
			<data strides="1, 1" dilations="1, 1" pads_begin="0, 0" pads_end="0, 0" auto_pad="explicit"/>
			<rt_info>
				<attribute name="fused_names" version="0" value="batch_norm2d_22.b_0, batch_norm2d_22.w_0, batch_norm2d_22.w_1, batch_norm2d_22.w_2, batch_norm_22.tmp_2, conv2d_283.tmp_0"/>
			</rt_info>
			<input>
				<port id="0" precision="FP32">
					<dim>-1</dim>
					<dim>80</dim>
					<dim>16</dim>
					<dim>12</dim>
				</port>
				<port id="1" precision="FP32">
					<dim>40</dim>
					<dim>80</dim>
					<dim>1</dim>
					<dim>1</dim>
				</port>
			</input>
			<output>
				<port id="2" precision="FP32">
					<dim>-1</dim>
					<dim>40</dim>
					<dim>16</dim>
					<dim>12</dim>
				</port>
			</output>
		</layer>
		<layer id="151" name="Constant_54870" type="Const" version="opset1">
			<data element_type="f32" shape="1, 40, 1, 1" offset="80104" size="160"/>
			<output>
				<port id="0" precision="FP32">
					<dim>1</dim>
					<dim>40</dim>
					<dim>1</dim>
					<dim>1</dim>
				</port>
			</output>
		</layer>
		<layer id="152" name="batch_norm_22.tmp_2" type="Add" version="opset1">
			<data auto_broadcast="numpy"/>
			<rt_info>
				<attribute name="fused_names" version="0" value="batch_norm2d_22.b_0, batch_norm2d_22.w_0, batch_norm2d_22.w_1, batch_norm2d_22.w_2, batch_norm_22.tmp_2"/>
			</rt_info>
			<input>
				<port id="0" precision="FP32">
					<dim>-1</dim>
					<dim>40</dim>
					<dim>16</dim>
					<dim>12</dim>
				</port>
				<port id="1" precision="FP32">
					<dim>1</dim>
					<dim>40</dim>
					<dim>1</dim>
					<dim>1</dim>
				</port>
			</input>
			<output>
				<port id="2" precision="FP32" names="batch_norm_22.tmp_2">
					<dim>-1</dim>
					<dim>40</dim>
					<dim>16</dim>
					<dim>12</dim>
				</port>
			</output>
		</layer>
		<layer id="153" name="ShapeOf_2108" type="ShapeOf" version="opset3">
			<data output_type="i64"/>
			<rt_info>
				<attribute name="fused_names" version="0" value="ShapeOf_2108"/>
			</rt_info>
			<input>
				<port id="0" precision="FP32">
					<dim>-1</dim>
					<dim>40</dim>
					<dim>16</dim>
					<dim>12</dim>
				</port>
			</input>
			<output>
				<port id="1" precision="I64">
					<dim>4</dim>
				</port>
			</output>
		</layer>
		<layer id="154" name="Convert_2109" type="Convert" version="opset1">
			<data destination_type="f32"/>
			<rt_info>
				<attribute name="fused_names" version="0" value="Convert_2109"/>
			</rt_info>
			<input>
				<port id="0" precision="I64">
					<dim>4</dim>
				</port>
			</input>
			<output>
				<port id="1" precision="FP32">
					<dim>4</dim>
				</port>
			</output>
		</layer>
		<layer id="155" name="Constant_11" type="Const" version="opset1">
			<data element_type="f32" shape="4" offset="80264" size="16"/>
			<rt_info>
				<attribute name="fused_names" version="0" value="Constant_11"/>
			</rt_info>
			<output>
				<port id="0" precision="FP32" names="Constant_11">
					<dim>4</dim>
				</port>
			</output>
		</layer>
		<layer id="156" name="Multiply_2110" type="Multiply" version="opset1">
			<data auto_broadcast="numpy"/>
			<rt_info>
				<attribute name="fused_names" version="0" value="Multiply_2110"/>
			</rt_info>
			<input>
				<port id="0" precision="FP32">
					<dim>4</dim>
				</port>
				<port id="1" precision="FP32">
					<dim>4</dim>
				</port>
			</input>
			<output>
				<port id="2" precision="FP32">
					<dim>4</dim>
				</port>
			</output>
		</layer>
		<layer id="157" name="Convert_2111" type="Convert" version="opset1">
			<data destination_type="i64"/>
			<rt_info>
				<attribute name="fused_names" version="0" value="Convert_2111"/>
			</rt_info>
			<input>
				<port id="0" precision="FP32">
					<dim>4</dim>
				</port>
			</input>
			<output>
				<port id="1" precision="I64">
					<dim>4</dim>
				</port>
			</output>
		</layer>
		<layer id="158" name="nearest_interp_v2_0.tmp_0" type="Interpolate" version="opset4">
			<data mode="nearest" shape_calculation_mode="scales" coordinate_transformation_mode="asymmetric" nearest_mode="floor" antialias="false" pads_begin="0, 0, 0, 0" pads_end="0, 0, 0, 0" cube_coeff="-0.75"/>
			<rt_info>
				<attribute name="fused_names" version="0" value="nearest_interp_v2_0.tmp_0"/>
			</rt_info>
			<input>
				<port id="0" precision="FP32">
					<dim>-1</dim>
					<dim>40</dim>
					<dim>16</dim>
					<dim>12</dim>
				</port>
				<port id="1" precision="I64">
					<dim>4</dim>
				</port>
				<port id="2" precision="FP32">
					<dim>4</dim>
				</port>
			</input>
			<output>
				<port id="3" precision="FP32" names="nearest_interp_v2_0.tmp_0">
					<dim>-1</dim>
					<dim>40</dim>
					<dim>32</dim>
					<dim>24</dim>
				</port>
			</output>
		</layer>
		<layer id="159" name="tmp_1" type="Add" version="opset1">
			<data auto_broadcast="numpy"/>
			<rt_info>
				<attribute name="fused_names" version="0" value="tmp_1"/>
			</rt_info>
			<input>
				<port id="0" precision="FP32">
					<dim>-1</dim>
					<dim>40</dim>
					<dim>32</dim>
					<dim>24</dim>
				</port>
				<port id="1" precision="FP32">
					<dim>-1</dim>
					<dim>40</dim>
					<dim>32</dim>
					<dim>24</dim>
				</port>
			</input>
			<output>
				<port id="2" precision="FP32" names="tmp_1">
					<dim>-1</dim>
					<dim>40</dim>
					<dim>32</dim>
					<dim>24</dim>
				</port>
			</output>
		</layer>
		<layer id="160" name="relu_14.tmp_0" type="ReLU" version="opset1">
			<rt_info>
				<attribute name="fused_names" version="0" value="relu_14.tmp_0"/>
			</rt_info>
			<input>
				<port id="0" precision="FP32">
					<dim>-1</dim>
					<dim>40</dim>
					<dim>32</dim>
					<dim>24</dim>
				</port>
			</input>
			<output>
				<port id="1" precision="FP32" names="relu_14.tmp_0">
					<dim>-1</dim>
					<dim>40</dim>
					<dim>32</dim>
					<dim>24</dim>
				</port>
			</output>
		</layer>
		<layer id="161" name="Constant_2197" type="Const" version="opset1">
			<data element_type="i64" shape="" offset="3584" size="8"/>
			<rt_info>
				<attribute name="fused_names" version="0" value="Constant_2197"/>
			</rt_info>
			<output>
				<port id="0" precision="I64"/>
			</output>
		</layer>
		<layer id="162" name="split_5.tmp_1" type="Split" version="opset1">
			<data num_splits="2"/>
			<rt_info>
				<attribute name="fused_names" version="0" value="split_5.tmp_1"/>
			</rt_info>
			<input>
				<port id="0" precision="FP32">
					<dim>-1</dim>
					<dim>40</dim>
					<dim>32</dim>
					<dim>24</dim>
				</port>
				<port id="1" precision="I64"/>
			</input>
			<output>
				<port id="2" precision="FP32" names="split_5.tmp_0">
					<dim>-1</dim>
					<dim>20</dim>
					<dim>32</dim>
					<dim>24</dim>
				</port>
				<port id="3" precision="FP32" names="split_5.tmp_1">
					<dim>-1</dim>
					<dim>20</dim>
					<dim>32</dim>
					<dim>24</dim>
				</port>
			</output>
		</layer>
		<layer id="163" name="Multiply_56793" type="Const" version="opset1">
			<data element_type="f32" shape="20, 20, 1, 1" offset="80280" size="1600"/>
			<output>
				<port id="0" precision="FP32">
					<dim>20</dim>
					<dim>20</dim>
					<dim>1</dim>
					<dim>1</dim>
				</port>
			</output>
		</layer>
		<layer id="164" name="Multiply_54872" type="Convolution" version="opset1">
			<data strides="1, 1" dilations="1, 1" pads_begin="0, 0" pads_end="0, 0" auto_pad="explicit"/>
			<rt_info>
				<attribute name="fused_names" version="0" value="batch_norm2d_25.b_0, batch_norm2d_25.w_0, batch_norm2d_25.w_1, batch_norm2d_25.w_2, batch_norm_25.tmp_2, conv2d_285.tmp_0"/>
			</rt_info>
			<input>
				<port id="0" precision="FP32">
					<dim>-1</dim>
					<dim>20</dim>
					<dim>32</dim>
					<dim>24</dim>
				</port>
				<port id="1" precision="FP32">
					<dim>20</dim>
					<dim>20</dim>
					<dim>1</dim>
					<dim>1</dim>
				</port>
			</input>
			<output>
				<port id="2" precision="FP32">
					<dim>-1</dim>
					<dim>20</dim>
					<dim>32</dim>
					<dim>24</dim>
				</port>
			</output>
		</layer>
		<layer id="165" name="Constant_54877" type="Const" version="opset1">
			<data element_type="f32" shape="1, 20, 1, 1" offset="81880" size="80"/>
			<output>
				<port id="0" precision="FP32">
					<dim>1</dim>
					<dim>20</dim>
					<dim>1</dim>
					<dim>1</dim>
				</port>
			</output>
		</layer>
		<layer id="166" name="batch_norm_25.tmp_2" type="Add" version="opset1">
			<data auto_broadcast="numpy"/>
			<rt_info>
				<attribute name="fused_names" version="0" value="batch_norm2d_25.b_0, batch_norm2d_25.w_0, batch_norm2d_25.w_1, batch_norm2d_25.w_2, batch_norm_25.tmp_2"/>
			</rt_info>
			<input>
				<port id="0" precision="FP32">
					<dim>-1</dim>
					<dim>20</dim>
					<dim>32</dim>
					<dim>24</dim>
				</port>
				<port id="1" precision="FP32">
					<dim>1</dim>
					<dim>20</dim>
					<dim>1</dim>
					<dim>1</dim>
				</port>
			</input>
			<output>
				<port id="2" precision="FP32" names="batch_norm_25.tmp_2">
					<dim>-1</dim>
					<dim>20</dim>
					<dim>32</dim>
					<dim>24</dim>
				</port>
			</output>
		</layer>
		<layer id="167" name="relu_16.tmp_0" type="ReLU" version="opset1">
			<rt_info>
				<attribute name="fused_names" version="0" value="relu_16.tmp_0"/>
			</rt_info>
			<input>
				<port id="0" precision="FP32">
					<dim>-1</dim>
					<dim>20</dim>
					<dim>32</dim>
					<dim>24</dim>
				</port>
			</input>
			<output>
				<port id="1" precision="FP32" names="relu_16.tmp_0">
					<dim>-1</dim>
					<dim>20</dim>
					<dim>32</dim>
					<dim>24</dim>
				</port>
			</output>
		</layer>
		<layer id="168" name="Multiply_56802" type="Const" version="opset1">
			<data element_type="f32" shape="20, 1, 1, 3, 3" offset="81960" size="720"/>
			<output>
				<port id="0" precision="FP32">
					<dim>20</dim>
					<dim>1</dim>
					<dim>1</dim>
					<dim>3</dim>
					<dim>3</dim>
				</port>
			</output>
		</layer>
		<layer id="169" name="Multiply_54879" type="GroupConvolution" version="opset1">
			<data strides="1, 1" pads_begin="1, 1" pads_end="1, 1" dilations="1, 1" auto_pad="explicit"/>
			<rt_info>
				<attribute name="fused_names" version="0" value="batch_norm2d_26.b_0, batch_norm2d_26.w_0, batch_norm2d_26.w_1, batch_norm2d_26.w_2, batch_norm_26.tmp_2"/>
			</rt_info>
			<input>
				<port id="0" precision="FP32">
					<dim>-1</dim>
					<dim>20</dim>
					<dim>32</dim>
					<dim>24</dim>
				</port>
				<port id="1" precision="FP32">
					<dim>20</dim>
					<dim>1</dim>
					<dim>1</dim>
					<dim>3</dim>
					<dim>3</dim>
				</port>
			</input>
			<output>
				<port id="2" precision="FP32" names="depthwise_conv2d_9.tmp_0">
					<dim>-1</dim>
					<dim>20</dim>
					<dim>32</dim>
					<dim>24</dim>
				</port>
			</output>
		</layer>
		<layer id="170" name="Constant_54884" type="Const" version="opset1">
			<data element_type="f32" shape="1, 20, 1, 1" offset="82680" size="80"/>
			<output>
				<port id="0" precision="FP32">
					<dim>1</dim>
					<dim>20</dim>
					<dim>1</dim>
					<dim>1</dim>
				</port>
			</output>
		</layer>
		<layer id="171" name="batch_norm_26.tmp_2" type="Add" version="opset1">
			<data auto_broadcast="numpy"/>
			<rt_info>
				<attribute name="fused_names" version="0" value="batch_norm2d_26.b_0, batch_norm2d_26.w_0, batch_norm2d_26.w_1, batch_norm2d_26.w_2, batch_norm_26.tmp_2"/>
			</rt_info>
			<input>
				<port id="0" precision="FP32">
					<dim>-1</dim>
					<dim>20</dim>
					<dim>32</dim>
					<dim>24</dim>
				</port>
				<port id="1" precision="FP32">
					<dim>1</dim>
					<dim>20</dim>
					<dim>1</dim>
					<dim>1</dim>
				</port>
			</input>
			<output>
				<port id="2" precision="FP32" names="batch_norm_26.tmp_2">
					<dim>-1</dim>
					<dim>20</dim>
					<dim>32</dim>
					<dim>24</dim>
				</port>
			</output>
		</layer>
		<layer id="172" name="Multiply_56810" type="Const" version="opset1">
			<data element_type="f32" shape="20, 20, 1, 1" offset="82760" size="1600"/>
			<output>
				<port id="0" precision="FP32">
					<dim>20</dim>
					<dim>20</dim>
					<dim>1</dim>
					<dim>1</dim>
				</port>
			</output>
		</layer>
		<layer id="173" name="Multiply_54886" type="Convolution" version="opset1">
			<data strides="1, 1" dilations="1, 1" pads_begin="0, 0" pads_end="0, 0" auto_pad="explicit"/>
			<rt_info>
				<attribute name="fused_names" version="0" value="batch_norm2d_27.b_0, batch_norm2d_27.w_0, batch_norm2d_27.w_1, batch_norm2d_27.w_2, batch_norm_27.tmp_2, conv2d_286.tmp_0"/>
			</rt_info>
			<input>
				<port id="0" precision="FP32">
					<dim>-1</dim>
					<dim>20</dim>
					<dim>32</dim>
					<dim>24</dim>
				</port>
				<port id="1" precision="FP32">
					<dim>20</dim>
					<dim>20</dim>
					<dim>1</dim>
					<dim>1</dim>
				</port>
			</input>
			<output>
				<port id="2" precision="FP32">
					<dim>-1</dim>
					<dim>20</dim>
					<dim>32</dim>
					<dim>24</dim>
				</port>
			</output>
		</layer>
		<layer id="174" name="Constant_54891" type="Const" version="opset1">
			<data element_type="f32" shape="1, 20, 1, 1" offset="84360" size="80"/>
			<output>
				<port id="0" precision="FP32">
					<dim>1</dim>
					<dim>20</dim>
					<dim>1</dim>
					<dim>1</dim>
				</port>
			</output>
		</layer>
		<layer id="175" name="batch_norm_27.tmp_2" type="Add" version="opset1">
			<data auto_broadcast="numpy"/>
			<rt_info>
				<attribute name="fused_names" version="0" value="batch_norm2d_27.b_0, batch_norm2d_27.w_0, batch_norm2d_27.w_1, batch_norm2d_27.w_2, batch_norm_27.tmp_2"/>
			</rt_info>
			<input>
				<port id="0" precision="FP32">
					<dim>-1</dim>
					<dim>20</dim>
					<dim>32</dim>
					<dim>24</dim>
				</port>
				<port id="1" precision="FP32">
					<dim>1</dim>
					<dim>20</dim>
					<dim>1</dim>
					<dim>1</dim>
				</port>
			</input>
			<output>
				<port id="2" precision="FP32" names="batch_norm_27.tmp_2">
					<dim>-1</dim>
					<dim>20</dim>
					<dim>32</dim>
					<dim>24</dim>
				</port>
			</output>
		</layer>
		<layer id="176" name="relu_17.tmp_0" type="ReLU" version="opset1">
			<rt_info>
				<attribute name="fused_names" version="0" value="relu_17.tmp_0"/>
			</rt_info>
			<input>
				<port id="0" precision="FP32">
					<dim>-1</dim>
					<dim>20</dim>
					<dim>32</dim>
					<dim>24</dim>
				</port>
			</input>
			<output>
				<port id="1" precision="FP32" names="relu_17.tmp_0">
					<dim>-1</dim>
					<dim>20</dim>
					<dim>32</dim>
					<dim>24</dim>
				</port>
			</output>
		</layer>
		<layer id="177" name="concat_5.tmp_0" type="Concat" version="opset1">
			<data axis="1"/>
			<rt_info>
				<attribute name="fused_names" version="0" value="concat_5.tmp_0"/>
			</rt_info>
			<input>
				<port id="0" precision="FP32">
					<dim>-1</dim>
					<dim>20</dim>
					<dim>32</dim>
					<dim>24</dim>
				</port>
				<port id="1" precision="FP32">
					<dim>-1</dim>
					<dim>20</dim>
					<dim>32</dim>
					<dim>24</dim>
				</port>
			</input>
			<output>
				<port id="2" precision="FP32" names="concat_5.tmp_0">
					<dim>-1</dim>
					<dim>40</dim>
					<dim>32</dim>
					<dim>24</dim>
				</port>
			</output>
		</layer>
		<layer id="178" name="Constant_12" type="Const" version="opset1">
			<data element_type="i64" shape="5" offset="21720" size="40"/>
			<rt_info>
				<attribute name="fused_names" version="0" value="Constant_12"/>
			</rt_info>
			<output>
				<port id="0" precision="I64" names="Constant_12">
					<dim>5</dim>
				</port>
			</output>
		</layer>
		<layer id="179" name="reshape2_10.tmp_0" type="Reshape" version="opset1">
			<data special_zero="true"/>
			<rt_info>
				<attribute name="fused_names" version="0" value="reshape2_10.tmp_0"/>
			</rt_info>
			<input>
				<port id="0" precision="FP32">
					<dim>-1</dim>
					<dim>40</dim>
					<dim>32</dim>
					<dim>24</dim>
				</port>
				<port id="1" precision="I64">
					<dim>5</dim>
				</port>
			</input>
			<output>
				<port id="2" precision="FP32" names="reshape2_10.tmp_0">
					<dim>-1</dim>
					<dim>2</dim>
					<dim>20</dim>
					<dim>32</dim>
					<dim>24</dim>
				</port>
			</output>
		</layer>
		<layer id="180" name="Constant_2291" type="Const" version="opset1">
			<data element_type="i64" shape="5" offset="10928" size="40"/>
			<rt_info>
				<attribute name="fused_names" version="0" value="Constant_2291"/>
			</rt_info>
			<output>
				<port id="0" precision="I64">
					<dim>5</dim>
				</port>
			</output>
		</layer>
		<layer id="181" name="transpose_5.tmp_0" type="Transpose" version="opset1">
			<rt_info>
				<attribute name="fused_names" version="0" value="transpose_5.tmp_0"/>
			</rt_info>
			<input>
				<port id="0" precision="FP32">
					<dim>-1</dim>
					<dim>2</dim>
					<dim>20</dim>
					<dim>32</dim>
					<dim>24</dim>
				</port>
				<port id="1" precision="I64">
					<dim>5</dim>
				</port>
			</input>
			<output>
				<port id="2" precision="FP32" names="transpose_5.tmp_0">
					<dim>-1</dim>
					<dim>20</dim>
					<dim>2</dim>
					<dim>32</dim>
					<dim>24</dim>
				</port>
			</output>
		</layer>
		<layer id="182" name="Constant_13" type="Const" version="opset1">
			<data element_type="i64" shape="4" offset="21760" size="32"/>
			<rt_info>
				<attribute name="fused_names" version="0" value="Constant_13"/>
			</rt_info>
			<output>
				<port id="0" precision="I64" names="Constant_13">
					<dim>4</dim>
				</port>
			</output>
		</layer>
		<layer id="183" name="reshape2_11.tmp_0" type="Reshape" version="opset1">
			<data special_zero="true"/>
			<rt_info>
				<attribute name="fused_names" version="0" value="reshape2_11.tmp_0"/>
			</rt_info>
			<input>
				<port id="0" precision="FP32">
					<dim>-1</dim>
					<dim>20</dim>
					<dim>2</dim>
					<dim>32</dim>
					<dim>24</dim>
				</port>
				<port id="1" precision="I64">
					<dim>4</dim>
				</port>
			</input>
			<output>
				<port id="2" precision="FP32" names="reshape2_11.tmp_0">
					<dim>-1</dim>
					<dim>40</dim>
					<dim>32</dim>
					<dim>24</dim>
				</port>
			</output>
		</layer>
		<layer id="184" name="Constant_2300" type="Const" version="opset1">
			<data element_type="i64" shape="" offset="3584" size="8"/>
			<rt_info>
				<attribute name="fused_names" version="0" value="Constant_2300"/>
			</rt_info>
			<output>
				<port id="0" precision="I64"/>
			</output>
		</layer>
		<layer id="185" name="split_6.tmp_1" type="Split" version="opset1">
			<data num_splits="2"/>
			<rt_info>
				<attribute name="fused_names" version="0" value="split_6.tmp_1"/>
			</rt_info>
			<input>
				<port id="0" precision="FP32">
					<dim>-1</dim>
					<dim>40</dim>
					<dim>32</dim>
					<dim>24</dim>
				</port>
				<port id="1" precision="I64"/>
			</input>
			<output>
				<port id="2" precision="FP32" names="split_6.tmp_0">
					<dim>-1</dim>
					<dim>20</dim>
					<dim>32</dim>
					<dim>24</dim>
				</port>
				<port id="3" precision="FP32" names="split_6.tmp_1">
					<dim>-1</dim>
					<dim>20</dim>
					<dim>32</dim>
					<dim>24</dim>
				</port>
			</output>
		</layer>
		<layer id="186" name="Multiply_56819" type="Const" version="opset1">
			<data element_type="f32" shape="20, 20, 1, 1" offset="84440" size="1600"/>
			<output>
				<port id="0" precision="FP32">
					<dim>20</dim>
					<dim>20</dim>
					<dim>1</dim>
					<dim>1</dim>
				</port>
			</output>
		</layer>
		<layer id="187" name="Multiply_54893" type="Convolution" version="opset1">
			<data strides="1, 1" dilations="1, 1" pads_begin="0, 0" pads_end="0, 0" auto_pad="explicit"/>
			<rt_info>
				<attribute name="fused_names" version="0" value="batch_norm2d_28.b_0, batch_norm2d_28.w_0, batch_norm2d_28.w_1, batch_norm2d_28.w_2, batch_norm_28.tmp_2, conv2d_287.tmp_0"/>
			</rt_info>
			<input>
				<port id="0" precision="FP32">
					<dim>-1</dim>
					<dim>20</dim>
					<dim>32</dim>
					<dim>24</dim>
				</port>
				<port id="1" precision="FP32">
					<dim>20</dim>
					<dim>20</dim>
					<dim>1</dim>
					<dim>1</dim>
				</port>
			</input>
			<output>
				<port id="2" precision="FP32">
					<dim>-1</dim>
					<dim>20</dim>
					<dim>32</dim>
					<dim>24</dim>
				</port>
			</output>
		</layer>
		<layer id="188" name="Constant_54898" type="Const" version="opset1">
			<data element_type="f32" shape="1, 20, 1, 1" offset="86040" size="80"/>
			<output>
				<port id="0" precision="FP32">
					<dim>1</dim>
					<dim>20</dim>
					<dim>1</dim>
					<dim>1</dim>
				</port>
			</output>
		</layer>
		<layer id="189" name="batch_norm_28.tmp_2" type="Add" version="opset1">
			<data auto_broadcast="numpy"/>
			<rt_info>
				<attribute name="fused_names" version="0" value="batch_norm2d_28.b_0, batch_norm2d_28.w_0, batch_norm2d_28.w_1, batch_norm2d_28.w_2, batch_norm_28.tmp_2"/>
			</rt_info>
			<input>
				<port id="0" precision="FP32">
					<dim>-1</dim>
					<dim>20</dim>
					<dim>32</dim>
					<dim>24</dim>
				</port>
				<port id="1" precision="FP32">
					<dim>1</dim>
					<dim>20</dim>
					<dim>1</dim>
					<dim>1</dim>
				</port>
			</input>
			<output>
				<port id="2" precision="FP32" names="batch_norm_28.tmp_2">
					<dim>-1</dim>
					<dim>20</dim>
					<dim>32</dim>
					<dim>24</dim>
				</port>
			</output>
		</layer>
		<layer id="190" name="relu_18.tmp_0" type="ReLU" version="opset1">
			<rt_info>
				<attribute name="fused_names" version="0" value="relu_18.tmp_0"/>
			</rt_info>
			<input>
				<port id="0" precision="FP32">
					<dim>-1</dim>
					<dim>20</dim>
					<dim>32</dim>
					<dim>24</dim>
				</port>
			</input>
			<output>
				<port id="1" precision="FP32" names="relu_18.tmp_0">
					<dim>-1</dim>
					<dim>20</dim>
					<dim>32</dim>
					<dim>24</dim>
				</port>
			</output>
		</layer>
		<layer id="191" name="Multiply_56828" type="Const" version="opset1">
			<data element_type="f32" shape="20, 1, 1, 3, 3" offset="86120" size="720"/>
			<output>
				<port id="0" precision="FP32">
					<dim>20</dim>
					<dim>1</dim>
					<dim>1</dim>
					<dim>3</dim>
					<dim>3</dim>
				</port>
			</output>
		</layer>
		<layer id="192" name="Multiply_54900" type="GroupConvolution" version="opset1">
			<data strides="1, 1" pads_begin="1, 1" pads_end="1, 1" dilations="1, 1" auto_pad="explicit"/>
			<rt_info>
				<attribute name="fused_names" version="0" value="batch_norm2d_29.b_0, batch_norm2d_29.w_0, batch_norm2d_29.w_1, batch_norm2d_29.w_2, batch_norm_29.tmp_2"/>
			</rt_info>
			<input>
				<port id="0" precision="FP32">
					<dim>-1</dim>
					<dim>20</dim>
					<dim>32</dim>
					<dim>24</dim>
				</port>
				<port id="1" precision="FP32">
					<dim>20</dim>
					<dim>1</dim>
					<dim>1</dim>
					<dim>3</dim>
					<dim>3</dim>
				</port>
			</input>
			<output>
				<port id="2" precision="FP32" names="depthwise_conv2d_10.tmp_0">
					<dim>-1</dim>
					<dim>20</dim>
					<dim>32</dim>
					<dim>24</dim>
				</port>
			</output>
		</layer>
		<layer id="193" name="Constant_54905" type="Const" version="opset1">
			<data element_type="f32" shape="1, 20, 1, 1" offset="86840" size="80"/>
			<output>
				<port id="0" precision="FP32">
					<dim>1</dim>
					<dim>20</dim>
					<dim>1</dim>
					<dim>1</dim>
				</port>
			</output>
		</layer>
		<layer id="194" name="batch_norm_29.tmp_2" type="Add" version="opset1">
			<data auto_broadcast="numpy"/>
			<rt_info>
				<attribute name="fused_names" version="0" value="batch_norm2d_29.b_0, batch_norm2d_29.w_0, batch_norm2d_29.w_1, batch_norm2d_29.w_2, batch_norm_29.tmp_2"/>
			</rt_info>
			<input>
				<port id="0" precision="FP32">
					<dim>-1</dim>
					<dim>20</dim>
					<dim>32</dim>
					<dim>24</dim>
				</port>
				<port id="1" precision="FP32">
					<dim>1</dim>
					<dim>20</dim>
					<dim>1</dim>
					<dim>1</dim>
				</port>
			</input>
			<output>
				<port id="2" precision="FP32" names="batch_norm_29.tmp_2">
					<dim>-1</dim>
					<dim>20</dim>
					<dim>32</dim>
					<dim>24</dim>
				</port>
			</output>
		</layer>
		<layer id="195" name="Multiply_56836" type="Const" version="opset1">
			<data element_type="f32" shape="20, 20, 1, 1" offset="86920" size="1600"/>
			<output>
				<port id="0" precision="FP32">
					<dim>20</dim>
					<dim>20</dim>
					<dim>1</dim>
					<dim>1</dim>
				</port>
			</output>
		</layer>
		<layer id="196" name="Multiply_54907" type="Convolution" version="opset1">
			<data strides="1, 1" dilations="1, 1" pads_begin="0, 0" pads_end="0, 0" auto_pad="explicit"/>
			<rt_info>
				<attribute name="fused_names" version="0" value="batch_norm2d_30.b_0, batch_norm2d_30.w_0, batch_norm2d_30.w_1, batch_norm2d_30.w_2, batch_norm_30.tmp_2, conv2d_288.tmp_0"/>
			</rt_info>
			<input>
				<port id="0" precision="FP32">
					<dim>-1</dim>
					<dim>20</dim>
					<dim>32</dim>
					<dim>24</dim>
				</port>
				<port id="1" precision="FP32">
					<dim>20</dim>
					<dim>20</dim>
					<dim>1</dim>
					<dim>1</dim>
				</port>
			</input>
			<output>
				<port id="2" precision="FP32">
					<dim>-1</dim>
					<dim>20</dim>
					<dim>32</dim>
					<dim>24</dim>
				</port>
			</output>
		</layer>
		<layer id="197" name="Constant_54912" type="Const" version="opset1">
			<data element_type="f32" shape="1, 20, 1, 1" offset="88520" size="80"/>
			<output>
				<port id="0" precision="FP32">
					<dim>1</dim>
					<dim>20</dim>
					<dim>1</dim>
					<dim>1</dim>
				</port>
			</output>
		</layer>
		<layer id="198" name="batch_norm_30.tmp_2" type="Add" version="opset1">
			<data auto_broadcast="numpy"/>
			<rt_info>
				<attribute name="fused_names" version="0" value="batch_norm2d_30.b_0, batch_norm2d_30.w_0, batch_norm2d_30.w_1, batch_norm2d_30.w_2, batch_norm_30.tmp_2"/>
			</rt_info>
			<input>
				<port id="0" precision="FP32">
					<dim>-1</dim>
					<dim>20</dim>
					<dim>32</dim>
					<dim>24</dim>
				</port>
				<port id="1" precision="FP32">
					<dim>1</dim>
					<dim>20</dim>
					<dim>1</dim>
					<dim>1</dim>
				</port>
			</input>
			<output>
				<port id="2" precision="FP32" names="batch_norm_30.tmp_2">
					<dim>-1</dim>
					<dim>20</dim>
					<dim>32</dim>
					<dim>24</dim>
				</port>
			</output>
		</layer>
		<layer id="199" name="relu_19.tmp_0" type="ReLU" version="opset1">
			<rt_info>
				<attribute name="fused_names" version="0" value="relu_19.tmp_0"/>
			</rt_info>
			<input>
				<port id="0" precision="FP32">
					<dim>-1</dim>
					<dim>20</dim>
					<dim>32</dim>
					<dim>24</dim>
				</port>
			</input>
			<output>
				<port id="1" precision="FP32" names="relu_19.tmp_0">
					<dim>-1</dim>
					<dim>20</dim>
					<dim>32</dim>
					<dim>24</dim>
				</port>
			</output>
		</layer>
		<layer id="200" name="concat_6.tmp_0" type="Concat" version="opset1">
			<data axis="1"/>
			<rt_info>
				<attribute name="fused_names" version="0" value="concat_6.tmp_0"/>
			</rt_info>
			<input>
				<port id="0" precision="FP32">
					<dim>-1</dim>
					<dim>20</dim>
					<dim>32</dim>
					<dim>24</dim>
				</port>
				<port id="1" precision="FP32">
					<dim>-1</dim>
					<dim>20</dim>
					<dim>32</dim>
					<dim>24</dim>
				</port>
			</input>
			<output>
				<port id="2" precision="FP32" names="concat_6.tmp_0">
					<dim>-1</dim>
					<dim>40</dim>
					<dim>32</dim>
					<dim>24</dim>
				</port>
			</output>
		</layer>
		<layer id="201" name="Constant_14" type="Const" version="opset1">
			<data element_type="i64" shape="5" offset="21720" size="40"/>
			<rt_info>
				<attribute name="fused_names" version="0" value="Constant_14"/>
			</rt_info>
			<output>
				<port id="0" precision="I64" names="Constant_14">
					<dim>5</dim>
				</port>
			</output>
		</layer>
		<layer id="202" name="reshape2_12.tmp_0" type="Reshape" version="opset1">
			<data special_zero="true"/>
			<rt_info>
				<attribute name="fused_names" version="0" value="reshape2_12.tmp_0"/>
			</rt_info>
			<input>
				<port id="0" precision="FP32">
					<dim>-1</dim>
					<dim>40</dim>
					<dim>32</dim>
					<dim>24</dim>
				</port>
				<port id="1" precision="I64">
					<dim>5</dim>
				</port>
			</input>
			<output>
				<port id="2" precision="FP32" names="reshape2_12.tmp_0">
					<dim>-1</dim>
					<dim>2</dim>
					<dim>20</dim>
					<dim>32</dim>
					<dim>24</dim>
				</port>
			</output>
		</layer>
		<layer id="203" name="Constant_2394" type="Const" version="opset1">
			<data element_type="i64" shape="5" offset="10928" size="40"/>
			<rt_info>
				<attribute name="fused_names" version="0" value="Constant_2394"/>
			</rt_info>
			<output>
				<port id="0" precision="I64">
					<dim>5</dim>
				</port>
			</output>
		</layer>
		<layer id="204" name="transpose_6.tmp_0" type="Transpose" version="opset1">
			<rt_info>
				<attribute name="fused_names" version="0" value="transpose_6.tmp_0"/>
			</rt_info>
			<input>
				<port id="0" precision="FP32">
					<dim>-1</dim>
					<dim>2</dim>
					<dim>20</dim>
					<dim>32</dim>
					<dim>24</dim>
				</port>
				<port id="1" precision="I64">
					<dim>5</dim>
				</port>
			</input>
			<output>
				<port id="2" precision="FP32" names="transpose_6.tmp_0">
					<dim>-1</dim>
					<dim>20</dim>
					<dim>2</dim>
					<dim>32</dim>
					<dim>24</dim>
				</port>
			</output>
		</layer>
		<layer id="205" name="Constant_15" type="Const" version="opset1">
			<data element_type="i64" shape="4" offset="21760" size="32"/>
			<rt_info>
				<attribute name="fused_names" version="0" value="Constant_15"/>
			</rt_info>
			<output>
				<port id="0" precision="I64" names="Constant_15">
					<dim>4</dim>
				</port>
			</output>
		</layer>
		<layer id="206" name="reshape2_13.tmp_0" type="Reshape" version="opset1">
			<data special_zero="true"/>
			<rt_info>
				<attribute name="fused_names" version="0" value="reshape2_13.tmp_0"/>
			</rt_info>
			<input>
				<port id="0" precision="FP32">
					<dim>-1</dim>
					<dim>20</dim>
					<dim>2</dim>
					<dim>32</dim>
					<dim>24</dim>
				</port>
				<port id="1" precision="I64">
					<dim>4</dim>
				</port>
			</input>
			<output>
				<port id="2" precision="FP32" names="reshape2_13.tmp_0">
					<dim>-1</dim>
					<dim>40</dim>
					<dim>32</dim>
					<dim>24</dim>
				</port>
			</output>
		</layer>
		<layer id="207" name="tmp_4" type="Add" version="opset1">
			<data auto_broadcast="numpy"/>
			<rt_info>
				<attribute name="fused_names" version="0" value="tmp_4"/>
			</rt_info>
			<input>
				<port id="0" precision="FP32">
					<dim>-1</dim>
					<dim>40</dim>
					<dim>32</dim>
					<dim>24</dim>
				</port>
				<port id="1" precision="FP32">
					<dim>-1</dim>
					<dim>40</dim>
					<dim>32</dim>
					<dim>24</dim>
				</port>
			</input>
			<output>
				<port id="2" precision="FP32" names="tmp_4">
					<dim>-1</dim>
					<dim>40</dim>
					<dim>32</dim>
					<dim>24</dim>
				</port>
			</output>
		</layer>
		<layer id="208" name="Multiply_56845" type="Const" version="opset1">
			<data element_type="f32" shape="40, 1, 1, 3, 3" offset="88600" size="1440"/>
			<output>
				<port id="0" precision="FP32">
					<dim>40</dim>
					<dim>1</dim>
					<dim>1</dim>
					<dim>3</dim>
					<dim>3</dim>
				</port>
			</output>
		</layer>
		<layer id="209" name="Multiply_54914" type="GroupConvolution" version="opset1">
			<data strides="2, 2" pads_begin="1, 1" pads_end="1, 1" dilations="1, 1" auto_pad="explicit"/>
			<rt_info>
				<attribute name="fused_names" version="0" value="batch_norm2d_23.b_0, batch_norm2d_23.w_0, batch_norm2d_23.w_1, batch_norm2d_23.w_2, batch_norm_23.tmp_2"/>
			</rt_info>
			<input>
				<port id="0" precision="FP32">
					<dim>-1</dim>
					<dim>40</dim>
					<dim>32</dim>
					<dim>24</dim>
				</port>
				<port id="1" precision="FP32">
					<dim>40</dim>
					<dim>1</dim>
					<dim>1</dim>
					<dim>3</dim>
					<dim>3</dim>
				</port>
			</input>
			<output>
				<port id="2" precision="FP32" names="depthwise_conv2d_8.tmp_0">
					<dim>-1</dim>
					<dim>40</dim>
					<dim>16</dim>
					<dim>12</dim>
				</port>
			</output>
		</layer>
		<layer id="210" name="Constant_54919" type="Const" version="opset1">
			<data element_type="f32" shape="1, 40, 1, 1" offset="90040" size="160"/>
			<output>
				<port id="0" precision="FP32">
					<dim>1</dim>
					<dim>40</dim>
					<dim>1</dim>
					<dim>1</dim>
				</port>
			</output>
		</layer>
		<layer id="211" name="batch_norm_23.tmp_2" type="Add" version="opset1">
			<data auto_broadcast="numpy"/>
			<rt_info>
				<attribute name="fused_names" version="0" value="batch_norm2d_23.b_0, batch_norm2d_23.w_0, batch_norm2d_23.w_1, batch_norm2d_23.w_2, batch_norm_23.tmp_2"/>
			</rt_info>
			<input>
				<port id="0" precision="FP32">
					<dim>-1</dim>
					<dim>40</dim>
					<dim>16</dim>
					<dim>12</dim>
				</port>
				<port id="1" precision="FP32">
					<dim>1</dim>
					<dim>40</dim>
					<dim>1</dim>
					<dim>1</dim>
				</port>
			</input>
			<output>
				<port id="2" precision="FP32" names="batch_norm_23.tmp_2">
					<dim>-1</dim>
					<dim>40</dim>
					<dim>16</dim>
					<dim>12</dim>
				</port>
			</output>
		</layer>
		<layer id="212" name="Multiply_56853" type="Const" version="opset1">
			<data element_type="f32" shape="80, 40, 1, 1" offset="90200" size="12800"/>
			<output>
				<port id="0" precision="FP32">
					<dim>80</dim>
					<dim>40</dim>
					<dim>1</dim>
					<dim>1</dim>
				</port>
			</output>
		</layer>
		<layer id="213" name="Multiply_54921" type="Convolution" version="opset1">
			<data strides="1, 1" dilations="1, 1" pads_begin="0, 0" pads_end="0, 0" auto_pad="explicit"/>
			<rt_info>
				<attribute name="fused_names" version="0" value="batch_norm2d_24.b_0, batch_norm2d_24.w_0, batch_norm2d_24.w_1, batch_norm2d_24.w_2, batch_norm_24.tmp_2, conv2d_284.tmp_0"/>
			</rt_info>
			<input>
				<port id="0" precision="FP32">
					<dim>-1</dim>
					<dim>40</dim>
					<dim>16</dim>
					<dim>12</dim>
				</port>
				<port id="1" precision="FP32">
					<dim>80</dim>
					<dim>40</dim>
					<dim>1</dim>
					<dim>1</dim>
				</port>
			</input>
			<output>
				<port id="2" precision="FP32">
					<dim>-1</dim>
					<dim>80</dim>
					<dim>16</dim>
					<dim>12</dim>
				</port>
			</output>
		</layer>
		<layer id="214" name="Constant_54926" type="Const" version="opset1">
			<data element_type="f32" shape="1, 80, 1, 1" offset="103000" size="320"/>
			<output>
				<port id="0" precision="FP32">
					<dim>1</dim>
					<dim>80</dim>
					<dim>1</dim>
					<dim>1</dim>
				</port>
			</output>
		</layer>
		<layer id="215" name="batch_norm_24.tmp_2" type="Add" version="opset1">
			<data auto_broadcast="numpy"/>
			<rt_info>
				<attribute name="fused_names" version="0" value="batch_norm2d_24.b_0, batch_norm2d_24.w_0, batch_norm2d_24.w_1, batch_norm2d_24.w_2, batch_norm_24.tmp_2"/>
			</rt_info>
			<input>
				<port id="0" precision="FP32">
					<dim>-1</dim>
					<dim>80</dim>
					<dim>16</dim>
					<dim>12</dim>
				</port>
				<port id="1" precision="FP32">
					<dim>1</dim>
					<dim>80</dim>
					<dim>1</dim>
					<dim>1</dim>
				</port>
			</input>
			<output>
				<port id="2" precision="FP32" names="batch_norm_24.tmp_2">
					<dim>-1</dim>
					<dim>80</dim>
					<dim>16</dim>
					<dim>12</dim>
				</port>
			</output>
		</layer>
		<layer id="216" name="tmp_2" type="Add" version="opset1">
			<data auto_broadcast="numpy"/>
			<rt_info>
				<attribute name="fused_names" version="0" value="tmp_2"/>
			</rt_info>
			<input>
				<port id="0" precision="FP32">
					<dim>-1</dim>
					<dim>80</dim>
					<dim>16</dim>
					<dim>12</dim>
				</port>
				<port id="1" precision="FP32">
					<dim>-1</dim>
					<dim>80</dim>
					<dim>16</dim>
					<dim>12</dim>
				</port>
			</input>
			<output>
				<port id="2" precision="FP32" names="tmp_2">
					<dim>-1</dim>
					<dim>80</dim>
					<dim>16</dim>
					<dim>12</dim>
				</port>
			</output>
		</layer>
		<layer id="217" name="tmp_3" type="Add" version="opset1">
			<data auto_broadcast="numpy"/>
			<rt_info>
				<attribute name="fused_names" version="0" value="tmp_3"/>
			</rt_info>
			<input>
				<port id="0" precision="FP32">
					<dim>-1</dim>
					<dim>80</dim>
					<dim>16</dim>
					<dim>12</dim>
				</port>
				<port id="1" precision="FP32">
					<dim>-1</dim>
					<dim>80</dim>
					<dim>16</dim>
					<dim>12</dim>
				</port>
			</input>
			<output>
				<port id="2" precision="FP32" names="tmp_3">
					<dim>-1</dim>
					<dim>80</dim>
					<dim>16</dim>
					<dim>12</dim>
				</port>
			</output>
		</layer>
		<layer id="218" name="relu_15.tmp_0" type="ReLU" version="opset1">
			<rt_info>
				<attribute name="fused_names" version="0" value="relu_15.tmp_0"/>
			</rt_info>
			<input>
				<port id="0" precision="FP32">
					<dim>-1</dim>
					<dim>80</dim>
					<dim>16</dim>
					<dim>12</dim>
				</port>
			</input>
			<output>
				<port id="1" precision="FP32" names="relu_15.tmp_0">
					<dim>-1</dim>
					<dim>80</dim>
					<dim>16</dim>
					<dim>12</dim>
				</port>
			</output>
		</layer>
		<layer id="219" name="Constant_2403" type="Const" version="opset1">
			<data element_type="i64" shape="" offset="3584" size="8"/>
			<rt_info>
				<attribute name="fused_names" version="0" value="Constant_2403"/>
			</rt_info>
			<output>
				<port id="0" precision="I64"/>
			</output>
		</layer>
		<layer id="220" name="split_7.tmp_1" type="Split" version="opset1">
			<data num_splits="2"/>
			<rt_info>
				<attribute name="fused_names" version="0" value="split_7.tmp_1"/>
			</rt_info>
			<input>
				<port id="0" precision="FP32">
					<dim>-1</dim>
					<dim>80</dim>
					<dim>16</dim>
					<dim>12</dim>
				</port>
				<port id="1" precision="I64"/>
			</input>
			<output>
				<port id="2" precision="FP32" names="split_7.tmp_0">
					<dim>-1</dim>
					<dim>40</dim>
					<dim>16</dim>
					<dim>12</dim>
				</port>
				<port id="3" precision="FP32" names="split_7.tmp_1">
					<dim>-1</dim>
					<dim>40</dim>
					<dim>16</dim>
					<dim>12</dim>
				</port>
			</output>
		</layer>
		<layer id="221" name="Multiply_56862" type="Const" version="opset1">
			<data element_type="f32" shape="40, 40, 1, 1" offset="103320" size="6400"/>
			<output>
				<port id="0" precision="FP32">
					<dim>40</dim>
					<dim>40</dim>
					<dim>1</dim>
					<dim>1</dim>
				</port>
			</output>
		</layer>
		<layer id="222" name="Multiply_54928" type="Convolution" version="opset1">
			<data strides="1, 1" dilations="1, 1" pads_begin="0, 0" pads_end="0, 0" auto_pad="explicit"/>
			<rt_info>
				<attribute name="fused_names" version="0" value="batch_norm2d_31.b_0, batch_norm2d_31.w_0, batch_norm2d_31.w_1, batch_norm2d_31.w_2, batch_norm_31.tmp_2, conv2d_289.tmp_0"/>
			</rt_info>
			<input>
				<port id="0" precision="FP32">
					<dim>-1</dim>
					<dim>40</dim>
					<dim>16</dim>
					<dim>12</dim>
				</port>
				<port id="1" precision="FP32">
					<dim>40</dim>
					<dim>40</dim>
					<dim>1</dim>
					<dim>1</dim>
				</port>
			</input>
			<output>
				<port id="2" precision="FP32">
					<dim>-1</dim>
					<dim>40</dim>
					<dim>16</dim>
					<dim>12</dim>
				</port>
			</output>
		</layer>
		<layer id="223" name="Constant_54933" type="Const" version="opset1">
			<data element_type="f32" shape="1, 40, 1, 1" offset="109720" size="160"/>
			<output>
				<port id="0" precision="FP32">
					<dim>1</dim>
					<dim>40</dim>
					<dim>1</dim>
					<dim>1</dim>
				</port>
			</output>
		</layer>
		<layer id="224" name="batch_norm_31.tmp_2" type="Add" version="opset1">
			<data auto_broadcast="numpy"/>
			<rt_info>
				<attribute name="fused_names" version="0" value="batch_norm2d_31.b_0, batch_norm2d_31.w_0, batch_norm2d_31.w_1, batch_norm2d_31.w_2, batch_norm_31.tmp_2"/>
			</rt_info>
			<input>
				<port id="0" precision="FP32">
					<dim>-1</dim>
					<dim>40</dim>
					<dim>16</dim>
					<dim>12</dim>
				</port>
				<port id="1" precision="FP32">
					<dim>1</dim>
					<dim>40</dim>
					<dim>1</dim>
					<dim>1</dim>
				</port>
			</input>
			<output>
				<port id="2" precision="FP32" names="batch_norm_31.tmp_2">
					<dim>-1</dim>
					<dim>40</dim>
					<dim>16</dim>
					<dim>12</dim>
				</port>
			</output>
		</layer>
		<layer id="225" name="relu_20.tmp_0" type="ReLU" version="opset1">
			<rt_info>
				<attribute name="fused_names" version="0" value="relu_20.tmp_0"/>
			</rt_info>
			<input>
				<port id="0" precision="FP32">
					<dim>-1</dim>
					<dim>40</dim>
					<dim>16</dim>
					<dim>12</dim>
				</port>
			</input>
			<output>
				<port id="1" precision="FP32" names="relu_20.tmp_0">
					<dim>-1</dim>
					<dim>40</dim>
					<dim>16</dim>
					<dim>12</dim>
				</port>
			</output>
		</layer>
		<layer id="226" name="Multiply_56871" type="Const" version="opset1">
			<data element_type="f32" shape="40, 1, 1, 3, 3" offset="109880" size="1440"/>
			<output>
				<port id="0" precision="FP32">
					<dim>40</dim>
					<dim>1</dim>
					<dim>1</dim>
					<dim>3</dim>
					<dim>3</dim>
				</port>
			</output>
		</layer>
		<layer id="227" name="Multiply_54935" type="GroupConvolution" version="opset1">
			<data strides="1, 1" pads_begin="1, 1" pads_end="1, 1" dilations="1, 1" auto_pad="explicit"/>
			<rt_info>
				<attribute name="fused_names" version="0" value="batch_norm2d_32.b_0, batch_norm2d_32.w_0, batch_norm2d_32.w_1, batch_norm2d_32.w_2, batch_norm_32.tmp_2"/>
			</rt_info>
			<input>
				<port id="0" precision="FP32">
					<dim>-1</dim>
					<dim>40</dim>
					<dim>16</dim>
					<dim>12</dim>
				</port>
				<port id="1" precision="FP32">
					<dim>40</dim>
					<dim>1</dim>
					<dim>1</dim>
					<dim>3</dim>
					<dim>3</dim>
				</port>
			</input>
			<output>
				<port id="2" precision="FP32" names="depthwise_conv2d_11.tmp_0">
					<dim>-1</dim>
					<dim>40</dim>
					<dim>16</dim>
					<dim>12</dim>
				</port>
			</output>
		</layer>
		<layer id="228" name="Constant_54940" type="Const" version="opset1">
			<data element_type="f32" shape="1, 40, 1, 1" offset="111320" size="160"/>
			<output>
				<port id="0" precision="FP32">
					<dim>1</dim>
					<dim>40</dim>
					<dim>1</dim>
					<dim>1</dim>
				</port>
			</output>
		</layer>
		<layer id="229" name="batch_norm_32.tmp_2" type="Add" version="opset1">
			<data auto_broadcast="numpy"/>
			<rt_info>
				<attribute name="fused_names" version="0" value="batch_norm2d_32.b_0, batch_norm2d_32.w_0, batch_norm2d_32.w_1, batch_norm2d_32.w_2, batch_norm_32.tmp_2"/>
			</rt_info>
			<input>
				<port id="0" precision="FP32">
					<dim>-1</dim>
					<dim>40</dim>
					<dim>16</dim>
					<dim>12</dim>
				</port>
				<port id="1" precision="FP32">
					<dim>1</dim>
					<dim>40</dim>
					<dim>1</dim>
					<dim>1</dim>
				</port>
			</input>
			<output>
				<port id="2" precision="FP32" names="batch_norm_32.tmp_2">
					<dim>-1</dim>
					<dim>40</dim>
					<dim>16</dim>
					<dim>12</dim>
				</port>
			</output>
		</layer>
		<layer id="230" name="Multiply_56879" type="Const" version="opset1">
			<data element_type="f32" shape="40, 40, 1, 1" offset="111480" size="6400"/>
			<output>
				<port id="0" precision="FP32">
					<dim>40</dim>
					<dim>40</dim>
					<dim>1</dim>
					<dim>1</dim>
				</port>
			</output>
		</layer>
		<layer id="231" name="Multiply_54942" type="Convolution" version="opset1">
			<data strides="1, 1" dilations="1, 1" pads_begin="0, 0" pads_end="0, 0" auto_pad="explicit"/>
			<rt_info>
				<attribute name="fused_names" version="0" value="batch_norm2d_33.b_0, batch_norm2d_33.w_0, batch_norm2d_33.w_1, batch_norm2d_33.w_2, batch_norm_33.tmp_2, conv2d_290.tmp_0"/>
			</rt_info>
			<input>
				<port id="0" precision="FP32">
					<dim>-1</dim>
					<dim>40</dim>
					<dim>16</dim>
					<dim>12</dim>
				</port>
				<port id="1" precision="FP32">
					<dim>40</dim>
					<dim>40</dim>
					<dim>1</dim>
					<dim>1</dim>
				</port>
			</input>
			<output>
				<port id="2" precision="FP32">
					<dim>-1</dim>
					<dim>40</dim>
					<dim>16</dim>
					<dim>12</dim>
				</port>
			</output>
		</layer>
		<layer id="232" name="Constant_54947" type="Const" version="opset1">
			<data element_type="f32" shape="1, 40, 1, 1" offset="117880" size="160"/>
			<output>
				<port id="0" precision="FP32">
					<dim>1</dim>
					<dim>40</dim>
					<dim>1</dim>
					<dim>1</dim>
				</port>
			</output>
		</layer>
		<layer id="233" name="batch_norm_33.tmp_2" type="Add" version="opset1">
			<data auto_broadcast="numpy"/>
			<rt_info>
				<attribute name="fused_names" version="0" value="batch_norm2d_33.b_0, batch_norm2d_33.w_0, batch_norm2d_33.w_1, batch_norm2d_33.w_2, batch_norm_33.tmp_2"/>
			</rt_info>
			<input>
				<port id="0" precision="FP32">
					<dim>-1</dim>
					<dim>40</dim>
					<dim>16</dim>
					<dim>12</dim>
				</port>
				<port id="1" precision="FP32">
					<dim>1</dim>
					<dim>40</dim>
					<dim>1</dim>
					<dim>1</dim>
				</port>
			</input>
			<output>
				<port id="2" precision="FP32" names="batch_norm_33.tmp_2">
					<dim>-1</dim>
					<dim>40</dim>
					<dim>16</dim>
					<dim>12</dim>
				</port>
			</output>
		</layer>
		<layer id="234" name="relu_21.tmp_0" type="ReLU" version="opset1">
			<rt_info>
				<attribute name="fused_names" version="0" value="relu_21.tmp_0"/>
			</rt_info>
			<input>
				<port id="0" precision="FP32">
					<dim>-1</dim>
					<dim>40</dim>
					<dim>16</dim>
					<dim>12</dim>
				</port>
			</input>
			<output>
				<port id="1" precision="FP32" names="relu_21.tmp_0">
					<dim>-1</dim>
					<dim>40</dim>
					<dim>16</dim>
					<dim>12</dim>
				</port>
			</output>
		</layer>
		<layer id="235" name="concat_7.tmp_0" type="Concat" version="opset1">
			<data axis="1"/>
			<rt_info>
				<attribute name="fused_names" version="0" value="concat_7.tmp_0"/>
			</rt_info>
			<input>
				<port id="0" precision="FP32">
					<dim>-1</dim>
					<dim>40</dim>
					<dim>16</dim>
					<dim>12</dim>
				</port>
				<port id="1" precision="FP32">
					<dim>-1</dim>
					<dim>40</dim>
					<dim>16</dim>
					<dim>12</dim>
				</port>
			</input>
			<output>
				<port id="2" precision="FP32" names="concat_7.tmp_0">
					<dim>-1</dim>
					<dim>80</dim>
					<dim>16</dim>
					<dim>12</dim>
				</port>
			</output>
		</layer>
		<layer id="236" name="Constant_16" type="Const" version="opset1">
			<data element_type="i64" shape="5" offset="52512" size="40"/>
			<rt_info>
				<attribute name="fused_names" version="0" value="Constant_16"/>
			</rt_info>
			<output>
				<port id="0" precision="I64" names="Constant_16">
					<dim>5</dim>
				</port>
			</output>
		</layer>
		<layer id="237" name="reshape2_14.tmp_0" type="Reshape" version="opset1">
			<data special_zero="true"/>
			<rt_info>
				<attribute name="fused_names" version="0" value="reshape2_14.tmp_0"/>
			</rt_info>
			<input>
				<port id="0" precision="FP32">
					<dim>-1</dim>
					<dim>80</dim>
					<dim>16</dim>
					<dim>12</dim>
				</port>
				<port id="1" precision="I64">
					<dim>5</dim>
				</port>
			</input>
			<output>
				<port id="2" precision="FP32" names="reshape2_14.tmp_0">
					<dim>-1</dim>
					<dim>2</dim>
					<dim>40</dim>
					<dim>16</dim>
					<dim>12</dim>
				</port>
			</output>
		</layer>
		<layer id="238" name="Constant_2497" type="Const" version="opset1">
			<data element_type="i64" shape="5" offset="10928" size="40"/>
			<rt_info>
				<attribute name="fused_names" version="0" value="Constant_2497"/>
			</rt_info>
			<output>
				<port id="0" precision="I64">
					<dim>5</dim>
				</port>
			</output>
		</layer>
		<layer id="239" name="transpose_7.tmp_0" type="Transpose" version="opset1">
			<rt_info>
				<attribute name="fused_names" version="0" value="transpose_7.tmp_0"/>
			</rt_info>
			<input>
				<port id="0" precision="FP32">
					<dim>-1</dim>
					<dim>2</dim>
					<dim>40</dim>
					<dim>16</dim>
					<dim>12</dim>
				</port>
				<port id="1" precision="I64">
					<dim>5</dim>
				</port>
			</input>
			<output>
				<port id="2" precision="FP32" names="transpose_7.tmp_0">
					<dim>-1</dim>
					<dim>40</dim>
					<dim>2</dim>
					<dim>16</dim>
					<dim>12</dim>
				</port>
			</output>
		</layer>
		<layer id="240" name="Constant_17" type="Const" version="opset1">
			<data element_type="i64" shape="4" offset="52552" size="32"/>
			<rt_info>
				<attribute name="fused_names" version="0" value="Constant_17"/>
			</rt_info>
			<output>
				<port id="0" precision="I64" names="Constant_17">
					<dim>4</dim>
				</port>
			</output>
		</layer>
		<layer id="241" name="reshape2_15.tmp_0" type="Reshape" version="opset1">
			<data special_zero="true"/>
			<rt_info>
				<attribute name="fused_names" version="0" value="reshape2_15.tmp_0"/>
			</rt_info>
			<input>
				<port id="0" precision="FP32">
					<dim>-1</dim>
					<dim>40</dim>
					<dim>2</dim>
					<dim>16</dim>
					<dim>12</dim>
				</port>
				<port id="1" precision="I64">
					<dim>4</dim>
				</port>
			</input>
			<output>
				<port id="2" precision="FP32" names="reshape2_15.tmp_0">
					<dim>-1</dim>
					<dim>80</dim>
					<dim>16</dim>
					<dim>12</dim>
				</port>
			</output>
		</layer>
		<layer id="242" name="Constant_2506" type="Const" version="opset1">
			<data element_type="i64" shape="" offset="3584" size="8"/>
			<rt_info>
				<attribute name="fused_names" version="0" value="Constant_2506"/>
			</rt_info>
			<output>
				<port id="0" precision="I64"/>
			</output>
		</layer>
		<layer id="243" name="split_8.tmp_1" type="Split" version="opset1">
			<data num_splits="2"/>
			<rt_info>
				<attribute name="fused_names" version="0" value="split_8.tmp_1"/>
			</rt_info>
			<input>
				<port id="0" precision="FP32">
					<dim>-1</dim>
					<dim>80</dim>
					<dim>16</dim>
					<dim>12</dim>
				</port>
				<port id="1" precision="I64"/>
			</input>
			<output>
				<port id="2" precision="FP32" names="split_8.tmp_0">
					<dim>-1</dim>
					<dim>40</dim>
					<dim>16</dim>
					<dim>12</dim>
				</port>
				<port id="3" precision="FP32" names="split_8.tmp_1">
					<dim>-1</dim>
					<dim>40</dim>
					<dim>16</dim>
					<dim>12</dim>
				</port>
			</output>
		</layer>
		<layer id="244" name="Multiply_56888" type="Const" version="opset1">
			<data element_type="f32" shape="40, 40, 1, 1" offset="118040" size="6400"/>
			<output>
				<port id="0" precision="FP32">
					<dim>40</dim>
					<dim>40</dim>
					<dim>1</dim>
					<dim>1</dim>
				</port>
			</output>
		</layer>
		<layer id="245" name="Multiply_54949" type="Convolution" version="opset1">
			<data strides="1, 1" dilations="1, 1" pads_begin="0, 0" pads_end="0, 0" auto_pad="explicit"/>
			<rt_info>
				<attribute name="fused_names" version="0" value="batch_norm2d_34.b_0, batch_norm2d_34.w_0, batch_norm2d_34.w_1, batch_norm2d_34.w_2, batch_norm_34.tmp_2, conv2d_291.tmp_0"/>
			</rt_info>
			<input>
				<port id="0" precision="FP32">
					<dim>-1</dim>
					<dim>40</dim>
					<dim>16</dim>
					<dim>12</dim>
				</port>
				<port id="1" precision="FP32">
					<dim>40</dim>
					<dim>40</dim>
					<dim>1</dim>
					<dim>1</dim>
				</port>
			</input>
			<output>
				<port id="2" precision="FP32">
					<dim>-1</dim>
					<dim>40</dim>
					<dim>16</dim>
					<dim>12</dim>
				</port>
			</output>
		</layer>
		<layer id="246" name="Constant_54954" type="Const" version="opset1">
			<data element_type="f32" shape="1, 40, 1, 1" offset="124440" size="160"/>
			<output>
				<port id="0" precision="FP32">
					<dim>1</dim>
					<dim>40</dim>
					<dim>1</dim>
					<dim>1</dim>
				</port>
			</output>
		</layer>
		<layer id="247" name="batch_norm_34.tmp_2" type="Add" version="opset1">
			<data auto_broadcast="numpy"/>
			<rt_info>
				<attribute name="fused_names" version="0" value="batch_norm2d_34.b_0, batch_norm2d_34.w_0, batch_norm2d_34.w_1, batch_norm2d_34.w_2, batch_norm_34.tmp_2"/>
			</rt_info>
			<input>
				<port id="0" precision="FP32">
					<dim>-1</dim>
					<dim>40</dim>
					<dim>16</dim>
					<dim>12</dim>
				</port>
				<port id="1" precision="FP32">
					<dim>1</dim>
					<dim>40</dim>
					<dim>1</dim>
					<dim>1</dim>
				</port>
			</input>
			<output>
				<port id="2" precision="FP32" names="batch_norm_34.tmp_2">
					<dim>-1</dim>
					<dim>40</dim>
					<dim>16</dim>
					<dim>12</dim>
				</port>
			</output>
		</layer>
		<layer id="248" name="relu_22.tmp_0" type="ReLU" version="opset1">
			<rt_info>
				<attribute name="fused_names" version="0" value="relu_22.tmp_0"/>
			</rt_info>
			<input>
				<port id="0" precision="FP32">
					<dim>-1</dim>
					<dim>40</dim>
					<dim>16</dim>
					<dim>12</dim>
				</port>
			</input>
			<output>
				<port id="1" precision="FP32" names="relu_22.tmp_0">
					<dim>-1</dim>
					<dim>40</dim>
					<dim>16</dim>
					<dim>12</dim>
				</port>
			</output>
		</layer>
		<layer id="249" name="Multiply_56897" type="Const" version="opset1">
			<data element_type="f32" shape="40, 1, 1, 3, 3" offset="124600" size="1440"/>
			<output>
				<port id="0" precision="FP32">
					<dim>40</dim>
					<dim>1</dim>
					<dim>1</dim>
					<dim>3</dim>
					<dim>3</dim>
				</port>
			</output>
		</layer>
		<layer id="250" name="Multiply_54956" type="GroupConvolution" version="opset1">
			<data strides="1, 1" pads_begin="1, 1" pads_end="1, 1" dilations="1, 1" auto_pad="explicit"/>
			<rt_info>
				<attribute name="fused_names" version="0" value="batch_norm2d_35.b_0, batch_norm2d_35.w_0, batch_norm2d_35.w_1, batch_norm2d_35.w_2, batch_norm_35.tmp_2"/>
			</rt_info>
			<input>
				<port id="0" precision="FP32">
					<dim>-1</dim>
					<dim>40</dim>
					<dim>16</dim>
					<dim>12</dim>
				</port>
				<port id="1" precision="FP32">
					<dim>40</dim>
					<dim>1</dim>
					<dim>1</dim>
					<dim>3</dim>
					<dim>3</dim>
				</port>
			</input>
			<output>
				<port id="2" precision="FP32" names="depthwise_conv2d_12.tmp_0">
					<dim>-1</dim>
					<dim>40</dim>
					<dim>16</dim>
					<dim>12</dim>
				</port>
			</output>
		</layer>
		<layer id="251" name="Constant_54961" type="Const" version="opset1">
			<data element_type="f32" shape="1, 40, 1, 1" offset="126040" size="160"/>
			<output>
				<port id="0" precision="FP32">
					<dim>1</dim>
					<dim>40</dim>
					<dim>1</dim>
					<dim>1</dim>
				</port>
			</output>
		</layer>
		<layer id="252" name="batch_norm_35.tmp_2" type="Add" version="opset1">
			<data auto_broadcast="numpy"/>
			<rt_info>
				<attribute name="fused_names" version="0" value="batch_norm2d_35.b_0, batch_norm2d_35.w_0, batch_norm2d_35.w_1, batch_norm2d_35.w_2, batch_norm_35.tmp_2"/>
			</rt_info>
			<input>
				<port id="0" precision="FP32">
					<dim>-1</dim>
					<dim>40</dim>
					<dim>16</dim>
					<dim>12</dim>
				</port>
				<port id="1" precision="FP32">
					<dim>1</dim>
					<dim>40</dim>
					<dim>1</dim>
					<dim>1</dim>
				</port>
			</input>
			<output>
				<port id="2" precision="FP32" names="batch_norm_35.tmp_2">
					<dim>-1</dim>
					<dim>40</dim>
					<dim>16</dim>
					<dim>12</dim>
				</port>
			</output>
		</layer>
		<layer id="253" name="Multiply_56905" type="Const" version="opset1">
			<data element_type="f32" shape="40, 40, 1, 1" offset="126200" size="6400"/>
			<output>
				<port id="0" precision="FP32">
					<dim>40</dim>
					<dim>40</dim>
					<dim>1</dim>
					<dim>1</dim>
				</port>
			</output>
		</layer>
		<layer id="254" name="Multiply_54963" type="Convolution" version="opset1">
			<data strides="1, 1" dilations="1, 1" pads_begin="0, 0" pads_end="0, 0" auto_pad="explicit"/>
			<rt_info>
				<attribute name="fused_names" version="0" value="batch_norm2d_36.b_0, batch_norm2d_36.w_0, batch_norm2d_36.w_1, batch_norm2d_36.w_2, batch_norm_36.tmp_2, conv2d_292.tmp_0"/>
			</rt_info>
			<input>
				<port id="0" precision="FP32">
					<dim>-1</dim>
					<dim>40</dim>
					<dim>16</dim>
					<dim>12</dim>
				</port>
				<port id="1" precision="FP32">
					<dim>40</dim>
					<dim>40</dim>
					<dim>1</dim>
					<dim>1</dim>
				</port>
			</input>
			<output>
				<port id="2" precision="FP32">
					<dim>-1</dim>
					<dim>40</dim>
					<dim>16</dim>
					<dim>12</dim>
				</port>
			</output>
		</layer>
		<layer id="255" name="Constant_54968" type="Const" version="opset1">
			<data element_type="f32" shape="1, 40, 1, 1" offset="132600" size="160"/>
			<output>
				<port id="0" precision="FP32">
					<dim>1</dim>
					<dim>40</dim>
					<dim>1</dim>
					<dim>1</dim>
				</port>
			</output>
		</layer>
		<layer id="256" name="batch_norm_36.tmp_2" type="Add" version="opset1">
			<data auto_broadcast="numpy"/>
			<rt_info>
				<attribute name="fused_names" version="0" value="batch_norm2d_36.b_0, batch_norm2d_36.w_0, batch_norm2d_36.w_1, batch_norm2d_36.w_2, batch_norm_36.tmp_2"/>
			</rt_info>
			<input>
				<port id="0" precision="FP32">
					<dim>-1</dim>
					<dim>40</dim>
					<dim>16</dim>
					<dim>12</dim>
				</port>
				<port id="1" precision="FP32">
					<dim>1</dim>
					<dim>40</dim>
					<dim>1</dim>
					<dim>1</dim>
				</port>
			</input>
			<output>
				<port id="2" precision="FP32" names="batch_norm_36.tmp_2">
					<dim>-1</dim>
					<dim>40</dim>
					<dim>16</dim>
					<dim>12</dim>
				</port>
			</output>
		</layer>
		<layer id="257" name="relu_23.tmp_0" type="ReLU" version="opset1">
			<rt_info>
				<attribute name="fused_names" version="0" value="relu_23.tmp_0"/>
			</rt_info>
			<input>
				<port id="0" precision="FP32">
					<dim>-1</dim>
					<dim>40</dim>
					<dim>16</dim>
					<dim>12</dim>
				</port>
			</input>
			<output>
				<port id="1" precision="FP32" names="relu_23.tmp_0">
					<dim>-1</dim>
					<dim>40</dim>
					<dim>16</dim>
					<dim>12</dim>
				</port>
			</output>
		</layer>
		<layer id="258" name="concat_8.tmp_0" type="Concat" version="opset1">
			<data axis="1"/>
			<rt_info>
				<attribute name="fused_names" version="0" value="concat_8.tmp_0"/>
			</rt_info>
			<input>
				<port id="0" precision="FP32">
					<dim>-1</dim>
					<dim>40</dim>
					<dim>16</dim>
					<dim>12</dim>
				</port>
				<port id="1" precision="FP32">
					<dim>-1</dim>
					<dim>40</dim>
					<dim>16</dim>
					<dim>12</dim>
				</port>
			</input>
			<output>
				<port id="2" precision="FP32" names="concat_8.tmp_0">
					<dim>-1</dim>
					<dim>80</dim>
					<dim>16</dim>
					<dim>12</dim>
				</port>
			</output>
		</layer>
		<layer id="259" name="Constant_18" type="Const" version="opset1">
			<data element_type="i64" shape="5" offset="52512" size="40"/>
			<rt_info>
				<attribute name="fused_names" version="0" value="Constant_18"/>
			</rt_info>
			<output>
				<port id="0" precision="I64" names="Constant_18">
					<dim>5</dim>
				</port>
			</output>
		</layer>
		<layer id="260" name="reshape2_16.tmp_0" type="Reshape" version="opset1">
			<data special_zero="true"/>
			<rt_info>
				<attribute name="fused_names" version="0" value="reshape2_16.tmp_0"/>
			</rt_info>
			<input>
				<port id="0" precision="FP32">
					<dim>-1</dim>
					<dim>80</dim>
					<dim>16</dim>
					<dim>12</dim>
				</port>
				<port id="1" precision="I64">
					<dim>5</dim>
				</port>
			</input>
			<output>
				<port id="2" precision="FP32" names="reshape2_16.tmp_0">
					<dim>-1</dim>
					<dim>2</dim>
					<dim>40</dim>
					<dim>16</dim>
					<dim>12</dim>
				</port>
			</output>
		</layer>
		<layer id="261" name="Constant_2600" type="Const" version="opset1">
			<data element_type="i64" shape="5" offset="10928" size="40"/>
			<rt_info>
				<attribute name="fused_names" version="0" value="Constant_2600"/>
			</rt_info>
			<output>
				<port id="0" precision="I64">
					<dim>5</dim>
				</port>
			</output>
		</layer>
		<layer id="262" name="transpose_8.tmp_0" type="Transpose" version="opset1">
			<rt_info>
				<attribute name="fused_names" version="0" value="transpose_8.tmp_0"/>
			</rt_info>
			<input>
				<port id="0" precision="FP32">
					<dim>-1</dim>
					<dim>2</dim>
					<dim>40</dim>
					<dim>16</dim>
					<dim>12</dim>
				</port>
				<port id="1" precision="I64">
					<dim>5</dim>
				</port>
			</input>
			<output>
				<port id="2" precision="FP32" names="transpose_8.tmp_0">
					<dim>-1</dim>
					<dim>40</dim>
					<dim>2</dim>
					<dim>16</dim>
					<dim>12</dim>
				</port>
			</output>
		</layer>
		<layer id="263" name="Constant_19" type="Const" version="opset1">
			<data element_type="i64" shape="4" offset="52552" size="32"/>
			<rt_info>
				<attribute name="fused_names" version="0" value="Constant_19"/>
			</rt_info>
			<output>
				<port id="0" precision="I64" names="Constant_19">
					<dim>4</dim>
				</port>
			</output>
		</layer>
		<layer id="264" name="reshape2_17.tmp_0" type="Reshape" version="opset1">
			<data special_zero="true"/>
			<rt_info>
				<attribute name="fused_names" version="0" value="reshape2_17.tmp_0"/>
			</rt_info>
			<input>
				<port id="0" precision="FP32">
					<dim>-1</dim>
					<dim>40</dim>
					<dim>2</dim>
					<dim>16</dim>
					<dim>12</dim>
				</port>
				<port id="1" precision="I64">
					<dim>4</dim>
				</port>
			</input>
			<output>
				<port id="2" precision="FP32" names="reshape2_17.tmp_0">
					<dim>-1</dim>
					<dim>80</dim>
					<dim>16</dim>
					<dim>12</dim>
				</port>
			</output>
		</layer>
		<layer id="265" name="Multiply_56914" type="Const" version="opset1">
			<data element_type="f32" shape="40, 80, 1, 1" offset="132760" size="12800"/>
			<output>
				<port id="0" precision="FP32">
					<dim>40</dim>
					<dim>80</dim>
					<dim>1</dim>
					<dim>1</dim>
				</port>
			</output>
		</layer>
		<layer id="266" name="Multiply_54970" type="Convolution" version="opset1">
			<data strides="1, 1" dilations="1, 1" pads_begin="0, 0" pads_end="0, 0" auto_pad="explicit"/>
			<rt_info>
				<attribute name="fused_names" version="0" value="batch_norm2d_37.b_0, batch_norm2d_37.w_0, batch_norm2d_37.w_1, batch_norm2d_37.w_2, batch_norm_37.tmp_2, conv2d_293.tmp_0"/>
			</rt_info>
			<input>
				<port id="0" precision="FP32">
					<dim>-1</dim>
					<dim>80</dim>
					<dim>16</dim>
					<dim>12</dim>
				</port>
				<port id="1" precision="FP32">
					<dim>40</dim>
					<dim>80</dim>
					<dim>1</dim>
					<dim>1</dim>
				</port>
			</input>
			<output>
				<port id="2" precision="FP32">
					<dim>-1</dim>
					<dim>40</dim>
					<dim>16</dim>
					<dim>12</dim>
				</port>
			</output>
		</layer>
		<layer id="267" name="Constant_54975" type="Const" version="opset1">
			<data element_type="f32" shape="1, 40, 1, 1" offset="145560" size="160"/>
			<output>
				<port id="0" precision="FP32">
					<dim>1</dim>
					<dim>40</dim>
					<dim>1</dim>
					<dim>1</dim>
				</port>
			</output>
		</layer>
		<layer id="268" name="batch_norm_37.tmp_2" type="Add" version="opset1">
			<data auto_broadcast="numpy"/>
			<rt_info>
				<attribute name="fused_names" version="0" value="batch_norm2d_37.b_0, batch_norm2d_37.w_0, batch_norm2d_37.w_1, batch_norm2d_37.w_2, batch_norm_37.tmp_2"/>
			</rt_info>
			<input>
				<port id="0" precision="FP32">
					<dim>-1</dim>
					<dim>40</dim>
					<dim>16</dim>
					<dim>12</dim>
				</port>
				<port id="1" precision="FP32">
					<dim>1</dim>
					<dim>40</dim>
					<dim>1</dim>
					<dim>1</dim>
				</port>
			</input>
			<output>
				<port id="2" precision="FP32" names="batch_norm_37.tmp_2">
					<dim>-1</dim>
					<dim>40</dim>
					<dim>16</dim>
					<dim>12</dim>
				</port>
			</output>
		</layer>
		<layer id="269" name="ShapeOf_2615" type="ShapeOf" version="opset3">
			<data output_type="i64"/>
			<rt_info>
				<attribute name="fused_names" version="0" value="ShapeOf_2615"/>
			</rt_info>
			<input>
				<port id="0" precision="FP32">
					<dim>-1</dim>
					<dim>40</dim>
					<dim>16</dim>
					<dim>12</dim>
				</port>
			</input>
			<output>
				<port id="1" precision="I64">
					<dim>4</dim>
				</port>
			</output>
		</layer>
		<layer id="270" name="Convert_2616" type="Convert" version="opset1">
			<data destination_type="f32"/>
			<rt_info>
				<attribute name="fused_names" version="0" value="Convert_2616"/>
			</rt_info>
			<input>
				<port id="0" precision="I64">
					<dim>4</dim>
				</port>
			</input>
			<output>
				<port id="1" precision="FP32">
					<dim>4</dim>
				</port>
			</output>
		</layer>
		<layer id="271" name="Constant_21" type="Const" version="opset1">
			<data element_type="f32" shape="4" offset="80264" size="16"/>
			<rt_info>
				<attribute name="fused_names" version="0" value="Constant_21"/>
			</rt_info>
			<output>
				<port id="0" precision="FP32" names="Constant_21">
					<dim>4</dim>
				</port>
			</output>
		</layer>
		<layer id="272" name="Multiply_2617" type="Multiply" version="opset1">
			<data auto_broadcast="numpy"/>
			<rt_info>
				<attribute name="fused_names" version="0" value="Multiply_2617"/>
			</rt_info>
			<input>
				<port id="0" precision="FP32">
					<dim>4</dim>
				</port>
				<port id="1" precision="FP32">
					<dim>4</dim>
				</port>
			</input>
			<output>
				<port id="2" precision="FP32">
					<dim>4</dim>
				</port>
			</output>
		</layer>
		<layer id="273" name="Convert_2618" type="Convert" version="opset1">
			<data destination_type="i64"/>
			<rt_info>
				<attribute name="fused_names" version="0" value="Convert_2618"/>
			</rt_info>
			<input>
				<port id="0" precision="FP32">
					<dim>4</dim>
				</port>
			</input>
			<output>
				<port id="1" precision="I64">
					<dim>4</dim>
				</port>
			</output>
		</layer>
		<layer id="274" name="nearest_interp_v2_1.tmp_0" type="Interpolate" version="opset4">
			<data mode="nearest" shape_calculation_mode="scales" coordinate_transformation_mode="asymmetric" nearest_mode="floor" antialias="false" pads_begin="0, 0, 0, 0" pads_end="0, 0, 0, 0" cube_coeff="-0.75"/>
			<rt_info>
				<attribute name="fused_names" version="0" value="nearest_interp_v2_1.tmp_0"/>
			</rt_info>
			<input>
				<port id="0" precision="FP32">
					<dim>-1</dim>
					<dim>40</dim>
					<dim>16</dim>
					<dim>12</dim>
				</port>
				<port id="1" precision="I64">
					<dim>4</dim>
				</port>
				<port id="2" precision="FP32">
					<dim>4</dim>
				</port>
			</input>
			<output>
				<port id="3" precision="FP32" names="nearest_interp_v2_1.tmp_0">
					<dim>-1</dim>
					<dim>40</dim>
					<dim>32</dim>
					<dim>24</dim>
				</port>
			</output>
		</layer>
		<layer id="275" name="tmp_5" type="Add" version="opset1">
			<data auto_broadcast="numpy"/>
			<rt_info>
				<attribute name="fused_names" version="0" value="tmp_5"/>
			</rt_info>
			<input>
				<port id="0" precision="FP32">
					<dim>-1</dim>
					<dim>40</dim>
					<dim>32</dim>
					<dim>24</dim>
				</port>
				<port id="1" precision="FP32">
					<dim>-1</dim>
					<dim>40</dim>
					<dim>32</dim>
					<dim>24</dim>
				</port>
			</input>
			<output>
				<port id="2" precision="FP32" names="tmp_5">
					<dim>-1</dim>
					<dim>40</dim>
					<dim>32</dim>
					<dim>24</dim>
				</port>
			</output>
		</layer>
		<layer id="276" name="relu_24.tmp_0" type="ReLU" version="opset1">
			<rt_info>
				<attribute name="fused_names" version="0" value="relu_24.tmp_0"/>
			</rt_info>
			<input>
				<port id="0" precision="FP32">
					<dim>-1</dim>
					<dim>40</dim>
					<dim>32</dim>
					<dim>24</dim>
				</port>
			</input>
			<output>
				<port id="1" precision="FP32" names="relu_24.tmp_0">
					<dim>-1</dim>
					<dim>40</dim>
					<dim>32</dim>
					<dim>24</dim>
				</port>
			</output>
		</layer>
		<layer id="277" name="Constant_2784" type="Const" version="opset1">
			<data element_type="i64" shape="" offset="3584" size="8"/>
			<rt_info>
				<attribute name="fused_names" version="0" value="Constant_2784"/>
			</rt_info>
			<output>
				<port id="0" precision="I64"/>
			</output>
		</layer>
		<layer id="278" name="split_9.tmp_1" type="Split" version="opset1">
			<data num_splits="2"/>
			<rt_info>
				<attribute name="fused_names" version="0" value="split_9.tmp_1"/>
			</rt_info>
			<input>
				<port id="0" precision="FP32">
					<dim>-1</dim>
					<dim>40</dim>
					<dim>32</dim>
					<dim>24</dim>
				</port>
				<port id="1" precision="I64"/>
			</input>
			<output>
				<port id="2" precision="FP32" names="split_9.tmp_0">
					<dim>-1</dim>
					<dim>20</dim>
					<dim>32</dim>
					<dim>24</dim>
				</port>
				<port id="3" precision="FP32" names="split_9.tmp_1">
					<dim>-1</dim>
					<dim>20</dim>
					<dim>32</dim>
					<dim>24</dim>
				</port>
			</output>
		</layer>
		<layer id="279" name="Multiply_56923" type="Const" version="opset1">
			<data element_type="f32" shape="20, 20, 1, 1" offset="145720" size="1600"/>
			<output>
				<port id="0" precision="FP32">
					<dim>20</dim>
					<dim>20</dim>
					<dim>1</dim>
					<dim>1</dim>
				</port>
			</output>
		</layer>
		<layer id="280" name="Multiply_54977" type="Convolution" version="opset1">
			<data strides="1, 1" dilations="1, 1" pads_begin="0, 0" pads_end="0, 0" auto_pad="explicit"/>
			<rt_info>
				<attribute name="fused_names" version="0" value="batch_norm2d_42.b_0, batch_norm2d_42.w_0, batch_norm2d_42.w_1, batch_norm2d_42.w_2, batch_norm_42.tmp_2, conv2d_296.tmp_0"/>
			</rt_info>
			<input>
				<port id="0" precision="FP32">
					<dim>-1</dim>
					<dim>20</dim>
					<dim>32</dim>
					<dim>24</dim>
				</port>
				<port id="1" precision="FP32">
					<dim>20</dim>
					<dim>20</dim>
					<dim>1</dim>
					<dim>1</dim>
				</port>
			</input>
			<output>
				<port id="2" precision="FP32">
					<dim>-1</dim>
					<dim>20</dim>
					<dim>32</dim>
					<dim>24</dim>
				</port>
			</output>
		</layer>
		<layer id="281" name="Constant_54982" type="Const" version="opset1">
			<data element_type="f32" shape="1, 20, 1, 1" offset="147320" size="80"/>
			<output>
				<port id="0" precision="FP32">
					<dim>1</dim>
					<dim>20</dim>
					<dim>1</dim>
					<dim>1</dim>
				</port>
			</output>
		</layer>
		<layer id="282" name="batch_norm_42.tmp_2" type="Add" version="opset1">
			<data auto_broadcast="numpy"/>
			<rt_info>
				<attribute name="fused_names" version="0" value="batch_norm2d_42.b_0, batch_norm2d_42.w_0, batch_norm2d_42.w_1, batch_norm2d_42.w_2, batch_norm_42.tmp_2"/>
			</rt_info>
			<input>
				<port id="0" precision="FP32">
					<dim>-1</dim>
					<dim>20</dim>
					<dim>32</dim>
					<dim>24</dim>
				</port>
				<port id="1" precision="FP32">
					<dim>1</dim>
					<dim>20</dim>
					<dim>1</dim>
					<dim>1</dim>
				</port>
			</input>
			<output>
				<port id="2" precision="FP32" names="batch_norm_42.tmp_2">
					<dim>-1</dim>
					<dim>20</dim>
					<dim>32</dim>
					<dim>24</dim>
				</port>
			</output>
		</layer>
		<layer id="283" name="relu_27.tmp_0" type="ReLU" version="opset1">
			<rt_info>
				<attribute name="fused_names" version="0" value="relu_27.tmp_0"/>
			</rt_info>
			<input>
				<port id="0" precision="FP32">
					<dim>-1</dim>
					<dim>20</dim>
					<dim>32</dim>
					<dim>24</dim>
				</port>
			</input>
			<output>
				<port id="1" precision="FP32" names="relu_27.tmp_0">
					<dim>-1</dim>
					<dim>20</dim>
					<dim>32</dim>
					<dim>24</dim>
				</port>
			</output>
		</layer>
		<layer id="284" name="Multiply_56932" type="Const" version="opset1">
			<data element_type="f32" shape="20, 1, 1, 3, 3" offset="147400" size="720"/>
			<output>
				<port id="0" precision="FP32">
					<dim>20</dim>
					<dim>1</dim>
					<dim>1</dim>
					<dim>3</dim>
					<dim>3</dim>
				</port>
			</output>
		</layer>
		<layer id="285" name="Multiply_54984" type="GroupConvolution" version="opset1">
			<data strides="1, 1" pads_begin="1, 1" pads_end="1, 1" dilations="1, 1" auto_pad="explicit"/>
			<rt_info>
				<attribute name="fused_names" version="0" value="batch_norm2d_43.b_0, batch_norm2d_43.w_0, batch_norm2d_43.w_1, batch_norm2d_43.w_2, batch_norm_43.tmp_2"/>
			</rt_info>
			<input>
				<port id="0" precision="FP32">
					<dim>-1</dim>
					<dim>20</dim>
…
		<edge from-layer="1324" from-port="2" to-layer="1325" to-port="0"/>
		<edge from-layer="1325" from-port="1" to-layer="1327" to-port="0"/>
		<edge from-layer="1326" from-port="0" to-layer="1327" to-port="1"/>
		<edge from-layer="1327" from-port="2" to-layer="1329" to-port="0"/>
		<edge from-layer="1328" from-port="0" to-layer="1329" to-port="1"/>
		<edge from-layer="1329" from-port="2" to-layer="1331" to-port="0"/>
		<edge from-layer="1330" from-port="0" to-layer="1331" to-port="1"/>
		<edge from-layer="1331" from-port="2" to-layer="1333" to-port="0"/>
		<edge from-layer="1332" from-port="0" to-layer="1333" to-port="1"/>
		<edge from-layer="1333" from-port="2" to-layer="1334" to-port="0"/>
		<edge from-layer="1334" from-port="1" to-layer="1335" to-port="1"/>
		<edge from-layer="1335" from-port="2" to-layer="1337" to-port="0"/>
		<edge from-layer="1336" from-port="0" to-layer="1337" to-port="1"/>
		<edge from-layer="1337" from-port="2" to-layer="1339" to-port="0"/>
		<edge from-layer="1338" from-port="0" to-layer="1339" to-port="1"/>
		<edge from-layer="1339" from-port="2" to-layer="1341" to-port="0"/>
		<edge from-layer="1340" from-port="0" to-layer="1341" to-port="1"/>
		<edge from-layer="1341" from-port="2" to-layer="1343" to-port="0"/>
		<edge from-layer="1342" from-port="0" to-layer="1343" to-port="1"/>
		<edge from-layer="1343" from-port="2" to-layer="1358" to-port="0"/>
		<edge from-layer="1343" from-port="3" to-layer="1345" to-port="0"/>
		<edge from-layer="1344" from-port="0" to-layer="1345" to-port="1"/>
		<edge from-layer="1345" from-port="2" to-layer="1347" to-port="0"/>
		<edge from-layer="1346" from-port="0" to-layer="1347" to-port="1"/>
		<edge from-layer="1347" from-port="2" to-layer="1348" to-port="0"/>
		<edge from-layer="1348" from-port="1" to-layer="1350" to-port="0"/>
		<edge from-layer="1349" from-port="0" to-layer="1350" to-port="1"/>
		<edge from-layer="1350" from-port="2" to-layer="1352" to-port="0"/>
		<edge from-layer="1351" from-port="0" to-layer="1352" to-port="1"/>
		<edge from-layer="1352" from-port="2" to-layer="1354" to-port="0"/>
		<edge from-layer="1353" from-port="0" to-layer="1354" to-port="1"/>
		<edge from-layer="1354" from-port="2" to-layer="1356" to-port="0"/>
		<edge from-layer="1355" from-port="0" to-layer="1356" to-port="1"/>
		<edge from-layer="1356" from-port="2" to-layer="1357" to-port="0"/>
		<edge from-layer="1357" from-port="1" to-layer="1358" to-port="1"/>
		<edge from-layer="1358" from-port="2" to-layer="1360" to-port="0"/>
		<edge from-layer="1359" from-port="0" to-layer="1360" to-port="1"/>
		<edge from-layer="1360" from-port="2" to-layer="1362" to-port="0"/>
		<edge from-layer="1361" from-port="0" to-layer="1362" to-port="1"/>
		<edge from-layer="1362" from-port="2" to-layer="1364" to-port="0"/>
		<edge from-layer="1363" from-port="0" to-layer="1364" to-port="1"/>
		<edge from-layer="1364" from-port="2" to-layer="1665" to-port="1"/>
		<edge from-layer="1364" from-port="2" to-layer="1446" to-port="0"/>
		<edge from-layer="1364" from-port="2" to-layer="1543" to-port="0"/>
		<edge from-layer="1364" from-port="2" to-layer="1366" to-port="0"/>
		<edge from-layer="1365" from-port="0" to-layer="1366" to-port="1"/>
		<edge from-layer="1366" from-port="2" to-layer="1368" to-port="0"/>
		<edge from-layer="1367" from-port="0" to-layer="1368" to-port="1"/>
		<edge from-layer="1368" from-port="2" to-layer="1369" to-port="0"/>
		<edge from-layer="1368" from-port="2" to-layer="1374" to-port="0"/>
		<edge from-layer="1369" from-port="1" to-layer="1370" to-port="0"/>
		<edge from-layer="1370" from-port="1" to-layer="1372" to-port="0"/>
		<edge from-layer="1371" from-port="0" to-layer="1372" to-port="1"/>
		<edge from-layer="1371" from-port="0" to-layer="1374" to-port="2"/>
		<edge from-layer="1372" from-port="2" to-layer="1373" to-port="0"/>
		<edge from-layer="1373" from-port="1" to-layer="1374" to-port="1"/>
		<edge from-layer="1374" from-port="3" to-layer="1375" to-port="1"/>
		<edge from-layer="1375" from-port="2" to-layer="1376" to-port="0"/>
		<edge from-layer="1375" from-port="2" to-layer="1515" to-port="0"/>
		<edge from-layer="1375" from-port="2" to-layer="1612" to-port="0"/>
		<edge from-layer="1375" from-port="2" to-layer="1425" to-port="0"/>
		<edge from-layer="1376" from-port="1" to-layer="1378" to-port="0"/>
		<edge from-layer="1377" from-port="0" to-layer="1378" to-port="1"/>
		<edge from-layer="1378" from-port="3" to-layer="1380" to-port="0"/>
		<edge from-layer="1378" from-port="2" to-layer="1393" to-port="0"/>
		<edge from-layer="1379" from-port="0" to-layer="1380" to-port="1"/>
		<edge from-layer="1380" from-port="2" to-layer="1382" to-port="0"/>
		<edge from-layer="1381" from-port="0" to-layer="1382" to-port="1"/>
		<edge from-layer="1382" from-port="2" to-layer="1383" to-port="0"/>
		<edge from-layer="1383" from-port="1" to-layer="1385" to-port="0"/>
		<edge from-layer="1384" from-port="0" to-layer="1385" to-port="1"/>
		<edge from-layer="1385" from-port="2" to-layer="1387" to-port="0"/>
		<edge from-layer="1386" from-port="0" to-layer="1387" to-port="1"/>
		<edge from-layer="1387" from-port="2" to-layer="1389" to-port="0"/>
		<edge from-layer="1388" from-port="0" to-layer="1389" to-port="1"/>
		<edge from-layer="1389" from-port="2" to-layer="1391" to-port="0"/>
		<edge from-layer="1390" from-port="0" to-layer="1391" to-port="1"/>
		<edge from-layer="1391" from-port="2" to-layer="1392" to-port="0"/>
		<edge from-layer="1392" from-port="1" to-layer="1393" to-port="1"/>
		<edge from-layer="1393" from-port="2" to-layer="1395" to-port="0"/>
		<edge from-layer="1394" from-port="0" to-layer="1395" to-port="1"/>
		<edge from-layer="1395" from-port="2" to-layer="1397" to-port="0"/>
		<edge from-layer="1396" from-port="0" to-layer="1397" to-port="1"/>
		<edge from-layer="1397" from-port="2" to-layer="1399" to-port="0"/>
		<edge from-layer="1398" from-port="0" to-layer="1399" to-port="1"/>
		<edge from-layer="1399" from-port="2" to-layer="1401" to-port="0"/>
		<edge from-layer="1400" from-port="0" to-layer="1401" to-port="1"/>
		<edge from-layer="1401" from-port="2" to-layer="1416" to-port="0"/>
		<edge from-layer="1401" from-port="3" to-layer="1403" to-port="0"/>
		<edge from-layer="1402" from-port="0" to-layer="1403" to-port="1"/>
		<edge from-layer="1403" from-port="2" to-layer="1405" to-port="0"/>
		<edge from-layer="1404" from-port="0" to-layer="1405" to-port="1"/>
		<edge from-layer="1405" from-port="2" to-layer="1406" to-port="0"/>
		<edge from-layer="1406" from-port="1" to-layer="1408" to-port="0"/>
		<edge from-layer="1407" from-port="0" to-layer="1408" to-port="1"/>
		<edge from-layer="1408" from-port="2" to-layer="1410" to-port="0"/>
		<edge from-layer="1409" from-port="0" to-layer="1410" to-port="1"/>
		<edge from-layer="1410" from-port="2" to-layer="1412" to-port="0"/>
		<edge from-layer="1411" from-port="0" to-layer="1412" to-port="1"/>
		<edge from-layer="1412" from-port="2" to-layer="1414" to-port="0"/>
		<edge from-layer="1413" from-port="0" to-layer="1414" to-port="1"/>
		<edge from-layer="1414" from-port="2" to-layer="1415" to-port="0"/>
		<edge from-layer="1415" from-port="1" to-layer="1416" to-port="1"/>
		<edge from-layer="1416" from-port="2" to-layer="1418" to-port="0"/>
		<edge from-layer="1417" from-port="0" to-layer="1418" to-port="1"/>
		<edge from-layer="1418" from-port="2" to-layer="1420" to-port="0"/>
		<edge from-layer="1419" from-port="0" to-layer="1420" to-port="1"/>
		<edge from-layer="1420" from-port="2" to-layer="1422" to-port="0"/>
		<edge from-layer="1421" from-port="0" to-layer="1422" to-port="1"/>
		<edge from-layer="1422" from-port="2" to-layer="1423" to-port="1"/>
		<edge from-layer="1422" from-port="2" to-layer="1423" to-port="0"/>
		<edge from-layer="1423" from-port="2" to-layer="1513" to-port="0"/>
		<edge from-layer="1424" from-port="0" to-layer="1425" to-port="1"/>
		<edge from-layer="1425" from-port="2" to-layer="1427" to-port="0"/>
		<edge from-layer="1426" from-port="0" to-layer="1427" to-port="1"/>
		<edge from-layer="1427" from-port="2" to-layer="1429" to-port="0"/>
		<edge from-layer="1428" from-port="0" to-layer="1429" to-port="1"/>
		<edge from-layer="1429" from-port="2" to-layer="1431" to-port="0"/>
		<edge from-layer="1430" from-port="0" to-layer="1431" to-port="1"/>
		<edge from-layer="1431" from-port="2" to-layer="1432" to-port="1"/>
		<edge from-layer="1431" from-port="2" to-layer="1432" to-port="0"/>
		<edge from-layer="1432" from-port="2" to-layer="1433" to-port="0"/>
		<edge from-layer="1433" from-port="2" to-layer="1444" to-port="0"/>
		<edge from-layer="1434" from-port="0" to-layer="1435" to-port="1"/>
		<edge from-layer="1435" from-port="2" to-layer="1437" to-port="0"/>
		<edge from-layer="1436" from-port="0" to-layer="1437" to-port="1"/>
		<edge from-layer="1437" from-port="2" to-layer="1438" to-port="0"/>
		<edge from-layer="1437" from-port="2" to-layer="1443" to-port="0"/>
		<edge from-layer="1438" from-port="1" to-layer="1439" to-port="0"/>
		<edge from-layer="1439" from-port="1" to-layer="1441" to-port="0"/>
		<edge from-layer="1440" from-port="0" to-layer="1441" to-port="1"/>
		<edge from-layer="1440" from-port="0" to-layer="1443" to-port="2"/>
		<edge from-layer="1441" from-port="2" to-layer="1442" to-port="0"/>
		<edge from-layer="1442" from-port="1" to-layer="1443" to-port="1"/>
		<edge from-layer="1443" from-port="3" to-layer="1444" to-port="1"/>
		<edge from-layer="1444" from-port="2" to-layer="1455" to-port="0"/>
		<edge from-layer="1445" from-port="0" to-layer="1446" to-port="1"/>
		<edge from-layer="1446" from-port="2" to-layer="1448" to-port="0"/>
		<edge from-layer="1447" from-port="0" to-layer="1448" to-port="1"/>
		<edge from-layer="1448" from-port="2" to-layer="1449" to-port="0"/>
		<edge from-layer="1448" from-port="2" to-layer="1454" to-port="0"/>
		<edge from-layer="1449" from-port="1" to-layer="1450" to-port="0"/>
		<edge from-layer="1450" from-port="1" to-layer="1452" to-port="0"/>
		<edge from-layer="1451" from-port="0" to-layer="1454" to-port="2"/>
		<edge from-layer="1451" from-port="0" to-layer="1452" to-port="1"/>
		<edge from-layer="1452" from-port="2" to-layer="1453" to-port="0"/>
		<edge from-layer="1453" from-port="1" to-layer="1454" to-port="1"/>
		<edge from-layer="1454" from-port="3" to-layer="1455" to-port="1"/>
		<edge from-layer="1455" from-port="2" to-layer="1456" to-port="0"/>
		<edge from-layer="1456" from-port="1" to-layer="1458" to-port="0"/>
		<edge from-layer="1457" from-port="0" to-layer="1458" to-port="1"/>
		<edge from-layer="1458" from-port="3" to-layer="1460" to-port="0"/>
		<edge from-layer="1458" from-port="2" to-layer="1473" to-port="0"/>
		<edge from-layer="1459" from-port="0" to-layer="1460" to-port="1"/>
		<edge from-layer="1460" from-port="2" to-layer="1462" to-port="0"/>
		<edge from-layer="1461" from-port="0" to-layer="1462" to-port="1"/>
		<edge from-layer="1462" from-port="2" to-layer="1463" to-port="0"/>
		<edge from-layer="1463" from-port="1" to-layer="1465" to-port="0"/>
		<edge from-layer="1464" from-port="0" to-layer="1465" to-port="1"/>
		<edge from-layer="1465" from-port="2" to-layer="1467" to-port="0"/>
		<edge from-layer="1466" from-port="0" to-layer="1467" to-port="1"/>
		<edge from-layer="1467" from-port="2" to-layer="1469" to-port="0"/>
		<edge from-layer="1468" from-port="0" to-layer="1469" to-port="1"/>
		<edge from-layer="1469" from-port="2" to-layer="1471" to-port="0"/>
		<edge from-layer="1470" from-port="0" to-layer="1471" to-port="1"/>
		<edge from-layer="1471" from-port="2" to-layer="1472" to-port="0"/>
		<edge from-layer="1472" from-port="1" to-layer="1473" to-port="1"/>
		<edge from-layer="1473" from-port="2" to-layer="1475" to-port="0"/>
		<edge from-layer="1474" from-port="0" to-layer="1475" to-port="1"/>
		<edge from-layer="1475" from-port="2" to-layer="1477" to-port="0"/>
		<edge from-layer="1476" from-port="0" to-layer="1477" to-port="1"/>
		<edge from-layer="1477" from-port="2" to-layer="1479" to-port="0"/>
		<edge from-layer="1478" from-port="0" to-layer="1479" to-port="1"/>
		<edge from-layer="1479" from-port="2" to-layer="1481" to-port="0"/>
		<edge from-layer="1480" from-port="0" to-layer="1481" to-port="1"/>
		<edge from-layer="1481" from-port="3" to-layer="1483" to-port="0"/>
		<edge from-layer="1481" from-port="2" to-layer="1496" to-port="0"/>
		<edge from-layer="1482" from-port="0" to-layer="1483" to-port="1"/>
		<edge from-layer="1483" from-port="2" to-layer="1485" to-port="0"/>
		<edge from-layer="1484" from-port="0" to-layer="1485" to-port="1"/>
		<edge from-layer="1485" from-port="2" to-layer="1486" to-port="0"/>
		<edge from-layer="1486" from-port="1" to-layer="1488" to-port="0"/>
		<edge from-layer="1487" from-port="0" to-layer="1488" to-port="1"/>
		<edge from-layer="1488" from-port="2" to-layer="1490" to-port="0"/>
		<edge from-layer="1489" from-port="0" to-layer="1490" to-port="1"/>
		<edge from-layer="1490" from-port="2" to-layer="1492" to-port="0"/>
		<edge from-layer="1491" from-port="0" to-layer="1492" to-port="1"/>
		<edge from-layer="1492" from-port="2" to-layer="1494" to-port="0"/>
		<edge from-layer="1493" from-port="0" to-layer="1494" to-port="1"/>
		<edge from-layer="1494" from-port="2" to-layer="1495" to-port="0"/>
		<edge from-layer="1495" from-port="1" to-layer="1496" to-port="1"/>
		<edge from-layer="1496" from-port="2" to-layer="1498" to-port="0"/>
		<edge from-layer="1497" from-port="0" to-layer="1498" to-port="1"/>
		<edge from-layer="1498" from-port="2" to-layer="1500" to-port="0"/>
		<edge from-layer="1499" from-port="0" to-layer="1500" to-port="1"/>
		<edge from-layer="1500" from-port="2" to-layer="1502" to-port="0"/>
		<edge from-layer="1501" from-port="0" to-layer="1502" to-port="1"/>
		<edge from-layer="1502" from-port="2" to-layer="1777" to-port="0"/>
		<edge from-layer="1502" from-port="2" to-layer="1504" to-port="0"/>
		<edge from-layer="1502" from-port="2" to-layer="1826" to-port="0"/>
		<edge from-layer="1502" from-port="2" to-layer="1734" to-port="1"/>
		<edge from-layer="1503" from-port="0" to-layer="1504" to-port="1"/>
		<edge from-layer="1504" from-port="2" to-layer="1506" to-port="0"/>
		<edge from-layer="1505" from-port="0" to-layer="1506" to-port="1"/>
		<edge from-layer="1506" from-port="2" to-layer="1507" to-port="0"/>
		<edge from-layer="1506" from-port="2" to-layer="1512" to-port="0"/>
		<edge from-layer="1507" from-port="1" to-layer="1508" to-port="0"/>
		<edge from-layer="1508" from-port="1" to-layer="1510" to-port="0"/>
		<edge from-layer="1509" from-port="0" to-layer="1510" to-port="1"/>
		<edge from-layer="1509" from-port="0" to-layer="1512" to-port="2"/>
		<edge from-layer="1510" from-port="2" to-layer="1511" to-port="0"/>
		<edge from-layer="1511" from-port="1" to-layer="1512" to-port="1"/>
		<edge from-layer="1512" from-port="3" to-layer="1513" to-port="1"/>
		<edge from-layer="1513" from-port="2" to-layer="1610" to-port="0"/>
		<edge from-layer="1514" from-port="0" to-layer="1515" to-port="1"/>
		<edge from-layer="1515" from-port="2" to-layer="1517" to-port="0"/>
		<edge from-layer="1516" from-port="0" to-layer="1517" to-port="1"/>
		<edge from-layer="1517" from-port="2" to-layer="1519" to-port="0"/>
		<edge from-layer="1518" from-port="0" to-layer="1519" to-port="1"/>
		<edge from-layer="1519" from-port="2" to-layer="1521" to-port="0"/>
		<edge from-layer="1520" from-port="0" to-layer="1521" to-port="1"/>
		<edge from-layer="1521" from-port="2" to-layer="1522" to-port="0"/>
		<edge from-layer="1522" from-port="1" to-layer="1524" to-port="0"/>
		<edge from-layer="1523" from-port="0" to-layer="1524" to-port="1"/>
		<edge from-layer="1524" from-port="2" to-layer="1526" to-port="0"/>
		<edge from-layer="1525" from-port="0" to-layer="1526" to-port="1"/>
		<edge from-layer="1526" from-port="2" to-layer="1528" to-port="0"/>
		<edge from-layer="1527" from-port="0" to-layer="1528" to-port="1"/>
		<edge from-layer="1528" from-port="2" to-layer="1530" to-port="0"/>
		<edge from-layer="1529" from-port="0" to-layer="1530" to-port="1"/>
		<edge from-layer="1530" from-port="2" to-layer="1531" to-port="0"/>
		<edge from-layer="1530" from-port="2" to-layer="1531" to-port="1"/>
		<edge from-layer="1531" from-port="2" to-layer="1540" to-port="0"/>
		<edge from-layer="1532" from-port="0" to-layer="1533" to-port="1"/>
		<edge from-layer="1533" from-port="2" to-layer="1535" to-port="0"/>
		<edge from-layer="1534" from-port="0" to-layer="1535" to-port="1"/>
		<edge from-layer="1535" from-port="2" to-layer="1537" to-port="0"/>
		<edge from-layer="1536" from-port="0" to-layer="1537" to-port="1"/>
		<edge from-layer="1537" from-port="2" to-layer="1539" to-port="0"/>
		<edge from-layer="1538" from-port="0" to-layer="1539" to-port="1"/>
		<edge from-layer="1539" from-port="2" to-layer="1540" to-port="1"/>
		<edge from-layer="1540" from-port="2" to-layer="1541" to-port="0"/>
		<edge from-layer="1541" from-port="2" to-layer="1552" to-port="0"/>
		<edge from-layer="1542" from-port="0" to-layer="1543" to-port="1"/>
		<edge from-layer="1543" from-port="2" to-layer="1545" to-port="0"/>
		<edge from-layer="1544" from-port="0" to-layer="1545" to-port="1"/>
		<edge from-layer="1545" from-port="2" to-layer="1546" to-port="0"/>
		<edge from-layer="1545" from-port="2" to-layer="1551" to-port="0"/>
		<edge from-layer="1546" from-port="1" to-layer="1547" to-port="0"/>
		<edge from-layer="1547" from-port="1" to-layer="1549" to-port="0"/>
		<edge from-layer="1548" from-port="0" to-layer="1549" to-port="1"/>
		<edge from-layer="1548" from-port="0" to-layer="1551" to-port="2"/>
		<edge from-layer="1549" from-port="2" to-layer="1550" to-port="0"/>
		<edge from-layer="1550" from-port="1" to-layer="1551" to-port="1"/>
		<edge from-layer="1551" from-port="3" to-layer="1552" to-port="1"/>
		<edge from-layer="1552" from-port="2" to-layer="1553" to-port="0"/>
		<edge from-layer="1553" from-port="1" to-layer="1555" to-port="0"/>
		<edge from-layer="1554" from-port="0" to-layer="1555" to-port="1"/>
		<edge from-layer="1555" from-port="3" to-layer="1557" to-port="0"/>
		<edge from-layer="1555" from-port="2" to-layer="1570" to-port="0"/>
		<edge from-layer="1556" from-port="0" to-layer="1557" to-port="1"/>
		<edge from-layer="1557" from-port="2" to-layer="1559" to-port="0"/>
		<edge from-layer="1558" from-port="0" to-layer="1559" to-port="1"/>
		<edge from-layer="1559" from-port="2" to-layer="1560" to-port="0"/>
		<edge from-layer="1560" from-port="1" to-layer="1562" to-port="0"/>
		<edge from-layer="1561" from-port="0" to-layer="1562" to-port="1"/>
		<edge from-layer="1562" from-port="2" to-layer="1564" to-port="0"/>
		<edge from-layer="1563" from-port="0" to-layer="1564" to-port="1"/>
		<edge from-layer="1564" from-port="2" to-layer="1566" to-port="0"/>
		<edge from-layer="1565" from-port="0" to-layer="1566" to-port="1"/>
		<edge from-layer="1566" from-port="2" to-layer="1568" to-port="0"/>
		<edge from-layer="1567" from-port="0" to-layer="1568" to-port="1"/>
		<edge from-layer="1568" from-port="2" to-layer="1569" to-port="0"/>
		<edge from-layer="1569" from-port="1" to-layer="1570" to-port="1"/>
		<edge from-layer="1570" from-port="2" to-layer="1572" to-port="0"/>
		<edge from-layer="1571" from-port="0" to-layer="1572" to-port="1"/>
		<edge from-layer="1572" from-port="2" to-layer="1574" to-port="0"/>
		<edge from-layer="1573" from-port="0" to-layer="1574" to-port="1"/>
		<edge from-layer="1574" from-port="2" to-layer="1576" to-port="0"/>
		<edge from-layer="1575" from-port="0" to-layer="1576" to-port="1"/>
		<edge from-layer="1576" from-port="2" to-layer="1578" to-port="0"/>
		<edge from-layer="1577" from-port="0" to-layer="1578" to-port="1"/>
		<edge from-layer="1578" from-port="3" to-layer="1580" to-port="0"/>
		<edge from-layer="1578" from-port="2" to-layer="1593" to-port="0"/>
		<edge from-layer="1579" from-port="0" to-layer="1580" to-port="1"/>
		<edge from-layer="1580" from-port="2" to-layer="1582" to-port="0"/>
		<edge from-layer="1581" from-port="0" to-layer="1582" to-port="1"/>
		<edge from-layer="1582" from-port="2" to-layer="1583" to-port="0"/>
		<edge from-layer="1583" from-port="1" to-layer="1585" to-port="0"/>
		<edge from-layer="1584" from-port="0" to-layer="1585" to-port="1"/>
		<edge from-layer="1585" from-port="2" to-layer="1587" to-port="0"/>
		<edge from-layer="1586" from-port="0" to-layer="1587" to-port="1"/>
		<edge from-layer="1587" from-port="2" to-layer="1589" to-port="0"/>
		<edge from-layer="1588" from-port="0" to-layer="1589" to-port="1"/>
		<edge from-layer="1589" from-port="2" to-layer="1591" to-port="0"/>
		<edge from-layer="1590" from-port="0" to-layer="1591" to-port="1"/>
		<edge from-layer="1591" from-port="2" to-layer="1592" to-port="0"/>
		<edge from-layer="1592" from-port="1" to-layer="1593" to-port="1"/>
		<edge from-layer="1593" from-port="2" to-layer="1595" to-port="0"/>
		<edge from-layer="1594" from-port="0" to-layer="1595" to-port="1"/>
		<edge from-layer="1595" from-port="2" to-layer="1597" to-port="0"/>
		<edge from-layer="1596" from-port="0" to-layer="1597" to-port="1"/>
		<edge from-layer="1597" from-port="2" to-layer="1599" to-port="0"/>
		<edge from-layer="1598" from-port="0" to-layer="1599" to-port="1"/>
		<edge from-layer="1599" from-port="2" to-layer="1601" to-port="0"/>
		<edge from-layer="1599" from-port="2" to-layer="1736" to-port="0"/>
		<edge from-layer="1599" from-port="2" to-layer="1785" to-port="1"/>
		<edge from-layer="1599" from-port="2" to-layer="1844" to-port="0"/>
		<edge from-layer="1600" from-port="0" to-layer="1601" to-port="1"/>
		<edge from-layer="1601" from-port="2" to-layer="1603" to-port="0"/>
		<edge from-layer="1602" from-port="0" to-layer="1603" to-port="1"/>
		<edge from-layer="1603" from-port="2" to-layer="1604" to-port="0"/>
		<edge from-layer="1603" from-port="2" to-layer="1609" to-port="0"/>
		<edge from-layer="1604" from-port="1" to-layer="1605" to-port="0"/>
		<edge from-layer="1605" from-port="1" to-layer="1607" to-port="0"/>
		<edge from-layer="1606" from-port="0" to-layer="1607" to-port="1"/>
		<edge from-layer="1606" from-port="0" to-layer="1609" to-port="2"/>
		<edge from-layer="1607" from-port="2" to-layer="1608" to-port="0"/>
		<edge from-layer="1608" from-port="1" to-layer="1609" to-port="1"/>
		<edge from-layer="1609" from-port="3" to-layer="1610" to-port="1"/>
		<edge from-layer="1610" from-port="2" to-layer="1723" to-port="0"/>
		<edge from-layer="1611" from-port="0" to-layer="1612" to-port="1"/>
		<edge from-layer="1612" from-port="2" to-layer="1614" to-port="0"/>
		<edge from-layer="1613" from-port="0" to-layer="1614" to-port="1"/>
		<edge from-layer="1614" from-port="2" to-layer="1616" to-port="0"/>
		<edge from-layer="1615" from-port="0" to-layer="1616" to-port="1"/>
		<edge from-layer="1616" from-port="2" to-layer="1618" to-port="0"/>
		<edge from-layer="1617" from-port="0" to-layer="1618" to-port="1"/>
		<edge from-layer="1618" from-port="2" to-layer="1619" to-port="0"/>
		<edge from-layer="1619" from-port="1" to-layer="1621" to-port="0"/>
		<edge from-layer="1620" from-port="0" to-layer="1621" to-port="1"/>
		<edge from-layer="1621" from-port="2" to-layer="1623" to-port="0"/>
		<edge from-layer="1622" from-port="0" to-layer="1623" to-port="1"/>
		<edge from-layer="1623" from-port="2" to-layer="1625" to-port="0"/>
		<edge from-layer="1624" from-port="0" to-layer="1625" to-port="1"/>
		<edge from-layer="1625" from-port="2" to-layer="1627" to-port="0"/>
		<edge from-layer="1626" from-port="0" to-layer="1627" to-port="1"/>
		<edge from-layer="1627" from-port="2" to-layer="1628" to-port="0"/>
		<edge from-layer="1628" from-port="1" to-layer="1630" to-port="0"/>
		<edge from-layer="1629" from-port="0" to-layer="1630" to-port="1"/>
		<edge from-layer="1630" from-port="2" to-layer="1632" to-port="0"/>
		<edge from-layer="1631" from-port="0" to-layer="1632" to-port="1"/>
		<edge from-layer="1632" from-port="2" to-layer="1634" to-port="0"/>
		<edge from-layer="1633" from-port="0" to-layer="1634" to-port="1"/>
		<edge from-layer="1634" from-port="2" to-layer="1636" to-port="0"/>
		<edge from-layer="1635" from-port="0" to-layer="1636" to-port="1"/>
		<edge from-layer="1636" from-port="2" to-layer="1637" to-port="0"/>
		<edge from-layer="1636" from-port="2" to-layer="1637" to-port="1"/>
		<edge from-layer="1637" from-port="2" to-layer="1655" to-port="0"/>
		<edge from-layer="1638" from-port="0" to-layer="1639" to-port="1"/>
		<edge from-layer="1639" from-port="2" to-layer="1641" to-port="0"/>
		<edge from-layer="1640" from-port="0" to-layer="1641" to-port="1"/>
		<edge from-layer="1641" from-port="2" to-layer="1643" to-port="0"/>
		<edge from-layer="1642" from-port="0" to-layer="1643" to-port="1"/>
		<edge from-layer="1643" from-port="2" to-layer="1645" to-port="0"/>
		<edge from-layer="1644" from-port="0" to-layer="1645" to-port="1"/>
		<edge from-layer="1645" from-port="2" to-layer="1646" to-port="0"/>
		<edge from-layer="1646" from-port="1" to-layer="1648" to-port="0"/>
		<edge from-layer="1647" from-port="0" to-layer="1648" to-port="1"/>
		<edge from-layer="1648" from-port="2" to-layer="1650" to-port="0"/>
		<edge from-layer="1649" from-port="0" to-layer="1650" to-port="1"/>
		<edge from-layer="1650" from-port="2" to-layer="1652" to-port="0"/>
		<edge from-layer="1651" from-port="0" to-layer="1652" to-port="1"/>
		<edge from-layer="1652" from-port="2" to-layer="1654" to-port="0"/>
		<edge from-layer="1653" from-port="0" to-layer="1654" to-port="1"/>
		<edge from-layer="1654" from-port="2" to-layer="1655" to-port="1"/>
		<edge from-layer="1655" from-port="2" to-layer="1664" to-port="0"/>
		<edge from-layer="1656" from-port="0" to-layer="1657" to-port="1"/>
		<edge from-layer="1657" from-port="2" to-layer="1659" to-port="0"/>
		<edge from-layer="1658" from-port="0" to-layer="1659" to-port="1"/>
		<edge from-layer="1659" from-port="2" to-layer="1661" to-port="0"/>
		<edge from-layer="1660" from-port="0" to-layer="1661" to-port="1"/>
		<edge from-layer="1661" from-port="2" to-layer="1663" to-port="0"/>
		<edge from-layer="1662" from-port="0" to-layer="1663" to-port="1"/>
		<edge from-layer="1663" from-port="2" to-layer="1664" to-port="1"/>
		<edge from-layer="1664" from-port="2" to-layer="1665" to-port="0"/>
		<edge from-layer="1665" from-port="2" to-layer="1666" to-port="0"/>
		<edge from-layer="1666" from-port="1" to-layer="1668" to-port="0"/>
		<edge from-layer="1667" from-port="0" to-layer="1668" to-port="1"/>
		<edge from-layer="1668" from-port="2" to-layer="1683" to-port="0"/>
		<edge from-layer="1668" from-port="3" to-layer="1670" to-port="0"/>
		<edge from-layer="1669" from-port="0" to-layer="1670" to-port="1"/>
		<edge from-layer="1670" from-port="2" to-layer="1672" to-port="0"/>
		<edge from-layer="1671" from-port="0" to-layer="1672" to-port="1"/>
		<edge from-layer="1672" from-port="2" to-layer="1673" to-port="0"/>
		<edge from-layer="1673" from-port="1" to-layer="1675" to-port="0"/>
		<edge from-layer="1674" from-port="0" to-layer="1675" to-port="1"/>
		<edge from-layer="1675" from-port="2" to-layer="1677" to-port="0"/>
		<edge from-layer="1676" from-port="0" to-layer="1677" to-port="1"/>
		<edge from-layer="1677" from-port="2" to-layer="1679" to-port="0"/>
		<edge from-layer="1678" from-port="0" to-layer="1679" to-port="1"/>
		<edge from-layer="1679" from-port="2" to-layer="1681" to-port="0"/>
		<edge from-layer="1680" from-port="0" to-layer="1681" to-port="1"/>
		<edge from-layer="1681" from-port="2" to-layer="1682" to-port="0"/>
		<edge from-layer="1682" from-port="1" to-layer="1683" to-port="1"/>
		<edge from-layer="1683" from-port="2" to-layer="1685" to-port="0"/>
		<edge from-layer="1684" from-port="0" to-layer="1685" to-port="1"/>
		<edge from-layer="1685" from-port="2" to-layer="1687" to-port="0"/>
		<edge from-layer="1686" from-port="0" to-layer="1687" to-port="1"/>
		<edge from-layer="1687" from-port="2" to-layer="1689" to-port="0"/>
		<edge from-layer="1688" from-port="0" to-layer="1689" to-port="1"/>
		<edge from-layer="1689" from-port="2" to-layer="1691" to-port="0"/>
		<edge from-layer="1690" from-port="0" to-layer="1691" to-port="1"/>
		<edge from-layer="1691" from-port="2" to-layer="1706" to-port="0"/>
		<edge from-layer="1691" from-port="3" to-layer="1693" to-port="0"/>
		<edge from-layer="1692" from-port="0" to-layer="1693" to-port="1"/>
		<edge from-layer="1693" from-port="2" to-layer="1695" to-port="0"/>
		<edge from-layer="1694" from-port="0" to-layer="1695" to-port="1"/>
		<edge from-layer="1695" from-port="2" to-layer="1696" to-port="0"/>
		<edge from-layer="1696" from-port="1" to-layer="1698" to-port="0"/>
		<edge from-layer="1697" from-port="0" to-layer="1698" to-port="1"/>
		<edge from-layer="1698" from-port="2" to-layer="1700" to-port="0"/>
		<edge from-layer="1699" from-port="0" to-layer="1700" to-port="1"/>
		<edge from-layer="1700" from-port="2" to-layer="1702" to-port="0"/>
		<edge from-layer="1701" from-port="0" to-layer="1702" to-port="1"/>
		<edge from-layer="1702" from-port="2" to-layer="1704" to-port="0"/>
		<edge from-layer="1703" from-port="0" to-layer="1704" to-port="1"/>
		<edge from-layer="1704" from-port="2" to-layer="1705" to-port="0"/>
		<edge from-layer="1705" from-port="1" to-layer="1706" to-port="1"/>
		<edge from-layer="1706" from-port="2" to-layer="1708" to-port="0"/>
		<edge from-layer="1707" from-port="0" to-layer="1708" to-port="1"/>
		<edge from-layer="1708" from-port="2" to-layer="1710" to-port="0"/>
		<edge from-layer="1709" from-port="0" to-layer="1710" to-port="1"/>
		<edge from-layer="1710" from-port="2" to-layer="1712" to-port="0"/>
		<edge from-layer="1711" from-port="0" to-layer="1712" to-port="1"/>
		<edge from-layer="1712" from-port="2" to-layer="1714" to-port="0"/>
		<edge from-layer="1712" from-port="2" to-layer="1747" to-port="0"/>
		<edge from-layer="1712" from-port="2" to-layer="1852" to-port="1"/>
		<edge from-layer="1712" from-port="2" to-layer="1787" to-port="0"/>
		<edge from-layer="1713" from-port="0" to-layer="1714" to-port="1"/>
		<edge from-layer="1714" from-port="2" to-layer="1716" to-port="0"/>
		<edge from-layer="1715" from-port="0" to-layer="1716" to-port="1"/>
		<edge from-layer="1716" from-port="2" to-layer="1717" to-port="0"/>
		<edge from-layer="1716" from-port="2" to-layer="1722" to-port="0"/>
		<edge from-layer="1717" from-port="1" to-layer="1718" to-port="0"/>
		<edge from-layer="1718" from-port="1" to-layer="1720" to-port="0"/>
		<edge from-layer="1719" from-port="0" to-layer="1722" to-port="2"/>
		<edge from-layer="1719" from-port="0" to-layer="1720" to-port="1"/>
		<edge from-layer="1720" from-port="2" to-layer="1721" to-port="0"/>
		<edge from-layer="1721" from-port="1" to-layer="1722" to-port="1"/>
		<edge from-layer="1722" from-port="3" to-layer="1723" to-port="1"/>
		<edge from-layer="1723" from-port="2" to-layer="1726" to-port="0"/>
		<edge from-layer="1723" from-port="2" to-layer="1759" to-port="0"/>
		<edge from-layer="1723" from-port="2" to-layer="1724" to-port="0"/>
		<edge from-layer="1723" from-port="2" to-layer="1799" to-port="0"/>
		<edge from-layer="1724" from-port="1" to-layer="1922" to-port="0"/>
		<edge from-layer="1725" from-port="0" to-layer="1726" to-port="1"/>
		<edge from-layer="1726" from-port="2" to-layer="1728" to-port="0"/>
		<edge from-layer="1727" from-port="0" to-layer="1728" to-port="1"/>
		<edge from-layer="1728" from-port="2" to-layer="1730" to-port="0"/>
		<edge from-layer="1729" from-port="0" to-layer="1730" to-port="1"/>
		<edge from-layer="1730" from-port="2" to-layer="1732" to-port="0"/>
		<edge from-layer="1731" from-port="0" to-layer="1732" to-port="1"/>
		<edge from-layer="1732" from-port="2" to-layer="1733" to-port="0"/>
		<edge from-layer="1732" from-port="2" to-layer="1733" to-port="1"/>
		<edge from-layer="1733" from-port="2" to-layer="1734" to-port="0"/>
		<edge from-layer="1734" from-port="2" to-layer="1745" to-port="0"/>
		<edge from-layer="1735" from-port="0" to-layer="1736" to-port="1"/>
		<edge from-layer="1736" from-port="2" to-layer="1738" to-port="0"/>
		<edge from-layer="1737" from-port="0" to-layer="1738" to-port="1"/>
		<edge from-layer="1738" from-port="2" to-layer="1739" to-port="0"/>
		<edge from-layer="1738" from-port="2" to-layer="1744" to-port="0"/>
		<edge from-layer="1739" from-port="1" to-layer="1740" to-port="0"/>
		<edge from-layer="1740" from-port="1" to-layer="1742" to-port="0"/>
		<edge from-layer="1741" from-port="0" to-layer="1742" to-port="1"/>
		<edge from-layer="1741" from-port="0" to-layer="1744" to-port="2"/>
		<edge from-layer="1742" from-port="2" to-layer="1743" to-port="0"/>
		<edge from-layer="1743" from-port="1" to-layer="1744" to-port="1"/>
		<edge from-layer="1744" from-port="3" to-layer="1745" to-port="1"/>
		<edge from-layer="1745" from-port="2" to-layer="1756" to-port="0"/>
		<edge from-layer="1746" from-port="0" to-layer="1747" to-port="1"/>
		<edge from-layer="1747" from-port="2" to-layer="1749" to-port="0"/>
		<edge from-layer="1748" from-port="0" to-layer="1749" to-port="1"/>
		<edge from-layer="1749" from-port="2" to-layer="1750" to-port="0"/>
		<edge from-layer="1749" from-port="2" to-layer="1755" to-port="0"/>
		<edge from-layer="1750" from-port="1" to-layer="1751" to-port="0"/>
		<edge from-layer="1751" from-port="1" to-layer="1753" to-port="0"/>
		<edge from-layer="1752" from-port="0" to-layer="1753" to-port="1"/>
		<edge from-layer="1752" from-port="0" to-layer="1755" to-port="2"/>
		<edge from-layer="1753" from-port="2" to-layer="1754" to-port="0"/>
		<edge from-layer="1754" from-port="1" to-layer="1755" to-port="1"/>
		<edge from-layer="1755" from-port="3" to-layer="1756" to-port="1"/>
		<edge from-layer="1756" from-port="2" to-layer="1757" to-port="0"/>
		<edge from-layer="1757" from-port="1" to-layer="1899" to-port="0"/>
		<edge from-layer="1758" from-port="0" to-layer="1759" to-port="1"/>
		<edge from-layer="1759" from-port="2" to-layer="1761" to-port="0"/>
		<edge from-layer="1760" from-port="0" to-layer="1761" to-port="1"/>
		<edge from-layer="1761" from-port="2" to-layer="1763" to-port="0"/>
		<edge from-layer="1762" from-port="0" to-layer="1763" to-port="1"/>
		<edge from-layer="1763" from-port="2" to-layer="1765" to-port="0"/>
		<edge from-layer="1764" from-port="0" to-layer="1765" to-port="1"/>
		<edge from-layer="1765" from-port="2" to-layer="1766" to-port="0"/>
		<edge from-layer="1766" from-port="1" to-layer="1768" to-port="0"/>
		<edge from-layer="1767" from-port="0" to-layer="1768" to-port="1"/>
		<edge from-layer="1768" from-port="2" to-layer="1770" to-port="0"/>
		<edge from-layer="1769" from-port="0" to-layer="1770" to-port="1"/>
		<edge from-layer="1770" from-port="2" to-layer="1772" to-port="0"/>
		<edge from-layer="1771" from-port="0" to-layer="1772" to-port="1"/>
		<edge from-layer="1772" from-port="2" to-layer="1774" to-port="0"/>
		<edge from-layer="1773" from-port="0" to-layer="1774" to-port="1"/>
		<edge from-layer="1774" from-port="2" to-layer="1775" to-port="0"/>
		<edge from-layer="1774" from-port="2" to-layer="1775" to-port="1"/>
		<edge from-layer="1775" from-port="2" to-layer="1784" to-port="0"/>
		<edge from-layer="1776" from-port="0" to-layer="1777" to-port="1"/>
		<edge from-layer="1777" from-port="2" to-layer="1779" to-port="0"/>
		<edge from-layer="1778" from-port="0" to-layer="1779" to-port="1"/>
		<edge from-layer="1779" from-port="2" to-layer="1781" to-port="0"/>
		<edge from-layer="1780" from-port="0" to-layer="1781" to-port="1"/>
		<edge from-layer="1781" from-port="2" to-layer="1783" to-port="0"/>
		<edge from-layer="1782" from-port="0" to-layer="1783" to-port="1"/>
		<edge from-layer="1783" from-port="2" to-layer="1784" to-port="1"/>
		<edge from-layer="1784" from-port="2" to-layer="1785" to-port="0"/>
		<edge from-layer="1785" from-port="2" to-layer="1796" to-port="0"/>
		<edge from-layer="1786" from-port="0" to-layer="1787" to-port="1"/>
		<edge from-layer="1787" from-port="2" to-layer="1789" to-port="0"/>
		<edge from-layer="1788" from-port="0" to-layer="1789" to-port="1"/>
		<edge from-layer="1789" from-port="2" to-layer="1795" to-port="0"/>
		<edge from-layer="1789" from-port="2" to-layer="1790" to-port="0"/>
		<edge from-layer="1790" from-port="1" to-layer="1791" to-port="0"/>
		<edge from-layer="1791" from-port="1" to-layer="1793" to-port="0"/>
		<edge from-layer="1792" from-port="0" to-layer="1793" to-port="1"/>
		<edge from-layer="1792" from-port="0" to-layer="1795" to-port="2"/>
		<edge from-layer="1793" from-port="2" to-layer="1794" to-port="0"/>
		<edge from-layer="1794" from-port="1" to-layer="1795" to-port="1"/>
		<edge from-layer="1795" from-port="3" to-layer="1796" to-port="1"/>
		<edge from-layer="1796" from-port="2" to-layer="1797" to-port="0"/>
		<edge from-layer="1797" from-port="1" to-layer="1876" to-port="0"/>
		<edge from-layer="1798" from-port="0" to-layer="1799" to-port="1"/>
		<edge from-layer="1799" from-port="2" to-layer="1801" to-port="0"/>
		<edge from-layer="1800" from-port="0" to-layer="1801" to-port="1"/>
		<edge from-layer="1801" from-port="2" to-layer="1803" to-port="0"/>
		<edge from-layer="1802" from-port="0" to-layer="1803" to-port="1"/>
		<edge from-layer="1803" from-port="2" to-layer="1805" to-port="0"/>
		<edge from-layer="1804" from-port="0" to-layer="1805" to-port="1"/>
		<edge from-layer="1805" from-port="2" to-layer="1806" to-port="0"/>
		<edge from-layer="1806" from-port="1" to-layer="1808" to-port="0"/>
		<edge from-layer="1807" from-port="0" to-layer="1808" to-port="1"/>
		<edge from-layer="1808" from-port="2" to-layer="1810" to-port="0"/>
		<edge from-layer="1809" from-port="0" to-layer="1810" to-port="1"/>
		<edge from-layer="1810" from-port="2" to-layer="1812" to-port="0"/>
		<edge from-layer="1811" from-port="0" to-layer="1812" to-port="1"/>
		<edge from-layer="1812" from-port="2" to-layer="1814" to-port="0"/>
		<edge from-layer="1813" from-port="0" to-layer="1814" to-port="1"/>
		<edge from-layer="1814" from-port="2" to-layer="1815" to-port="0"/>
		<edge from-layer="1815" from-port="1" to-layer="1817" to-port="0"/>
		<edge from-layer="1816" from-port="0" to-layer="1817" to-port="1"/>
		<edge from-layer="1817" from-port="2" to-layer="1819" to-port="0"/>
		<edge from-layer="1818" from-port="0" to-layer="1819" to-port="1"/>
		<edge from-layer="1819" from-port="2" to-layer="1821" to-port="0"/>
		<edge from-layer="1820" from-port="0" to-layer="1821" to-port="1"/>
		<edge from-layer="1821" from-port="2" to-layer="1823" to-port="0"/>
		<edge from-layer="1822" from-port="0" to-layer="1823" to-port="1"/>
		<edge from-layer="1823" from-port="2" to-layer="1824" to-port="0"/>
		<edge from-layer="1823" from-port="2" to-layer="1824" to-port="1"/>
		<edge from-layer="1824" from-port="2" to-layer="1842" to-port="0"/>
		<edge from-layer="1825" from-port="0" to-layer="1826" to-port="1"/>
		<edge from-layer="1826" from-port="2" to-layer="1828" to-port="0"/>
		<edge from-layer="1827" from-port="0" to-layer="1828" to-port="1"/>
		<edge from-layer="1828" from-port="2" to-layer="1830" to-port="0"/>
		<edge from-layer="1829" from-port="0" to-layer="1830" to-port="1"/>
		<edge from-layer="1830" from-port="2" to-layer="1832" to-port="0"/>
		<edge from-layer="1831" from-port="0" to-layer="1832" to-port="1"/>
		<edge from-layer="1832" from-port="2" to-layer="1833" to-port="0"/>
		<edge from-layer="1833" from-port="1" to-layer="1835" to-port="0"/>
		<edge from-layer="1834" from-port="0" to-layer="1835" to-port="1"/>
		<edge from-layer="1835" from-port="2" to-layer="1837" to-port="0"/>
		<edge from-layer="1836" from-port="0" to-layer="1837" to-port="1"/>
		<edge from-layer="1837" from-port="2" to-layer="1839" to-port="0"/>
		<edge from-layer="1838" from-port="0" to-layer="1839" to-port="1"/>
		<edge from-layer="1839" from-port="2" to-layer="1841" to-port="0"/>
		<edge from-layer="1840" from-port="0" to-layer="1841" to-port="1"/>
		<edge from-layer="1841" from-port="2" to-layer="1842" to-port="1"/>
		<edge from-layer="1842" from-port="2" to-layer="1851" to-port="0"/>
		<edge from-layer="1843" from-port="0" to-layer="1844" to-port="1"/>
		<edge from-layer="1844" from-port="2" to-layer="1846" to-port="0"/>
		<edge from-layer="1845" from-port="0" to-layer="1846" to-port="1"/>
		<edge from-layer="1846" from-port="2" to-layer="1848" to-port="0"/>
		<edge from-layer="1847" from-port="0" to-layer="1848" to-port="1"/>
		<edge from-layer="1848" from-port="2" to-layer="1850" to-port="0"/>
		<edge from-layer="1849" from-port="0" to-layer="1850" to-port="1"/>
		<edge from-layer="1850" from-port="2" to-layer="1851" to-port="1"/>
		<edge from-layer="1851" from-port="2" to-layer="1852" to-port="0"/>
		<edge from-layer="1852" from-port="2" to-layer="1853" to-port="0"/>
		<edge from-layer="1853" from-port="1" to-layer="1855" to-port="0"/>
		<edge from-layer="1854" from-port="0" to-layer="1855" to-port="1"/>
		<edge from-layer="1855" from-port="2" to-layer="1857" to-port="0"/>
		<edge from-layer="1856" from-port="0" to-layer="1857" to-port="1"/>
		<edge from-layer="1857" from-port="2" to-layer="1859" to-port="0"/>
		<edge from-layer="1858" from-port="0" to-layer="1859" to-port="1"/>
		<edge from-layer="1859" from-port="2" to-layer="1861" to-port="0"/>
		<edge from-layer="1860" from-port="0" to-layer="1861" to-port="1"/>
		<edge from-layer="1861" from-port="2" to-layer="1862" to-port="0"/>
		<edge from-layer="1862" from-port="1" to-layer="1863" to-port="0"/>
		<edge from-layer="1862" from-port="1" to-layer="1875" to-port="0"/>
		<edge from-layer="1863" from-port="1" to-layer="1867" to-port="0"/>
		<edge from-layer="1863" from-port="1" to-layer="1871" to-port="0"/>
		<edge from-layer="1864" from-port="0" to-layer="1867" to-port="1"/>
		<edge from-layer="1865" from-port="0" to-layer="1867" to-port="2"/>
		<edge from-layer="1866" from-port="0" to-layer="1867" to-port="3"/>
		<edge from-layer="1867" from-port="4" to-layer="1869" to-port="0"/>
		<edge from-layer="1868" from-port="0" to-layer="1869" to-port="1"/>
		<edge from-layer="1869" from-port="2" to-layer="1875" to-port="1"/>
		<edge from-layer="1869" from-port="2" to-layer="1870" to-port="0"/>
		<edge from-layer="1870" from-port="1" to-layer="1872" to-port="0"/>
		<edge from-layer="1871" from-port="1" to-layer="1872" to-port="1"/>
		<edge from-layer="1872" from-port="2" to-layer="1874" to-port="0"/>
		<edge from-layer="1873" from-port="0" to-layer="1874" to-port="1"/>
		<edge from-layer="1874" from-port="2" to-layer="1875" to-port="2"/>
		<edge from-layer="1875" from-port="3" to-layer="1876" to-port="1"/>
		<edge from-layer="1876" from-port="2" to-layer="1878" to-port="0"/>
		<edge from-layer="1877" from-port="0" to-layer="1878" to-port="1"/>
		<edge from-layer="1878" from-port="2" to-layer="1880" to-port="0"/>
		<edge from-layer="1879" from-port="0" to-layer="1880" to-port="1"/>
		<edge from-layer="1880" from-port="2" to-layer="1882" to-port="0"/>
		<edge from-layer="1881" from-port="0" to-layer="1882" to-port="1"/>
		<edge from-layer="1882" from-port="2" to-layer="1884" to-port="0"/>
		<edge from-layer="1883" from-port="0" to-layer="1884" to-port="1"/>
		<edge from-layer="1884" from-port="2" to-layer="1885" to-port="0"/>
		<edge from-layer="1885" from-port="1" to-layer="1886" to-port="0"/>
		<edge from-layer="1885" from-port="1" to-layer="1898" to-port="0"/>
		<edge from-layer="1886" from-port="1" to-layer="1890" to-port="0"/>
		<edge from-layer="1886" from-port="1" to-layer="1894" to-port="0"/>
		<edge from-layer="1887" from-port="0" to-layer="1890" to-port="1"/>
		<edge from-layer="1888" from-port="0" to-layer="1890" to-port="2"/>
		<edge from-layer="1889" from-port="0" to-layer="1890" to-port="3"/>
		<edge from-layer="1890" from-port="4" to-layer="1892" to-port="0"/>
		<edge from-layer="1891" from-port="0" to-layer="1892" to-port="1"/>
		<edge from-layer="1892" from-port="2" to-layer="1893" to-port="0"/>
		<edge from-layer="1892" from-port="2" to-layer="1898" to-port="1"/>
		<edge from-layer="1893" from-port="1" to-layer="1895" to-port="0"/>
		<edge from-layer="1894" from-port="1" to-layer="1895" to-port="1"/>
		<edge from-layer="1895" from-port="2" to-layer="1897" to-port="0"/>
		<edge from-layer="1896" from-port="0" to-layer="1897" to-port="1"/>
		<edge from-layer="1897" from-port="2" to-layer="1898" to-port="2"/>
		<edge from-layer="1898" from-port="3" to-layer="1899" to-port="1"/>
		<edge from-layer="1899" from-port="2" to-layer="1901" to-port="0"/>
		<edge from-layer="1900" from-port="0" to-layer="1901" to-port="1"/>
		<edge from-layer="1901" from-port="2" to-layer="1903" to-port="0"/>
		<edge from-layer="1902" from-port="0" to-layer="1903" to-port="1"/>
		<edge from-layer="1903" from-port="2" to-layer="1905" to-port="0"/>
		<edge from-layer="1904" from-port="0" to-layer="1905" to-port="1"/>
		<edge from-layer="1905" from-port="2" to-layer="1907" to-port="0"/>
		<edge from-layer="1906" from-port="0" to-layer="1907" to-port="1"/>
		<edge from-layer="1907" from-port="2" to-layer="1908" to-port="0"/>
		<edge from-layer="1908" from-port="1" to-layer="1909" to-port="0"/>
		<edge from-layer="1908" from-port="1" to-layer="1921" to-port="0"/>
		<edge from-layer="1909" from-port="1" to-layer="1913" to-port="0"/>
		<edge from-layer="1909" from-port="1" to-layer="1917" to-port="0"/>
		<edge from-layer="1910" from-port="0" to-layer="1913" to-port="1"/>
		<edge from-layer="1911" from-port="0" to-layer="1913" to-port="2"/>
		<edge from-layer="1912" from-port="0" to-layer="1913" to-port="3"/>
		<edge from-layer="1913" from-port="4" to-layer="1915" to-port="0"/>
		<edge from-layer="1914" from-port="0" to-layer="1915" to-port="1"/>
		<edge from-layer="1915" from-port="2" to-layer="1916" to-port="0"/>
		<edge from-layer="1915" from-port="2" to-layer="1921" to-port="1"/>
		<edge from-layer="1916" from-port="1" to-layer="1918" to-port="0"/>
		<edge from-layer="1917" from-port="1" to-layer="1918" to-port="1"/>
		<edge from-layer="1918" from-port="2" to-layer="1920" to-port="0"/>
		<edge from-layer="1919" from-port="0" to-layer="1920" to-port="1"/>
		<edge from-layer="1920" from-port="2" to-layer="1921" to-port="2"/>
		<edge from-layer="1921" from-port="3" to-layer="1922" to-port="1"/>
		<edge from-layer="1922" from-port="2" to-layer="1924" to-port="0"/>
		<edge from-layer="1923" from-port="0" to-layer="1924" to-port="1"/>
		<edge from-layer="1924" from-port="2" to-layer="1926" to-port="0"/>
		<edge from-layer="1925" from-port="0" to-layer="1926" to-port="1"/>
		<edge from-layer="1926" from-port="2" to-layer="1928" to-port="0"/>
		<edge from-layer="1927" from-port="0" to-layer="1928" to-port="1"/>
		<edge from-layer="1928" from-port="2" to-layer="1930" to-port="0"/>
		<edge from-layer="1929" from-port="0" to-layer="1930" to-port="1"/>
		<edge from-layer="1930" from-port="2" to-layer="1931" to-port="0"/>
		<edge from-layer="1931" from-port="1" to-layer="1933" to-port="0"/>
		<edge from-layer="1932" from-port="0" to-layer="1933" to-port="1"/>
		<edge from-layer="1933" from-port="2" to-layer="1935" to-port="0"/>
		<edge from-layer="1934" from-port="0" to-layer="1935" to-port="1"/>
		<edge from-layer="1935" from-port="2" to-layer="1937" to-port="0"/>
		<edge from-layer="1935" from-port="2" to-layer="1944" to-port="0"/>
		<edge from-layer="1936" from-port="0" to-layer="1937" to-port="1"/>
		<edge from-layer="1937" from-port="2" to-layer="1939" to-port="0"/>
		<edge from-layer="1938" from-port="0" to-layer="1939" to-port="1"/>
		<edge from-layer="1939" from-port="3" to-layer="1940" to-port="0"/>
		<edge from-layer="1940" from-port="1" to-layer="1942" to-port="0"/>
		<edge from-layer="1941" from-port="0" to-layer="1942" to-port="1"/>
		<edge from-layer="1942" from-port="2" to-layer="1943" to-port="0"/>
	</edges>
	<meta_data>
		<MO_version value="2022.1.0-7019-cdb9bec7210-releases/2022/1"/>
		<Runtime_version value="2022.1.0-7019-cdb9bec7210-releases/2022/1"/>
		<legacy_path value="False"/>
		<cli_parameters>
			<caffe_parser_path value="DIR"/>
			<compress_fp16 value="False"/>
			<data_type value="float"/>
			<disable_nhwc_to_nchw value="False"/>
			<disable_omitting_optional value="False"/>
			<disable_resnet_optimization value="False"/>
			<disable_weights_compression value="False"/>
			<enable_concat_optimization value="False"/>
			<enable_flattening_nested_params value="False"/>
			<enable_ssd_gluoncv value="False"/>
			<extensions value="DIR"/>
			<framework value="onnx"/>
			<freeze_placeholder_with_value value="{}"/>
			<input_model value="DIR\tinypose_128_96.onnx"/>
			<input_model_is_text value="False"/>
			<k value="DIR\CustomLayersMapping.xml"/>
			<layout value="()"/>
			<layout_values value="{}"/>
			<legacy_mxnet_model value="False"/>
			<log_level value="ERROR"/>
			<mean_scale_values value="{}"/>
			<mean_values value="()"/>
			<model_name value="tinypose_128_96"/>
			<output_dir value="DIR"/>
			<placeholder_data_types value="{}"/>
			<progress value="False"/>
			<remove_memory value="False"/>
			<remove_output_softmax value="False"/>
			<reverse_input_channels value="False"/>
			<save_params_from_nd value="False"/>
			<scale_values value="()"/>
			<silent value="False"/>
			<source_layout value="()"/>
			<static_shape value="False"/>
			<stream_output value="False"/>
			<target_layout value="()"/>
			<transform value=""/>
			<use_legacy_frontend value="False"/>
			<use_new_frontend value="False"/>
			<unset unset_cli_parameters="batch, counts, disable_fusing, finegrain_fusing, input, input_checkpoint, input_meta_graph, input_proto, input_shape, input_symbol, mean_file, mean_file_offsets, nd_prefix_name, output, placeholder_shapes, pretrained_model_name, saved_model_dir, saved_model_tags, scale, tensorboard_logdir, tensorflow_custom_layer_libraries, tensorflow_custom_operations_config_update, tensorflow_object_detection_api_pipeline_config, tensorflow_use_custom_operations_config, transformations_config"/>
		</cli_parameters>
	</meta_data>
</net>
